{"format": "graph-model", "generatedBy": "2.17.0", "convertedBy": "TensorFlow.js Converter v4.21.0", "signature": {"inputs": {"xs_6:0": {"name": "xs_6:0", "dtype": "DT_BOOL", "tensorShape": {"dim": [{"size": "-1"}]}}, "xs_10": {"name": "xs_10:0", "dtype": "DT_BOOL", "tensorShape": {"dim": [{"size": "4"}, {"size": "-1"}, {"size": "-1"}]}}, "xs_2": {"name": "xs_2:0", "dtype": "DT_FLOAT", "tensorShape": {"dim": [{"size": "-1"}, {"size": "19"}]}}, "xs_8:0": {"name": "xs_8:0", "dtype": "DT_BOOL", "tensorShape": {"dim": [{"size": "-1"}]}}, "xs_11": {"name": "xs_11:0", "dtype": "DT_INT32", "tensorShape": {"dim": [{"size": "-1"}, {"size": "2"}]}}, "xs_3": {"name": "xs_3:0", "dtype": "DT_FLOAT", "tensorShape": {"dim": [{"size": "-1"}, {"size": "27"}]}}, "xs_1": {"name": "xs_1:0", "dtype": "DT_FLOAT", "tensorShape": {"dim": [{"size": "1"}]}}, "xs_4": {"name": "xs_4:0", "dtype": "DT_FLOAT", "tensorShape": {"dim": [{"size": "-1"}, {"size": "22"}]}}, "xs_5": {"name": "xs_5:0", "dtype": "DT_FLOAT", "tensorShape": {"dim": [{"size": "-1"}, {"size": "8"}]}}, "xs_7:0": {"name": "xs_7:0", "dtype": "DT_BOOL", "tensorShape": {"dim": [{"size": "-1"}]}}, "xs_0": {"name": "xs_0:0", "dtype": "DT_FLOAT", "tensorShape": {"dim": [{"size": "1"}, {"size": "256"}]}}, "xs_12": {"name": "xs_12:0", "dtype": "DT_INT32", "tensorShape": {"dim": [{"size": "-1"}]}}, "xs_9:0": {"name": "xs_9:0", "dtype": "DT_BOOL", "tensorShape": {"dim": [{"size": "-1"}]}}}, "outputs": {"output_2": {"name": "Identity_2:0", "dtype": "DT_FLOAT", "tensorShape": {}}, "output_1": {"name": "Identity_1:0", "dtype": "DT_FLOAT", "tensorShape": {"dim": [{"size": "16"}]}}, "output_0": {"name": "Identity:0", "dtype": "DT_FLOAT", "tensorShape": {"dim": [{"size": "1"}, {"size": "256"}]}}}}, "modelTopology": {"node": [{"name": "StatefulPartitionedCall/jax2tf_apply_/ActorCriticTransformerFlats/ActorCriticTransformerFlats/GeneralActorCriticRNN_0/Dense_0/ExpandDims/dim", "op": "Const", "attr": {"value": {"tensor": {"dtype": "DT_INT32", "tensorShape": {}}}, "dtype": {"type": "DT_INT32"}}, "inputs": []}, {"name": "StatefulPartitionedCall/jax2tf_arg_9/ReadVariableOp", "op": "Const", "attr": {"value": {"tensor": {"dtype": "DT_FLOAT", "tensorShape": {"dim": [{"size": "128"}, {"size": "128"}]}}}, "dtype": {"type": "DT_FLOAT"}}, "inputs": []}, {"name": "StatefulPartitionedCall/jax2tf_arg_8/ReadVariableOp", "op": "Const", "attr": {"value": {"tensor": {"dtype": "DT_FLOAT", "tensorShape": {"dim": [{"size": "128"}]}}}, "dtype": {"type": "DT_FLOAT"}}, "inputs": []}, {"name": "StatefulPartitionedCall/jax2tf_apply_/ActorCriticTransformerFlats/ActorCriticTransformerFlats/GeneralActorCriticRNN_0/Dense_2/ExpandDims/dim", "op": "Const", "attr": {"value": {"tensor": {"dtype": "DT_INT32", "tensorShape": {}}}, "dtype": {"type": "DT_INT32"}}, "inputs": []}, {"name": "StatefulPartitionedCall/jax2tf_arg_17/ReadVariableOp", "op": "Const", "attr": {"value": {"tensor": {"dtype": "DT_FLOAT", "tensorShape": {"dim": [{"size": "128"}, {"size": "128"}]}}}, "dtype": {"type": "DT_FLOAT"}}, "inputs": []}, {"name": "StatefulPartitionedCall/jax2tf_arg_16/ReadVariableOp", "op": "Const", "attr": {"value": {"tensor": {"dtype": "DT_FLOAT", "tensorShape": {"dim": [{"size": "128"}]}}}, "dtype": {"type": "DT_FLOAT"}}, "inputs": []}, {"name": "StatefulPartitionedCall/jax2tf_apply_/ActorCriticTransformerFlats/ActorCriticTransformerFlats/GeneralActorCriticRNN_0/Dense_4/ExpandDims/dim", "op": "Const", "attr": {"value": {"tensor": {"dtype": "DT_INT32", "tensorShape": {}}}, "dtype": {"type": "DT_INT32"}}, "inputs": []}, {"name": "StatefulPartitionedCall/jax2tf_arg_21/ReadVariableOp", "op": "Const", "attr": {"value": {"tensor": {"dtype": "DT_FLOAT", "tensorShape": {"dim": [{"size": "128"}, {"size": "128"}]}}}, "dtype": {"type": "DT_FLOAT"}}, "inputs": []}, {"name": "StatefulPartitionedCall/jax2tf_arg_20/ReadVariableOp", "op": "Const", "attr": {"value": {"tensor": {"dtype": "DT_FLOAT", "tensorShape": {"dim": [{"size": "128"}]}}}, "dtype": {"type": "DT_FLOAT"}}, "inputs": []}, {"name": "StatefulPartitionedCall/jax2tf_apply_/ActorCriticTransformerFlats/ActorCriticTransformerFlats/GeneralActorCriticRNN_0/Dense_6/ExpandDims/dim", "op": "Const", "attr": {"value": {"tensor": {"dtype": "DT_INT32", "tensorShape": {}}}, "dtype": {"type": "DT_INT32"}}, "inputs": []}, {"name": "StatefulPartitionedCall/jax2tf_arg_25/ReadVariableOp", "op": "Const", "attr": {"value": {"tensor": {"dtype": "DT_FLOAT", "tensorShape": {"dim": [{"size": "128"}, {"size": "128"}]}}}, "dtype": {"type": "DT_FLOAT"}}, "inputs": []}, {"name": "StatefulPartitionedCall/jax2tf_arg_24/ReadVariableOp", "op": "Const", "attr": {"value": {"tensor": {"dtype": "DT_FLOAT", "tensorShape": {"dim": [{"size": "128"}]}}}, "dtype": {"type": "DT_FLOAT"}}, "inputs": []}, {"name": "StatefulPartitionedCall/jax2tf_apply_/ActorCriticTransformerFlats/ActorCriticTransformerFlats/GeneralActorCriticRNN_0/Dense_8/ExpandDims/dim", "op": "Const", "attr": {"value": {"tensor": {"dtype": "DT_INT32", "tensorShape": {}}}, "dtype": {"type": "DT_INT32"}}, "inputs": []}, {"name": "StatefulPartitionedCall/jax2tf_arg_29/ReadVariableOp", "op": "Const", "attr": {"value": {"tensor": {"dtype": "DT_FLOAT", "tensorShape": {"dim": [{"size": "128"}, {"size": "128"}]}}}, "dtype": {"type": "DT_FLOAT"}}, "inputs": []}, {"name": "StatefulPartitionedCall/jax2tf_arg_28/ReadVariableOp", "op": "Const", "attr": {"value": {"tensor": {"dtype": "DT_FLOAT", "tensorShape": {"dim": [{"size": "128"}]}}}, "dtype": {"type": "DT_FLOAT"}}, "inputs": []}, {"name": "StatefulPartitionedCall/jax2tf_apply_/ActorCriticTransformerFlats/ActorCriticTransformerFlats/GeneralActorCriticRNN_0/Dense_10/ExpandDims/dim", "op": "Const", "attr": {"value": {"tensor": {"dtype": "DT_INT32", "tensorShape": {}}}, "dtype": {"type": "DT_INT32"}}, "inputs": []}, {"name": "StatefulPartitionedCall/jax2tf_arg_13/ReadVariableOp", "op": "Const", "attr": {"value": {"tensor": {"dtype": "DT_FLOAT", "tensorShape": {"dim": [{"size": "128"}, {"size": "16"}]}}}, "dtype": {"type": "DT_FLOAT"}}, "inputs": []}, {"name": "StatefulPartitionedCall/jax2tf_arg_12/ReadVariableOp", "op": "Const", "attr": {"value": {"tensor": {"dtype": "DT_FLOAT", "tensorShape": {"dim": [{"size": "16"}]}}}, "dtype": {"type": "DT_FLOAT"}}, "inputs": []}, {"name": "StatefulPartitionedCall/jax2tf_apply_/ActorCriticTransformerFlats/ActorCriticTransformerFlats/pjit__mean_/pjit__where_/Const_3", "op": "Const", "attr": {"value": {"tensor": {"dtype": "DT_INT32", "tensorShape": {}}}, "dtype": {"type": "DT_INT32"}}, "inputs": []}, {"name": "StatefulPartitionedCall/jax2tf_apply_/ActorCriticTransformerFlats/ActorCriticTransformerFlats/pjit__mean_/pjit__where_/BroadcastTo/shape/1", "op": "Const", "attr": {"value": {"tensor": {"dtype": "DT_INT32", "tensorShape": {}}}, "dtype": {"type": "DT_INT32"}}, "inputs": []}, {"name": "StatefulPartitionedCall/jax2tf_apply_/ActorCriticTransformerFlats/ActorCriticTransformerFlats/Transformer_0/add_5/x/1", "op": "Const", "attr": {"value": {"tensor": {"dtype": "DT_INT32", "tensorShape": {}}}, "dtype": {"type": "DT_INT32"}}, "inputs": []}, {"name": "StatefulPartitionedCall/jax2tf_apply_/ActorCriticTransformerFlats/ActorCriticTransformerFlats/Transformer_0/ScatterNd_5", "op": "Const", "attr": {"value": {"tensor": {"dtype": "DT_INT32", "tensorShape": {"dim": [{"size": "2"}]}}}, "dtype": {"type": "DT_INT32"}}, "inputs": []}, {"name": "StatefulPartitionedCall/jax2tf_apply_/ActorCriticTransformerFlats/ActorCriticTransformerFlats/Transformer_0/Sub_11/x/1", "op": "Const", "attr": {"value": {"tensor": {"dtype": "DT_INT32", "tensorShape": {}}}, "dtype": {"type": "DT_INT32"}}, "inputs": []}, {"name": "StatefulPartitionedCall/jax2tf_apply_/ActorCriticTransformerFlats/ActorCriticTransformerFlats/Transformer_0/Sub_11/y/1", "op": "Const", "attr": {"value": {"tensor": {"dtype": "DT_INT32", "tensorShape": {}}}, "dtype": {"type": "DT_INT32"}}, "inputs": []}, {"name": "StatefulPartitionedCall/jax2tf_apply_/ActorCriticTransformerFlats/ActorCriticTransformerFlats/Transformer_0/clip_by_value_11/y", "op": "Const", "attr": {"value": {"tensor": {"dtype": "DT_INT32", "tensorShape": {}}}, "dtype": {"type": "DT_INT32"}}, "inputs": []}, {"name": "StatefulPartitionedCall/jax2tf_apply_/ActorCriticTransformerFlats/ActorCriticTransformerFlats/Transformer_0/ones_like_5", "op": "Const", "attr": {"value": {"tensor": {"dtype": "DT_INT32", "tensorShape": {"dim": [{"size": "2"}]}}}, "dtype": {"type": "DT_INT32"}}, "inputs": []}, {"name": "StatefulPartitionedCall/Const_39", "op": "Const", "attr": {"value": {"tensor": {"dtype": "DT_INT32", "tensorShape": {}}}, "dtype": {"type": "DT_INT32"}}, "inputs": []}, {"name": "StatefulPartitionedCall/jax2tf_apply_/ActorCriticTransformerFlats/ActorCriticTransformerFlats/Transformer_0/Const_35", "op": "Const", "attr": {"value": {"tensor": {"dtype": "DT_INT32", "tensorShape": {}}}, "dtype": {"type": "DT_INT32"}}, "inputs": []}, {"name": "StatefulPartitionedCall/jax2tf_apply_/ActorCriticTransformerFlats/ActorCriticTransformerFlats/Transformer_0/add_3/x/1", "op": "Const", "attr": {"value": {"tensor": {"dtype": "DT_INT32", "tensorShape": {}}}, "dtype": {"type": "DT_INT32"}}, "inputs": []}, {"name": "StatefulPartitionedCall/jax2tf_apply_/ActorCriticTransformerFlats/ActorCriticTransformerFlats/Transformer_0/ScatterNd_3", "op": "Const", "attr": {"value": {"tensor": {"dtype": "DT_INT32", "tensorShape": {"dim": [{"size": "2"}]}}}, "dtype": {"type": "DT_INT32"}}, "inputs": []}, {"name": "StatefulPartitionedCall/jax2tf_apply_/ActorCriticTransformerFlats/ActorCriticTransformerFlats/Transformer_0/Sub_6/x/1", "op": "Const", "attr": {"value": {"tensor": {"dtype": "DT_INT32", "tensorShape": {}}}, "dtype": {"type": "DT_INT32"}}, "inputs": []}, {"name": "StatefulPartitionedCall/jax2tf_apply_/ActorCriticTransformerFlats/ActorCriticTransformerFlats/Transformer_0/Sub_6/y/1", "op": "Const", "attr": {"value": {"tensor": {"dtype": "DT_INT32", "tensorShape": {}}}, "dtype": {"type": "DT_INT32"}}, "inputs": []}, {"name": "StatefulPartitionedCall/jax2tf_apply_/ActorCriticTransformerFlats/ActorCriticTransformerFlats/Transformer_0/clip_by_value_6/y", "op": "Const", "attr": {"value": {"tensor": {"dtype": "DT_INT32", "tensorShape": {}}}, "dtype": {"type": "DT_INT32"}}, "inputs": []}, {"name": "StatefulPartitionedCall/jax2tf_apply_/ActorCriticTransformerFlats/ActorCriticTransformerFlats/Transformer_0/ones_like_3", "op": "Const", "attr": {"value": {"tensor": {"dtype": "DT_INT32", "tensorShape": {"dim": [{"size": "2"}]}}}, "dtype": {"type": "DT_INT32"}}, "inputs": []}, {"name": "StatefulPartitionedCall/jax2tf_apply_/ActorCriticTransformerFlats/ActorCriticTransformerFlats/Transformer_0/Reshape_16/shape/1", "op": "Const", "attr": {"value": {"tensor": {"dtype": "DT_INT32", "tensorShape": {}}}, "dtype": {"type": "DT_INT32"}}, "inputs": []}, {"name": "StatefulPartitionedCall/jax2tf_apply_/ActorCriticTransformerFlats/ActorCriticTransformerFlats/Transformer_0/BroadcastTo_16/shape/1", "op": "Const", "attr": {"value": {"tensor": {"dtype": "DT_INT32", "tensorShape": {}}}, "dtype": {"type": "DT_INT32"}}, "inputs": []}, {"name": "StatefulPartitionedCall/jax2tf_apply_/ActorCriticTransformerFlats/ActorCriticTransformerFlats/Transformer_0/Const_38", "op": "Const", "attr": {"value": {"tensor": {"dtype": "DT_INT32", "tensorShape": {}}}, "dtype": {"type": "DT_INT32"}}, "inputs": []}, {"name": "StatefulPartitionedCall/jax2tf_apply_/ActorCriticTransformerFlats/ActorCriticTransformerFlats/Transformer_0/Sub_7/y", "op": "Const", "attr": {"value": {"tensor": {"dtype": "DT_INT32", "tensorShape": {"dim": [{"size": "1"}]}}}, "dtype": {"type": "DT_INT32"}}, "inputs": []}, {"name": "StatefulPartitionedCall/jax2tf_apply_/ActorCriticTransformerFlats/ActorCriticTransformerFlats/Transformer_0/clip_by_value_7/y", "op": "Const", "attr": {"value": {"tensor": {"dtype": "DT_INT32", "tensorShape": {}}}, "dtype": {"type": "DT_INT32"}}, "inputs": []}, {"name": "StatefulPartitionedCall/jax2tf_apply_/ActorCriticTransformerFlats/ActorCriticTransformerFlats/Transformer_0/GatherV2_3/axis", "op": "Const", "attr": {"value": {"tensor": {"dtype": "DT_INT32", "tensorShape": {}}}, "dtype": {"type": "DT_INT32"}}, "inputs": []}, {"name": "StatefulPartitionedCall/jax2tf_apply_/ActorCriticTransformerFlats/ActorCriticTransformerFlats/Transformer_0/BroadcastTo_17/shape/1", "op": "Const", "attr": {"value": {"tensor": {"dtype": "DT_INT32", "tensorShape": {}}}, "dtype": {"type": "DT_INT32"}}, "inputs": []}, {"name": "StatefulPartitionedCall/Const_41", "op": "Const", "attr": {"value": {"tensor": {"dtype": "DT_INT32", "tensorShape": {}}}, "dtype": {"type": "DT_INT32"}}, "inputs": []}, {"name": "StatefulPartitionedCall/jax2tf_apply_/ActorCriticTransformerFlats/ActorCriticTransformerFlats/Transformer_0/Const_44", "op": "Const", "attr": {"value": {"tensor": {"dtype": "DT_INT32", "tensorShape": {}}}, "dtype": {"type": "DT_INT32"}}, "inputs": []}, {"name": "StatefulPartitionedCall/jax2tf_apply_/ActorCriticTransformerFlats/ActorCriticTransformerFlats/Transformer_0/add_4/x/1", "op": "Const", "attr": {"value": {"tensor": {"dtype": "DT_INT32", "tensorShape": {}}}, "dtype": {"type": "DT_INT32"}}, "inputs": []}, {"name": "StatefulPartitionedCall/jax2tf_apply_/ActorCriticTransformerFlats/ActorCriticTransformerFlats/Transformer_0/ScatterNd_4", "op": "Const", "attr": {"value": {"tensor": {"dtype": "DT_INT32", "tensorShape": {"dim": [{"size": "2"}]}}}, "dtype": {"type": "DT_INT32"}}, "inputs": []}, {"name": "StatefulPartitionedCall/jax2tf_apply_/ActorCriticTransformerFlats/ActorCriticTransformerFlats/Transformer_0/Sub_8/x/1", "op": "Const", "attr": {"value": {"tensor": {"dtype": "DT_INT32", "tensorShape": {}}}, "dtype": {"type": "DT_INT32"}}, "inputs": []}, {"name": "StatefulPartitionedCall/jax2tf_apply_/ActorCriticTransformerFlats/ActorCriticTransformerFlats/Transformer_0/Sub_8/y/1", "op": "Const", "attr": {"value": {"tensor": {"dtype": "DT_INT32", "tensorShape": {}}}, "dtype": {"type": "DT_INT32"}}, "inputs": []}, {"name": "StatefulPartitionedCall/jax2tf_apply_/ActorCriticTransformerFlats/ActorCriticTransformerFlats/Transformer_0/clip_by_value_8/y", "op": "Const", "attr": {"value": {"tensor": {"dtype": "DT_INT32", "tensorShape": {}}}, "dtype": {"type": "DT_INT32"}}, "inputs": []}, {"name": "StatefulPartitionedCall/jax2tf_apply_/ActorCriticTransformerFlats/ActorCriticTransformerFlats/Transformer_0/ones_like_4", "op": "Const", "attr": {"value": {"tensor": {"dtype": "DT_INT32", "tensorShape": {"dim": [{"size": "2"}]}}}, "dtype": {"type": "DT_INT32"}}, "inputs": []}, {"name": "StatefulPartitionedCall/jax2tf_apply_/ActorCriticTransformerFlats/ActorCriticTransformerFlats/Transformer_0/Reshape_20/shape/1", "op": "Const", "attr": {"value": {"tensor": {"dtype": "DT_INT32", "tensorShape": {}}}, "dtype": {"type": "DT_INT32"}}, "inputs": []}, {"name": "StatefulPartitionedCall/jax2tf_apply_/ActorCriticTransformerFlats/ActorCriticTransformerFlats/Transformer_0/BroadcastTo_20/shape/1", "op": "Const", "attr": {"value": {"tensor": {"dtype": "DT_INT32", "tensorShape": {}}}, "dtype": {"type": "DT_INT32"}}, "inputs": []}, {"name": "StatefulPartitionedCall/jax2tf_apply_/ActorCriticTransformerFlats/ActorCriticTransformerFlats/Transformer_0/Const_47", "op": "Const", "attr": {"value": {"tensor": {"dtype": "DT_INT32", "tensorShape": {}}}, "dtype": {"type": "DT_INT32"}}, "inputs": []}, {"name": "StatefulPartitionedCall/jax2tf_apply_/ActorCriticTransformerFlats/ActorCriticTransformerFlats/Transformer_0/Sub_9/y", "op": "Const", "attr": {"value": {"tensor": {"dtype": "DT_INT32", "tensorShape": {"dim": [{"size": "1"}]}}}, "dtype": {"type": "DT_INT32"}}, "inputs": []}, {"name": "StatefulPartitionedCall/jax2tf_apply_/ActorCriticTransformerFlats/ActorCriticTransformerFlats/Transformer_0/clip_by_value_9/y", "op": "Const", "attr": {"value": {"tensor": {"dtype": "DT_INT32", "tensorShape": {}}}, "dtype": {"type": "DT_INT32"}}, "inputs": []}, {"name": "StatefulPartitionedCall/jax2tf_apply_/ActorCriticTransformerFlats/ActorCriticTransformerFlats/Transformer_0/GatherV2_4/axis", "op": "Const", "attr": {"value": {"tensor": {"dtype": "DT_INT32", "tensorShape": {}}}, "dtype": {"type": "DT_INT32"}}, "inputs": []}, {"name": "StatefulPartitionedCall/jax2tf_apply_/ActorCriticTransformerFlats/ActorCriticTransformerFlats/Transformer_0/BroadcastTo_21/shape/1", "op": "Const", "attr": {"value": {"tensor": {"dtype": "DT_INT32", "tensorShape": {}}}, "dtype": {"type": "DT_INT32"}}, "inputs": []}, {"name": "StatefulPartitionedCall/jax2tf_apply_/ActorCriticTransformerFlats/ActorCriticTransformerFlats/Transformer_0/Cast_2/x", "op": "Const", "attr": {"value": {"tensor": {"dtype": "DT_INT32", "tensorShape": {}}}, "dtype": {"type": "DT_INT32"}}, "inputs": []}, {"name": "StatefulPartitionedCall/jax2tf_arg_35/ReadVariableOp", "op": "Const", "attr": {"value": {"tensor": {"dtype": "DT_FLOAT", "tensorShape": {"dim": [{"size": "384"}, {"size": "128"}]}}}, "dtype": {"type": "DT_FLOAT"}}, "inputs": []}, {"name": "StatefulPartitionedCall/jax2tf_apply_/ActorCriticTransformerFlats/ActorCriticTransformerFlats/Transformer_0/joint_layers_1/Reshape", "op": "Const", "attr": {"value": {"tensor": {"dtype": "DT_FLOAT", "tensorShape": {"dim": [{"size": "1"}, {"size": "128"}]}}}, "dtype": {"type": "DT_FLOAT"}}, "inputs": []}, {"name": "StatefulPartitionedCall/jax2tf_apply_/ActorCriticTransformerFlats/ActorCriticTransformerFlats/Transformer_0/Reshape_22/shape/1", "op": "Const", "attr": {"value": {"tensor": {"dtype": "DT_INT32", "tensorShape": {}}}, "dtype": {"type": "DT_INT32"}}, "inputs": []}, {"name": "StatefulPartitionedCall/jax2tf_apply_/ActorCriticTransformerFlats/ActorCriticTransformerFlats/Transformer_0/BroadcastTo_22/shape/1", "op": "Const", "attr": {"value": {"tensor": {"dtype": "DT_INT32", "tensorShape": {}}}, "dtype": {"type": "DT_INT32"}}, "inputs": []}, {"name": "StatefulPartitionedCall/jax2tf_apply_/ActorCriticTransformerFlats/ActorCriticTransformerFlats/Transformer_0/Const_64", "op": "Const", "attr": {"value": {"tensor": {"dtype": "DT_INT32", "tensorShape": {}}}, "dtype": {"type": "DT_INT32"}}, "inputs": []}, {"name": "StatefulPartitionedCall/jax2tf_apply_/ActorCriticTransformerFlats/ActorCriticTransformerFlats/Transformer_0/scan/while_2/loop_counter", "op": "Const", "attr": {"value": {"tensor": {"dtype": "DT_INT32", "tensorShape": {}}}, "dtype": {"type": "DT_INT32"}}, "inputs": []}, {"name": "StatefulPartitionedCall/jax2tf_apply_/ActorCriticTransformerFlats/ActorCriticTransformerFlats/Transformer_0/tf_layers_1/gate2/pjit__lambda__/Cast", "op": "Const", "attr": {"value": {"tensor": {"dtype": "DT_FLOAT", "tensorShape": {}}}, "dtype": {"type": "DT_FLOAT"}}, "inputs": []}, {"name": "StatefulPartitionedCall/jax2tf_apply_/ActorCriticTransformerFlats/ActorCriticTransformerFlats/Transformer_0/tf_layers_1/gate2/pjit_sigmoid_/Const_2", "op": "Const", "attr": {"value": {"tensor": {"dtype": "DT_FLOAT", "tensorShape": {}}}, "dtype": {"type": "DT_FLOAT"}}, "inputs": []}, {"name": "StatefulPartitionedCall/jax2tf_arg_83/ReadVariableOp", "op": "Const", "attr": {"value": {"tensor": {"dtype": "DT_FLOAT", "tensorShape": {"dim": [{"size": "128"}, {"size": "128"}]}}}, "dtype": {"type": "DT_FLOAT"}}, "inputs": []}, {"name": "StatefulPartitionedCall/jax2tf_arg_84/ReadVariableOp", "op": "Const", "attr": {"value": {"tensor": {"dtype": "DT_FLOAT", "tensorShape": {"dim": [{"size": "128"}, {"size": "128"}]}}}, "dtype": {"type": "DT_FLOAT"}}, "inputs": []}, {"name": "StatefulPartitionedCall/jax2tf_apply_/ActorCriticTransformerFlats/ActorCriticTransformerFlats/Transformer_0/tf_layers_1/gate2/pjit__lambda__/BroadcastTo", "op": "Const", "attr": {"value": {"tensor": {"dtype": "DT_FLOAT", "tensorShape": {"dim": [{"size": "1"}, {"size": "128"}]}}}, "dtype": {"type": "DT_FLOAT"}}, "inputs": []}, {"name": "StatefulPartitionedCall/jax2tf_arg_85/ReadVariableOp", "op": "Const", "attr": {"value": {"tensor": {"dtype": "DT_FLOAT", "tensorShape": {"dim": [{"size": "128"}, {"size": "128"}]}}}, "dtype": {"type": "DT_FLOAT"}}, "inputs": []}, {"name": "StatefulPartitionedCall/jax2tf_apply_/ActorCriticTransformerFlats/ActorCriticTransformerFlats/Transformer_0/tf_layers_1/gate2/pjit_sigmoid_/Const", "op": "Const", "attr": {"value": {"tensor": {"dtype": "DT_FLOAT", "tensorShape": {}}}, "dtype": {"type": "DT_FLOAT"}}, "inputs": []}, {"name": "StatefulPartitionedCall/jax2tf_apply_/ActorCriticTransformerFlats/ActorCriticTransformerFlats/Transformer_0/tf_layers_1/ln2/Const_2", "op": "Const", "attr": {"value": {"tensor": {"dtype": "DT_INT32", "tensorShape": {}}}, "dtype": {"type": "DT_INT32"}}, "inputs": []}, {"name": "StatefulPartitionedCall/jax2tf_apply_/ActorCriticTransformerFlats/ActorCriticTransformerFlats/Transformer_0/tf_layers_1/ln2/Reshape/shape/1", "op": "Const", "attr": {"value": {"tensor": {"dtype": "DT_INT32", "tensorShape": {}}}, "dtype": {"type": "DT_INT32"}}, "inputs": []}, {"name": "StatefulPartitionedCall/jax2tf_apply_/ActorCriticTransformerFlats/ActorCriticTransformerFlats/Transformer_0/tf_layers_1/ln2/Const_4", "op": "Const", "attr": {"value": {"tensor": {"dtype": "DT_INT32", "tensorShape": {}}}, "dtype": {"type": "DT_INT32"}}, "inputs": []}, {"name": "StatefulPartitionedCall/jax2tf_apply_/ActorCriticTransformerFlats/ActorCriticTransformerFlats/Transformer_0/tf_layers_1/ln2/BroadcastTo/shape/1", "op": "Const", "attr": {"value": {"tensor": {"dtype": "DT_INT32", "tensorShape": {}}}, "dtype": {"type": "DT_INT32"}}, "inputs": []}, {"name": "StatefulPartitionedCall/Const_35", "op": "Const", "attr": {"value": {"tensor": {"dtype": "DT_FLOAT", "tensorShape": {}}}, "dtype": {"type": "DT_FLOAT"}}, "inputs": []}, {"name": "StatefulPartitionedCall/jax2tf_apply_/ActorCriticTransformerFlats/ActorCriticTransformerFlats/Transformer_0/tf_layers_1/ln2/pjit__mean_/Sum_1/reduction_indices", "op": "Const", "attr": {"value": {"tensor": {"dtype": "DT_INT32", "tensorShape": {"dim": [{"size": "1"}]}}}, "dtype": {"type": "DT_INT32"}}, "inputs": []}, {"name": "ConstantFolding/StatefulPartitionedCall/jax2tf_apply_/ActorCriticTransformerFlats/ActorCriticTransformerFlats/Transformer_0/tf_layers_1/ln2/pjit__mean_/truediv_1_recip", "op": "Const", "attr": {"value": {"tensor": {"dtype": "DT_FLOAT", "tensorShape": {}}}, "dtype": {"type": "DT_FLOAT"}}, "inputs": []}, {"name": "StatefulPartitionedCall/jax2tf_apply_/ActorCriticTransformerFlats/ActorCriticTransformerFlats/Transformer_0/tf_layers_1/ln2/pjit__mean_/Sum/reduction_indices", "op": "Const", "attr": {"value": {"tensor": {"dtype": "DT_INT32", "tensorShape": {"dim": [{"size": "1"}]}}}, "dtype": {"type": "DT_INT32"}}, "inputs": []}, {"name": "ConstantFolding/StatefulPartitionedCall/jax2tf_apply_/ActorCriticTransformerFlats/ActorCriticTransformerFlats/Transformer_0/tf_layers_1/ln2/pjit__mean_/truediv_recip", "op": "Const", "attr": {"value": {"tensor": {"dtype": "DT_FLOAT", "tensorShape": {}}}, "dtype": {"type": "DT_FLOAT"}}, "inputs": []}, {"name": "StatefulPartitionedCall/jax2tf_apply_/ActorCriticTransformerFlats/ActorCriticTransformerFlats/Transformer_0/tf_layers_1/ln2/Const_6", "op": "Const", "attr": {"value": {"tensor": {"dtype": "DT_INT32", "tensorShape": {}}}, "dtype": {"type": "DT_INT32"}}, "inputs": []}, {"name": "StatefulPartitionedCall/jax2tf_apply_/ActorCriticTransformerFlats/ActorCriticTransformerFlats/Transformer_0/tf_layers_1/ln2/Reshape_1/shape/1", "op": "Const", "attr": {"value": {"tensor": {"dtype": "DT_INT32", "tensorShape": {}}}, "dtype": {"type": "DT_INT32"}}, "inputs": []}, {"name": "StatefulPartitionedCall/jax2tf_apply_/ActorCriticTransformerFlats/ActorCriticTransformerFlats/Transformer_0/tf_layers_1/ln2/Const_8", "op": "Const", "attr": {"value": {"tensor": {"dtype": "DT_INT32", "tensorShape": {}}}, "dtype": {"type": "DT_INT32"}}, "inputs": []}, {"name": "StatefulPartitionedCall/jax2tf_apply_/ActorCriticTransformerFlats/ActorCriticTransformerFlats/Transformer_0/tf_layers_1/ln2/BroadcastTo_1/shape/1", "op": "Const", "attr": {"value": {"tensor": {"dtype": "DT_INT32", "tensorShape": {}}}, "dtype": {"type": "DT_INT32"}}, "inputs": []}, {"name": "StatefulPartitionedCall/Const_36", "op": "Const", "attr": {"value": {"tensor": {"dtype": "DT_FLOAT", "tensorShape": {}}}, "dtype": {"type": "DT_FLOAT"}}, "inputs": []}, {"name": "StatefulPartitionedCall/jax2tf_apply_/ActorCriticTransformerFlats/ActorCriticTransformerFlats/Transformer_0/tf_layers_1/ln2/Reshape_2", "op": "Const", "attr": {"value": {"tensor": {"dtype": "DT_FLOAT", "tensorShape": {"dim": [{"size": "1"}, {"size": "128"}]}}}, "dtype": {"type": "DT_FLOAT"}}, "inputs": []}, {"name": "StatefulPartitionedCall/jax2tf_apply_/ActorCriticTransformerFlats/ActorCriticTransformerFlats/Transformer_0/tf_layers_1/ln2/Reshape_3", "op": "Const", "attr": {"value": {"tensor": {"dtype": "DT_FLOAT", "tensorShape": {"dim": [{"size": "1"}, {"size": "128"}]}}}, "dtype": {"type": "DT_FLOAT"}}, "inputs": []}, {"name": "StatefulPartitionedCall/jax2tf_arg_73/ReadVariableOp", "op": "Const", "attr": {"value": {"tensor": {"dtype": "DT_FLOAT", "tensorShape": {"dim": [{"size": "128"}, {"size": "128"}]}}}, "dtype": {"type": "DT_FLOAT"}}, "inputs": []}, {"name": "StatefulPartitionedCall/jax2tf_apply_/ActorCriticTransformerFlats/ActorCriticTransformerFlats/Transformer_0/tf_layers_1/dense1/Reshape", "op": "Const", "attr": {"value": {"tensor": {"dtype": "DT_FLOAT", "tensorShape": {"dim": [{"size": "1"}, {"size": "128"}]}}}, "dtype": {"type": "DT_FLOAT"}}, "inputs": []}, {"name": "StatefulPartitionedCall/jax2tf_apply_/ActorCriticTransformerFlats/ActorCriticTransformerFlats/Transformer_0/tf_layers_1/Const_1", "op": "Const", "attr": {"value": {"tensor": {"dtype": "DT_FLOAT", "tensorShape": {}}}, "dtype": {"type": "DT_FLOAT"}}, "inputs": []}, {"name": "StatefulPartitionedCall/jax2tf_arg_81/ReadVariableOp", "op": "Const", "attr": {"value": {"tensor": {"dtype": "DT_FLOAT", "tensorShape": {"dim": [{"size": "128"}, {"size": "128"}]}}}, "dtype": {"type": "DT_FLOAT"}}, "inputs": []}, {"name": "StatefulPartitionedCall/jax2tf_arg_82/ReadVariableOp", "op": "Const", "attr": {"value": {"tensor": {"dtype": "DT_FLOAT", "tensorShape": {"dim": [{"size": "128"}, {"size": "128"}]}}}, "dtype": {"type": "DT_FLOAT"}}, "inputs": []}, {"name": "StatefulPartitionedCall/jax2tf_apply_/ActorCriticTransformerFlats/ActorCriticTransformerFlats/Transformer_0/tf_layers_1/gate1/pjit__lambda__/Cast", "op": "Const", "attr": {"value": {"tensor": {"dtype": "DT_FLOAT", "tensorShape": {}}}, "dtype": {"type": "DT_FLOAT"}}, "inputs": []}, {"name": "StatefulPartitionedCall/jax2tf_apply_/ActorCriticTransformerFlats/ActorCriticTransformerFlats/Transformer_0/tf_layers_1/gate1/pjit_sigmoid_/Const_2", "op": "Const", "attr": {"value": {"tensor": {"dtype": "DT_FLOAT", "tensorShape": {}}}, "dtype": {"type": "DT_FLOAT"}}, "inputs": []}, {"name": "StatefulPartitionedCall/jax2tf_arg_76/ReadVariableOp", "op": "Const", "attr": {"value": {"tensor": {"dtype": "DT_FLOAT", "tensorShape": {"dim": [{"size": "128"}, {"size": "128"}]}}}, "dtype": {"type": "DT_FLOAT"}}, "inputs": []}, {"name": "StatefulPartitionedCall/jax2tf_arg_77/ReadVariableOp", "op": "Const", "attr": {"value": {"tensor": {"dtype": "DT_FLOAT", "tensorShape": {"dim": [{"size": "128"}, {"size": "128"}]}}}, "dtype": {"type": "DT_FLOAT"}}, "inputs": []}, {"name": "StatefulPartitionedCall/jax2tf_apply_/ActorCriticTransformerFlats/ActorCriticTransformerFlats/Transformer_0/tf_layers_1/gate1/pjit__lambda__/BroadcastTo", "op": "Const", "attr": {"value": {"tensor": {"dtype": "DT_FLOAT", "tensorShape": {"dim": [{"size": "1"}, {"size": "128"}]}}}, "dtype": {"type": "DT_FLOAT"}}, "inputs": []}, {"name": "StatefulPartitionedCall/jax2tf_arg_78/ReadVariableOp", "op": "Const", "attr": {"value": {"tensor": {"dtype": "DT_FLOAT", "tensorShape": {"dim": [{"size": "128"}, {"size": "128"}]}}}, "dtype": {"type": "DT_FLOAT"}}, "inputs": []}, {"name": "StatefulPartitionedCall/jax2tf_apply_/ActorCriticTransformerFlats/ActorCriticTransformerFlats/Transformer_0/tf_layers_1/gate1/pjit_sigmoid_/Const", "op": "Const", "attr": {"value": {"tensor": {"dtype": "DT_FLOAT", "tensorShape": {}}}, "dtype": {"type": "DT_FLOAT"}}, "inputs": []}, {"name": "StatefulPartitionedCall/jax2tf_arg_71/ReadVariableOp", "op": "Const", "attr": {"value": {"tensor": {"dtype": "DT_FLOAT", "tensorShape": {"dim": [{"size": "128"}, {"size": "8"}, {"size": "2"}]}}}, "dtype": {"type": "DT_FLOAT"}}, "inputs": []}, {"name": "StatefulPartitionedCall/jax2tf_apply_/ActorCriticTransformerFlats/ActorCriticTransformerFlats/Transformer_0/tf_layers_1/attention1/value/Reshape", "op": "Const", "attr": {"value": {"tensor": {"dtype": "DT_FLOAT", "tensorShape": {"dim": [{"size": "1"}, {"size": "8"}, {"size": "2"}]}}}, "dtype": {"type": "DT_FLOAT"}}, "inputs": []}, {"name": "StatefulPartitionedCall/jax2tf_arg_69/ReadVariableOp", "op": "Const", "attr": {"value": {"tensor": {"dtype": "DT_FLOAT", "tensorShape": {"dim": [{"size": "128"}, {"size": "8"}, {"size": "2"}]}}}, "dtype": {"type": "DT_FLOAT"}}, "inputs": []}, {"name": "StatefulPartitionedCall/jax2tf_apply_/ActorCriticTransformerFlats/ActorCriticTransformerFlats/Transformer_0/tf_layers_1/attention1/query/Reshape", "op": "Const", "attr": {"value": {"tensor": {"dtype": "DT_FLOAT", "tensorShape": {"dim": [{"size": "1"}, {"size": "8"}, {"size": "2"}]}}}, "dtype": {"type": "DT_FLOAT"}}, "inputs": []}, {"name": "ConstantFolding/StatefulPartitionedCall/jax2tf_apply_/ActorCriticTransformerFlats/ActorCriticTransformerFlats/Transformer_0/tf_layers_1/attention1/pjit_true_divide_/truediv_recip", "op": "Const", "attr": {"value": {"tensor": {"dtype": "DT_FLOAT", "tensorShape": {}}}, "dtype": {"type": "DT_FLOAT"}}, "inputs": []}, {"name": "StatefulPartitionedCall/jax2tf_apply_/ActorCriticTransformerFlats/ActorCriticTransformerFlats/Transformer_0/tf_layers_1/ln1/Const_2", "op": "Const", "attr": {"value": {"tensor": {"dtype": "DT_INT32", "tensorShape": {}}}, "dtype": {"type": "DT_INT32"}}, "inputs": []}, {"name": "StatefulPartitionedCall/jax2tf_apply_/ActorCriticTransformerFlats/ActorCriticTransformerFlats/Transformer_0/tf_layers_1/ln1/Reshape/shape/1", "op": "Const", "attr": {"value": {"tensor": {"dtype": "DT_INT32", "tensorShape": {}}}, "dtype": {"type": "DT_INT32"}}, "inputs": []}, {"name": "StatefulPartitionedCall/jax2tf_apply_/ActorCriticTransformerFlats/ActorCriticTransformerFlats/Transformer_0/tf_layers_1/ln1/Const_4", "op": "Const", "attr": {"value": {"tensor": {"dtype": "DT_INT32", "tensorShape": {}}}, "dtype": {"type": "DT_INT32"}}, "inputs": []}, {"name": "StatefulPartitionedCall/jax2tf_apply_/ActorCriticTransformerFlats/ActorCriticTransformerFlats/Transformer_0/tf_layers_1/ln1/BroadcastTo/shape/1", "op": "Const", "attr": {"value": {"tensor": {"dtype": "DT_INT32", "tensorShape": {}}}, "dtype": {"type": "DT_INT32"}}, "inputs": []}, {"name": "StatefulPartitionedCall/Const_30", "op": "Const", "attr": {"value": {"tensor": {"dtype": "DT_FLOAT", "tensorShape": {}}}, "dtype": {"type": "DT_FLOAT"}}, "inputs": []}, {"name": "StatefulPartitionedCall/jax2tf_apply_/ActorCriticTransformerFlats/ActorCriticTransformerFlats/Transformer_0/tf_layers_1/ln1/pjit__mean_/Sum_1/reduction_indices", "op": "Const", "attr": {"value": {"tensor": {"dtype": "DT_INT32", "tensorShape": {"dim": [{"size": "1"}]}}}, "dtype": {"type": "DT_INT32"}}, "inputs": []}, {"name": "ConstantFolding/StatefulPartitionedCall/jax2tf_apply_/ActorCriticTransformerFlats/ActorCriticTransformerFlats/Transformer_0/tf_layers_1/ln1/pjit__mean_/truediv_1_recip", "op": "Const", "attr": {"value": {"tensor": {"dtype": "DT_FLOAT", "tensorShape": {}}}, "dtype": {"type": "DT_FLOAT"}}, "inputs": []}, {"name": "StatefulPartitionedCall/jax2tf_apply_/ActorCriticTransformerFlats/ActorCriticTransformerFlats/Transformer_0/tf_layers_1/ln1/pjit__mean_/Sum/reduction_indices", "op": "Const", "attr": {"value": {"tensor": {"dtype": "DT_INT32", "tensorShape": {"dim": [{"size": "1"}]}}}, "dtype": {"type": "DT_INT32"}}, "inputs": []}, {"name": "ConstantFolding/StatefulPartitionedCall/jax2tf_apply_/ActorCriticTransformerFlats/ActorCriticTransformerFlats/Transformer_0/tf_layers_1/ln1/pjit__mean_/truediv_recip", "op": "Const", "attr": {"value": {"tensor": {"dtype": "DT_FLOAT", "tensorShape": {}}}, "dtype": {"type": "DT_FLOAT"}}, "inputs": []}, {"name": "StatefulPartitionedCall/jax2tf_apply_/ActorCriticTransformerFlats/ActorCriticTransformerFlats/Transformer_0/tf_layers_1/ln1/Const_6", "op": "Const", "attr": {"value": {"tensor": {"dtype": "DT_INT32", "tensorShape": {}}}, "dtype": {"type": "DT_INT32"}}, "inputs": []}, {"name": "StatefulPartitionedCall/jax2tf_apply_/ActorCriticTransformerFlats/ActorCriticTransformerFlats/Transformer_0/tf_layers_1/ln1/Reshape_1/shape/1", "op": "Const", "attr": {"value": {"tensor": {"dtype": "DT_INT32", "tensorShape": {}}}, "dtype": {"type": "DT_INT32"}}, "inputs": []}, {"name": "StatefulPartitionedCall/jax2tf_apply_/ActorCriticTransformerFlats/ActorCriticTransformerFlats/Transformer_0/tf_layers_1/ln1/Const_8", "op": "Const", "attr": {"value": {"tensor": {"dtype": "DT_INT32", "tensorShape": {}}}, "dtype": {"type": "DT_INT32"}}, "inputs": []}, {"name": "StatefulPartitionedCall/jax2tf_apply_/ActorCriticTransformerFlats/ActorCriticTransformerFlats/Transformer_0/tf_layers_1/ln1/BroadcastTo_1/shape/1", "op": "Const", "attr": {"value": {"tensor": {"dtype": "DT_INT32", "tensorShape": {}}}, "dtype": {"type": "DT_INT32"}}, "inputs": []}, {"name": "StatefulPartitionedCall/Const_31", "op": "Const", "attr": {"value": {"tensor": {"dtype": "DT_FLOAT", "tensorShape": {}}}, "dtype": {"type": "DT_FLOAT"}}, "inputs": []}, {"name": "StatefulPartitionedCall/jax2tf_apply_/ActorCriticTransformerFlats/ActorCriticTransformerFlats/Transformer_0/tf_layers_1/ln1/Reshape_2", "op": "Const", "attr": {"value": {"tensor": {"dtype": "DT_FLOAT", "tensorShape": {"dim": [{"size": "1"}, {"size": "128"}]}}}, "dtype": {"type": "DT_FLOAT"}}, "inputs": []}, {"name": "StatefulPartitionedCall/jax2tf_apply_/ActorCriticTransformerFlats/ActorCriticTransformerFlats/Transformer_0/tf_layers_1/ln1/Reshape_3", "op": "Const", "attr": {"value": {"tensor": {"dtype": "DT_FLOAT", "tensorShape": {"dim": [{"size": "1"}, {"size": "128"}]}}}, "dtype": {"type": "DT_FLOAT"}}, "inputs": []}, {"name": "StatefulPartitionedCall/jax2tf_arg_65/ReadVariableOp", "op": "Const", "attr": {"value": {"tensor": {"dtype": "DT_FLOAT", "tensorShape": {"dim": [{"size": "128"}, {"size": "8"}, {"size": "2"}]}}}, "dtype": {"type": "DT_FLOAT"}}, "inputs": []}, {"name": "StatefulPartitionedCall/jax2tf_apply_/ActorCriticTransformerFlats/ActorCriticTransformerFlats/Transformer_0/tf_layers_1/attention1/key/Reshape", "op": "Const", "attr": {"value": {"tensor": {"dtype": "DT_FLOAT", "tensorShape": {"dim": [{"size": "1"}, {"size": "8"}, {"size": "2"}]}}}, "dtype": {"type": "DT_FLOAT"}}, "inputs": []}, {"name": "StatefulPartitionedCall/jax2tf_apply_/ActorCriticTransformerFlats/ActorCriticTransformerFlats/Transformer_0/tf_layers_1/attention1/pjit__where_/Reshape", "op": "Const", "attr": {"value": {"tensor": {"dtype": "DT_FLOAT", "tensorShape": {"dim": [{"size": "1"}, {"size": "1"}, {"size": "1"}]}}}, "dtype": {"type": "DT_FLOAT"}}, "inputs": []}, {"name": "StatefulPartitionedCall/jax2tf_apply_/ActorCriticTransformerFlats/ActorCriticTransformerFlats/Transformer_0/tf_layers_1/attention1/pjit__where_/BroadcastTo/shape/0", "op": "Const", "attr": {"value": {"tensor": {"dtype": "DT_INT32", "tensorShape": {}}}, "dtype": {"type": "DT_INT32"}}, "inputs": []}, {"name": "StatefulPartitionedCall/jax2tf_apply_/ActorCriticTransformerFlats/ActorCriticTransformerFlats/Transformer_0/tf_layers_1/attention1/pjit__where_/Const", "op": "Const", "attr": {"value": {"tensor": {"dtype": "DT_INT32", "tensorShape": {}}}, "dtype": {"type": "DT_INT32"}}, "inputs": []}, {"name": "StatefulPartitionedCall/jax2tf_apply_/ActorCriticTransformerFlats/ActorCriticTransformerFlats/Transformer_0/tf_layers_1/attention1/pjit__where_/Const_1", "op": "Const", "attr": {"value": {"tensor": {"dtype": "DT_INT32", "tensorShape": {}}}, "dtype": {"type": "DT_INT32"}}, "inputs": []}, {"name": "StatefulPartitionedCall/jax2tf_apply_/ActorCriticTransformerFlats/ActorCriticTransformerFlats/Transformer_0/tf_layers_1/attention1/pjit__reduce_max_/Max/reduction_indices", "op": "Const", "attr": {"value": {"tensor": {"dtype": "DT_INT32", "tensorShape": {"dim": [{"size": "1"}]}}}, "dtype": {"type": "DT_INT32"}}, "inputs": []}, {"name": "StatefulPartitionedCall/jax2tf_apply_/ActorCriticTransformerFlats/ActorCriticTransformerFlats/Transformer_0/tf_layers_1/attention1/pjit__reduce_max_/Reshape/shape/0", "op": "Const", "attr": {"value": {"tensor": {"dtype": "DT_INT32", "tensorShape": {}}}, "dtype": {"type": "DT_INT32"}}, "inputs": []}, {"name": "StatefulPartitionedCall/jax2tf_apply_/ActorCriticTransformerFlats/ActorCriticTransformerFlats/Transformer_0/tf_layers_1/attention1/pjit__reduce_max_/Const", "op": "Const", "attr": {"value": {"tensor": {"dtype": "DT_INT32", "tensorShape": {}}}, "dtype": {"type": "DT_INT32"}}, "inputs": []}, {"name": "StatefulPartitionedCall/jax2tf_apply_/ActorCriticTransformerFlats/ActorCriticTransformerFlats/Transformer_0/tf_layers_1/attention1/pjit__reduce_max_/Reshape/shape/2", "op": "Const", "attr": {"value": {"tensor": {"dtype": "DT_INT32", "tensorShape": {}}}, "dtype": {"type": "DT_INT32"}}, "inputs": []}, {"name": "StatefulPartitionedCall/jax2tf_apply_/ActorCriticTransformerFlats/ActorCriticTransformerFlats/Transformer_0/tf_layers_1/attention1/pjit__reduce_max_/BroadcastTo/shape/0", "op": "Const", "attr": {"value": {"tensor": {"dtype": "DT_INT32", "tensorShape": {}}}, "dtype": {"type": "DT_INT32"}}, "inputs": []}, {"name": "StatefulPartitionedCall/jax2tf_apply_/ActorCriticTransformerFlats/ActorCriticTransformerFlats/Transformer_0/tf_layers_1/attention1/pjit__reduce_max_/Const_3", "op": "Const", "attr": {"value": {"tensor": {"dtype": "DT_INT32", "tensorShape": {}}}, "dtype": {"type": "DT_INT32"}}, "inputs": []}, {"name": "StatefulPartitionedCall/jax2tf_apply_/ActorCriticTransformerFlats/ActorCriticTransformerFlats/Transformer_0/tf_layers_1/attention1/pjit__reduce_max_/BroadcastTo/shape/2", "op": "Const", "attr": {"value": {"tensor": {"dtype": "DT_INT32", "tensorShape": {}}}, "dtype": {"type": "DT_INT32"}}, "inputs": []}, {"name": "StatefulPartitionedCall/jax2tf_apply_/ActorCriticTransformerFlats/ActorCriticTransformerFlats/Transformer_0/tf_layers_1/attention1/pjit__reduce_sum_/Sum/reduction_indices", "op": "Const", "attr": {"value": {"tensor": {"dtype": "DT_INT32", "tensorShape": {"dim": [{"size": "1"}]}}}, "dtype": {"type": "DT_INT32"}}, "inputs": []}, {"name": "StatefulPartitionedCall/jax2tf_apply_/ActorCriticTransformerFlats/ActorCriticTransformerFlats/Transformer_0/tf_layers_1/attention1/pjit__reduce_sum_/Reshape/shape/0", "op": "Const", "attr": {"value": {"tensor": {"dtype": "DT_INT32", "tensorShape": {}}}, "dtype": {"type": "DT_INT32"}}, "inputs": []}, {"name": "StatefulPartitionedCall/jax2tf_apply_/ActorCriticTransformerFlats/ActorCriticTransformerFlats/Transformer_0/tf_layers_1/attention1/pjit__reduce_sum_/Const", "op": "Const", "attr": {"value": {"tensor": {"dtype": "DT_INT32", "tensorShape": {}}}, "dtype": {"type": "DT_INT32"}}, "inputs": []}, {"name": "StatefulPartitionedCall/jax2tf_apply_/ActorCriticTransformerFlats/ActorCriticTransformerFlats/Transformer_0/tf_layers_1/attention1/pjit__reduce_sum_/Reshape/shape/2", "op": "Const", "attr": {"value": {"tensor": {"dtype": "DT_INT32", "tensorShape": {}}}, "dtype": {"type": "DT_INT32"}}, "inputs": []}, {"name": "StatefulPartitionedCall/jax2tf_apply_/ActorCriticTransformerFlats/ActorCriticTransformerFlats/Transformer_0/tf_layers_1/attention1/pjit__reduce_sum_/BroadcastTo/shape/0", "op": "Const", "attr": {"value": {"tensor": {"dtype": "DT_INT32", "tensorShape": {}}}, "dtype": {"type": "DT_INT32"}}, "inputs": []}, {"name": "StatefulPartitionedCall/jax2tf_apply_/ActorCriticTransformerFlats/ActorCriticTransformerFlats/Transformer_0/tf_layers_1/attention1/pjit__reduce_sum_/Const_3", "op": "Const", "attr": {"value": {"tensor": {"dtype": "DT_INT32", "tensorShape": {}}}, "dtype": {"type": "DT_INT32"}}, "inputs": []}, {"name": "StatefulPartitionedCall/jax2tf_apply_/ActorCriticTransformerFlats/ActorCriticTransformerFlats/Transformer_0/tf_layers_1/attention1/pjit__reduce_sum_/BroadcastTo/shape/2", "op": "Const", "attr": {"value": {"tensor": {"dtype": "DT_INT32", "tensorShape": {}}}, "dtype": {"type": "DT_INT32"}}, "inputs": []}, {"name": "StatefulPartitionedCall/jax2tf_apply_/ActorCriticTransformerFlats/ActorCriticTransformerFlats/Transformer_0/tf_layers_1/attention1/...hqk_...khd-_...qhd/pjit__einsum_/transpose/perm", "op": "Const", "attr": {"value": {"tensor": {"dtype": "DT_INT32", "tensorShape": {"dim": [{"size": "3"}]}}}, "dtype": {"type": "DT_INT32"}}, "inputs": []}, {"name": "StatefulPartitionedCall/jax2tf_arg_67/ReadVariableOp", "op": "Const", "attr": {"value": {"tensor": {"dtype": "DT_FLOAT", "tensorShape": {"dim": [{"size": "8"}, {"size": "2"}, {"size": "128"}]}}}, "dtype": {"type": "DT_FLOAT"}}, "inputs": []}, {"name": "StatefulPartitionedCall/jax2tf_apply_/ActorCriticTransformerFlats/ActorCriticTransformerFlats/Transformer_0/tf_layers_1/attention1/out/Reshape", "op": "Const", "attr": {"value": {"tensor": {"dtype": "DT_FLOAT", "tensorShape": {"dim": [{"size": "1"}, {"size": "128"}]}}}, "dtype": {"type": "DT_FLOAT"}}, "inputs": []}, {"name": "StatefulPartitionedCall/jax2tf_apply_/ActorCriticTransformerFlats/ActorCriticTransformerFlats/Transformer_0/tf_layers_1/Const", "op": "Const", "attr": {"value": {"tensor": {"dtype": "DT_FLOAT", "tensorShape": {}}}, "dtype": {"type": "DT_FLOAT"}}, "inputs": []}, {"name": "StatefulPartitionedCall/jax2tf_arg_74/ReadVariableOp", "op": "Const", "attr": {"value": {"tensor": {"dtype": "DT_FLOAT", "tensorShape": {"dim": [{"size": "128"}, {"size": "128"}]}}}, "dtype": {"type": "DT_FLOAT"}}, "inputs": []}, {"name": "StatefulPartitionedCall/jax2tf_arg_75/ReadVariableOp", "op": "Const", "attr": {"value": {"tensor": {"dtype": "DT_FLOAT", "tensorShape": {"dim": [{"size": "128"}, {"size": "128"}]}}}, "dtype": {"type": "DT_FLOAT"}}, "inputs": []}, {"name": "StatefulPartitionedCall/jax2tf_apply_/ActorCriticTransformerFlats/ActorCriticTransformerFlats/Transformer_0/add_2/x/1", "op": "Const", "attr": {"value": {"tensor": {"dtype": "DT_INT32", "tensorShape": {}}}, "dtype": {"type": "DT_INT32"}}, "inputs": []}, {"name": "StatefulPartitionedCall/jax2tf_apply_/ActorCriticTransformerFlats/ActorCriticTransformerFlats/Transformer_0/ScatterNd_2", "op": "Const", "attr": {"value": {"tensor": {"dtype": "DT_INT32", "tensorShape": {"dim": [{"size": "2"}]}}}, "dtype": {"type": "DT_INT32"}}, "inputs": []}, {"name": "StatefulPartitionedCall/jax2tf_apply_/ActorCriticTransformerFlats/ActorCriticTransformerFlats/Transformer_0/Sub_5/x/1", "op": "Const", "attr": {"value": {"tensor": {"dtype": "DT_INT32", "tensorShape": {}}}, "dtype": {"type": "DT_INT32"}}, "inputs": []}, {"name": "StatefulPartitionedCall/jax2tf_apply_/ActorCriticTransformerFlats/ActorCriticTransformerFlats/Transformer_0/Sub_5/y/1", "op": "Const", "attr": {"value": {"tensor": {"dtype": "DT_INT32", "tensorShape": {}}}, "dtype": {"type": "DT_INT32"}}, "inputs": []}, {"name": "StatefulPartitionedCall/jax2tf_apply_/ActorCriticTransformerFlats/ActorCriticTransformerFlats/Transformer_0/clip_by_value_5/y", "op": "Const", "attr": {"value": {"tensor": {"dtype": "DT_INT32", "tensorShape": {}}}, "dtype": {"type": "DT_INT32"}}, "inputs": []}, {"name": "StatefulPartitionedCall/jax2tf_apply_/ActorCriticTransformerFlats/ActorCriticTransformerFlats/Transformer_0/ones_like_2", "op": "Const", "attr": {"value": {"tensor": {"dtype": "DT_INT32", "tensorShape": {"dim": [{"size": "2"}]}}}, "dtype": {"type": "DT_INT32"}}, "inputs": []}, {"name": "StatefulPartitionedCall/Const_25", "op": "Const", "attr": {"value": {"tensor": {"dtype": "DT_INT32", "tensorShape": {}}}, "dtype": {"type": "DT_INT32"}}, "inputs": []}, {"name": "StatefulPartitionedCall/jax2tf_apply_/ActorCriticTransformerFlats/ActorCriticTransformerFlats/Transformer_0/Const_2", "op": "Const", "attr": {"value": {"tensor": {"dtype": "DT_INT32", "tensorShape": {}}}, "dtype": {"type": "DT_INT32"}}, "inputs": []}, {"name": "StatefulPartitionedCall/jax2tf_apply_/ActorCriticTransformerFlats/ActorCriticTransformerFlats/Transformer_0/add/x/1", "op": "Const", "attr": {"value": {"tensor": {"dtype": "DT_INT32", "tensorShape": {}}}, "dtype": {"type": "DT_INT32"}}, "inputs": []}, {"name": "StatefulPartitionedCall/jax2tf_apply_/ActorCriticTransformerFlats/ActorCriticTransformerFlats/Transformer_0/ScatterNd", "op": "Const", "attr": {"value": {"tensor": {"dtype": "DT_INT32", "tensorShape": {"dim": [{"size": "2"}]}}}, "dtype": {"type": "DT_INT32"}}, "inputs": []}, {"name": "StatefulPartitionedCall/jax2tf_apply_/ActorCriticTransformerFlats/ActorCriticTransformerFlats/Transformer_0/Sub/x/1", "op": "Const", "attr": {"value": {"tensor": {"dtype": "DT_INT32", "tensorShape": {}}}, "dtype": {"type": "DT_INT32"}}, "inputs": []}, {"name": "StatefulPartitionedCall/jax2tf_apply_/ActorCriticTransformerFlats/ActorCriticTransformerFlats/Transformer_0/Sub/y/1", "op": "Const", "attr": {"value": {"tensor": {"dtype": "DT_INT32", "tensorShape": {}}}, "dtype": {"type": "DT_INT32"}}, "inputs": []}, {"name": "StatefulPartitionedCall/jax2tf_apply_/ActorCriticTransformerFlats/ActorCriticTransformerFlats/Transformer_0/clip_by_value/y", "op": "Const", "attr": {"value": {"tensor": {"dtype": "DT_INT32", "tensorShape": {}}}, "dtype": {"type": "DT_INT32"}}, "inputs": []}, {"name": "StatefulPartitionedCall/jax2tf_apply_/ActorCriticTransformerFlats/ActorCriticTransformerFlats/Transformer_0/ones_like", "op": "Const", "attr": {"value": {"tensor": {"dtype": "DT_INT32", "tensorShape": {"dim": [{"size": "2"}]}}}, "dtype": {"type": "DT_INT32"}}, "inputs": []}, {"name": "StatefulPartitionedCall/jax2tf_apply_/ActorCriticTransformerFlats/ActorCriticTransformerFlats/Transformer_0/Reshape_2/shape/1", "op": "Const", "attr": {"value": {"tensor": {"dtype": "DT_INT32", "tensorShape": {}}}, "dtype": {"type": "DT_INT32"}}, "inputs": []}, {"name": "StatefulPartitionedCall/jax2tf_apply_/ActorCriticTransformerFlats/ActorCriticTransformerFlats/Transformer_0/BroadcastTo_2/shape/1", "op": "Const", "attr": {"value": {"tensor": {"dtype": "DT_INT32", "tensorShape": {}}}, "dtype": {"type": "DT_INT32"}}, "inputs": []}, {"name": "StatefulPartitionedCall/jax2tf_apply_/ActorCriticTransformerFlats/ActorCriticTransformerFlats/Transformer_0/Const_5", "op": "Const", "attr": {"value": {"tensor": {"dtype": "DT_INT32", "tensorShape": {}}}, "dtype": {"type": "DT_INT32"}}, "inputs": []}, {"name": "StatefulPartitionedCall/jax2tf_apply_/ActorCriticTransformerFlats/ActorCriticTransformerFlats/Transformer_0/Sub_1/y", "op": "Const", "attr": {"value": {"tensor": {"dtype": "DT_INT32", "tensorShape": {"dim": [{"size": "1"}]}}}, "dtype": {"type": "DT_INT32"}}, "inputs": []}, {"name": "StatefulPartitionedCall/jax2tf_apply_/ActorCriticTransformerFlats/ActorCriticTransformerFlats/Transformer_0/clip_by_value_1/y", "op": "Const", "attr": {"value": {"tensor": {"dtype": "DT_INT32", "tensorShape": {}}}, "dtype": {"type": "DT_INT32"}}, "inputs": []}, {"name": "StatefulPartitionedCall/jax2tf_apply_/ActorCriticTransformerFlats/ActorCriticTransformerFlats/Transformer_0/GatherV2/axis", "op": "Const", "attr": {"value": {"tensor": {"dtype": "DT_INT32", "tensorShape": {}}}, "dtype": {"type": "DT_INT32"}}, "inputs": []}, {"name": "StatefulPartitionedCall/jax2tf_apply_/ActorCriticTransformerFlats/ActorCriticTransformerFlats/Transformer_0/BroadcastTo_3/shape/1", "op": "Const", "attr": {"value": {"tensor": {"dtype": "DT_INT32", "tensorShape": {}}}, "dtype": {"type": "DT_INT32"}}, "inputs": []}, {"name": "StatefulPartitionedCall/Const_27", "op": "Const", "attr": {"value": {"tensor": {"dtype": "DT_INT32", "tensorShape": {}}}, "dtype": {"type": "DT_INT32"}}, "inputs": []}, {"name": "StatefulPartitionedCall/jax2tf_apply_/ActorCriticTransformerFlats/ActorCriticTransformerFlats/Transformer_0/Const_11", "op": "Const", "attr": {"value": {"tensor": {"dtype": "DT_INT32", "tensorShape": {}}}, "dtype": {"type": "DT_INT32"}}, "inputs": []}, {"name": "StatefulPartitionedCall/Const_14", "op": "Const", "attr": {"value": {"tensor": {"dtype": "DT_INT32", "tensorShape": {}}}, "dtype": {"type": "DT_INT32"}}, "inputs": []}, {"name": "StatefulPartitionedCall/jax2tf_apply_/ActorCriticTransformerFlats/ActorCriticTransformerFlats/Transformer_0/add_1/x/1", "op": "Const", "attr": {"value": {"tensor": {"dtype": "DT_INT32", "tensorShape": {}}}, "dtype": {"type": "DT_INT32"}}, "inputs": []}, {"name": "StatefulPartitionedCall/jax2tf_apply_/ActorCriticTransformerFlats/ActorCriticTransformerFlats/Transformer_0/ScatterNd_1", "op": "Const", "attr": {"value": {"tensor": {"dtype": "DT_INT32", "tensorShape": {"dim": [{"size": "2"}]}}}, "dtype": {"type": "DT_INT32"}}, "inputs": []}, {"name": "StatefulPartitionedCall/jax2tf_apply_/ActorCriticTransformerFlats/ActorCriticTransformerFlats/Transformer_0/Sub_2/x/1", "op": "Const", "attr": {"value": {"tensor": {"dtype": "DT_INT32", "tensorShape": {}}}, "dtype": {"type": "DT_INT32"}}, "inputs": []}, {"name": "StatefulPartitionedCall/jax2tf_apply_/ActorCriticTransformerFlats/ActorCriticTransformerFlats/Transformer_0/Sub_2/y/1", "op": "Const", "attr": {"value": {"tensor": {"dtype": "DT_INT32", "tensorShape": {}}}, "dtype": {"type": "DT_INT32"}}, "inputs": []}, {"name": "StatefulPartitionedCall/jax2tf_apply_/ActorCriticTransformerFlats/ActorCriticTransformerFlats/Transformer_0/clip_by_value_2/y", "op": "Const", "attr": {"value": {"tensor": {"dtype": "DT_INT32", "tensorShape": {}}}, "dtype": {"type": "DT_INT32"}}, "inputs": []}, {"name": "StatefulPartitionedCall/jax2tf_apply_/ActorCriticTransformerFlats/ActorCriticTransformerFlats/Transformer_0/ones_like_1", "op": "Const", "attr": {"value": {"tensor": {"dtype": "DT_INT32", "tensorShape": {"dim": [{"size": "2"}]}}}, "dtype": {"type": "DT_INT32"}}, "inputs": []}, {"name": "StatefulPartitionedCall/jax2tf_apply_/ActorCriticTransformerFlats/ActorCriticTransformerFlats/Transformer_0/Reshape_6/shape/1", "op": "Const", "attr": {"value": {"tensor": {"dtype": "DT_INT32", "tensorShape": {}}}, "dtype": {"type": "DT_INT32"}}, "inputs": []}, {"name": "StatefulPartitionedCall/jax2tf_apply_/ActorCriticTransformerFlats/ActorCriticTransformerFlats/Transformer_0/BroadcastTo_6/shape/1", "op": "Const", "attr": {"value": {"tensor": {"dtype": "DT_INT32", "tensorShape": {}}}, "dtype": {"type": "DT_INT32"}}, "inputs": []}, {"name": "StatefulPartitionedCall/jax2tf_apply_/ActorCriticTransformerFlats/ActorCriticTransformerFlats/Transformer_0/Const_14", "op": "Const", "attr": {"value": {"tensor": {"dtype": "DT_INT32", "tensorShape": {}}}, "dtype": {"type": "DT_INT32"}}, "inputs": []}, {"name": "StatefulPartitionedCall/jax2tf_apply_/ActorCriticTransformerFlats/ActorCriticTransformerFlats/Transformer_0/Sub_3/y", "op": "Const", "attr": {"value": {"tensor": {"dtype": "DT_INT32", "tensorShape": {"dim": [{"size": "1"}]}}}, "dtype": {"type": "DT_INT32"}}, "inputs": []}, {"name": "StatefulPartitionedCall/jax2tf_apply_/ActorCriticTransformerFlats/ActorCriticTransformerFlats/Transformer_0/clip_by_value_3/y", "op": "Const", "attr": {"value": {"tensor": {"dtype": "DT_INT32", "tensorShape": {}}}, "dtype": {"type": "DT_INT32"}}, "inputs": []}, {"name": "StatefulPartitionedCall/jax2tf_apply_/ActorCriticTransformerFlats/ActorCriticTransformerFlats/Transformer_0/GatherV2_1/axis", "op": "Const", "attr": {"value": {"tensor": {"dtype": "DT_INT32", "tensorShape": {}}}, "dtype": {"type": "DT_INT32"}}, "inputs": []}, {"name": "StatefulPartitionedCall/jax2tf_apply_/ActorCriticTransformerFlats/ActorCriticTransformerFlats/Transformer_0/BroadcastTo_7/shape/1", "op": "Const", "attr": {"value": {"tensor": {"dtype": "DT_INT32", "tensorShape": {}}}, "dtype": {"type": "DT_INT32"}}, "inputs": []}, {"name": "StatefulPartitionedCall/jax2tf_arg_5/ReadVariableOp", "op": "Const", "attr": {"value": {"tensor": {"dtype": "DT_FLOAT", "tensorShape": {"dim": [{"size": "22"}, {"size": "128"}]}}}, "dtype": {"type": "DT_FLOAT"}}, "inputs": []}, {"name": "StatefulPartitionedCall/jax2tf_apply_/ActorCriticTransformerFlats/ActorCriticTransformerFlats/Dense_2/Reshape", "op": "Const", "attr": {"value": {"tensor": {"dtype": "DT_FLOAT", "tensorShape": {"dim": [{"size": "1"}, {"size": "128"}]}}}, "dtype": {"type": "DT_FLOAT"}}, "inputs": []}, {"name": "StatefulPartitionedCall/jax2tf_apply_/ActorCriticTransformerFlats/ActorCriticTransformerFlats/Transformer_0/Cast/x", "op": "Const", "attr": {"value": {"tensor": {"dtype": "DT_INT32", "tensorShape": {}}}, "dtype": {"type": "DT_INT32"}}, "inputs": []}, {"name": "StatefulPartitionedCall/jax2tf_arg_33/ReadVariableOp", "op": "Const", "attr": {"value": {"tensor": {"dtype": "DT_FLOAT", "tensorShape": {"dim": [{"size": "384"}, {"size": "128"}]}}}, "dtype": {"type": "DT_FLOAT"}}, "inputs": []}, {"name": "StatefulPartitionedCall/jax2tf_apply_/ActorCriticTransformerFlats/ActorCriticTransformerFlats/Transformer_0/joint_layers_0/Reshape", "op": "Const", "attr": {"value": {"tensor": {"dtype": "DT_FLOAT", "tensorShape": {"dim": [{"size": "1"}, {"size": "128"}]}}}, "dtype": {"type": "DT_FLOAT"}}, "inputs": []}, {"name": "StatefulPartitionedCall/jax2tf_apply_/ActorCriticTransformerFlats/ActorCriticTransformerFlats/Transformer_0/Reshape_8/shape/1", "op": "Const", "attr": {"value": {"tensor": {"dtype": "DT_INT32", "tensorShape": {}}}, "dtype": {"type": "DT_INT32"}}, "inputs": []}, {"name": "StatefulPartitionedCall/jax2tf_apply_/ActorCriticTransformerFlats/ActorCriticTransformerFlats/Transformer_0/BroadcastTo_8/shape/1", "op": "Const", "attr": {"value": {"tensor": {"dtype": "DT_INT32", "tensorShape": {}}}, "dtype": {"type": "DT_INT32"}}, "inputs": []}, {"name": "StatefulPartitionedCall/jax2tf_apply_/ActorCriticTransformerFlats/ActorCriticTransformerFlats/Transformer_0/Const_31", "op": "Const", "attr": {"value": {"tensor": {"dtype": "DT_INT32", "tensorShape": {}}}, "dtype": {"type": "DT_INT32"}}, "inputs": []}, {"name": "StatefulPartitionedCall/jax2tf_apply_/ActorCriticTransformerFlats/ActorCriticTransformerFlats/Transformer_0/scan/while/loop_counter", "op": "Const", "attr": {"value": {"tensor": {"dtype": "DT_INT32", "tensorShape": {}}}, "dtype": {"type": "DT_INT32"}}, "inputs": []}, {"name": "StatefulPartitionedCall/jax2tf_apply_/ActorCriticTransformerFlats/ActorCriticTransformerFlats/Transformer_0/tf_layers_0/gate2/pjit__lambda__/Cast", "op": "Const", "attr": {"value": {"tensor": {"dtype": "DT_FLOAT", "tensorShape": {}}}, "dtype": {"type": "DT_FLOAT"}}, "inputs": []}, {"name": "StatefulPartitionedCall/jax2tf_apply_/ActorCriticTransformerFlats/ActorCriticTransformerFlats/Transformer_0/tf_layers_0/gate2/pjit_sigmoid_/Const_2", "op": "Const", "attr": {"value": {"tensor": {"dtype": "DT_FLOAT", "tensorShape": {}}}, "dtype": {"type": "DT_FLOAT"}}, "inputs": []}, {"name": "StatefulPartitionedCall/jax2tf_arg_55/ReadVariableOp", "op": "Const", "attr": {"value": {"tensor": {"dtype": "DT_FLOAT", "tensorShape": {"dim": [{"size": "128"}, {"size": "128"}]}}}, "dtype": {"type": "DT_FLOAT"}}, "inputs": []}, {"name": "StatefulPartitionedCall/jax2tf_arg_56/ReadVariableOp", "op": "Const", "attr": {"value": {"tensor": {"dtype": "DT_FLOAT", "tensorShape": {"dim": [{"size": "128"}, {"size": "128"}]}}}, "dtype": {"type": "DT_FLOAT"}}, "inputs": []}, {"name": "StatefulPartitionedCall/jax2tf_apply_/ActorCriticTransformerFlats/ActorCriticTransformerFlats/Transformer_0/tf_layers_0/gate2/pjit__lambda__/BroadcastTo", "op": "Const", "attr": {"value": {"tensor": {"dtype": "DT_FLOAT", "tensorShape": {"dim": [{"size": "1"}, {"size": "128"}]}}}, "dtype": {"type": "DT_FLOAT"}}, "inputs": []}, {"name": "StatefulPartitionedCall/jax2tf_arg_57/ReadVariableOp", "op": "Const", "attr": {"value": {"tensor": {"dtype": "DT_FLOAT", "tensorShape": {"dim": [{"size": "128"}, {"size": "128"}]}}}, "dtype": {"type": "DT_FLOAT"}}, "inputs": []}, {"name": "StatefulPartitionedCall/jax2tf_apply_/ActorCriticTransformerFlats/ActorCriticTransformerFlats/Transformer_0/tf_layers_0/gate2/pjit_sigmoid_/Const", "op": "Const", "attr": {"value": {"tensor": {"dtype": "DT_FLOAT", "tensorShape": {}}}, "dtype": {"type": "DT_FLOAT"}}, "inputs": []}, {"name": "StatefulPartitionedCall/jax2tf_apply_/ActorCriticTransformerFlats/ActorCriticTransformerFlats/Transformer_0/tf_layers_0/ln2/Const_2", "op": "Const", "attr": {"value": {"tensor": {"dtype": "DT_INT32", "tensorShape": {}}}, "dtype": {"type": "DT_INT32"}}, "inputs": []}, {"name": "StatefulPartitionedCall/jax2tf_apply_/ActorCriticTransformerFlats/ActorCriticTransformerFlats/Transformer_0/tf_layers_0/ln2/Reshape/shape/1", "op": "Const", "attr": {"value": {"tensor": {"dtype": "DT_INT32", "tensorShape": {}}}, "dtype": {"type": "DT_INT32"}}, "inputs": []}, {"name": "StatefulPartitionedCall/jax2tf_apply_/ActorCriticTransformerFlats/ActorCriticTransformerFlats/Transformer_0/tf_layers_0/ln2/Const_4", "op": "Const", "attr": {"value": {"tensor": {"dtype": "DT_INT32", "tensorShape": {}}}, "dtype": {"type": "DT_INT32"}}, "inputs": []}, {"name": "StatefulPartitionedCall/jax2tf_apply_/ActorCriticTransformerFlats/ActorCriticTransformerFlats/Transformer_0/tf_layers_0/ln2/BroadcastTo/shape/1", "op": "Const", "attr": {"value": {"tensor": {"dtype": "DT_INT32", "tensorShape": {}}}, "dtype": {"type": "DT_INT32"}}, "inputs": []}, {"name": "StatefulPartitionedCall/Const_21", "op": "Const", "attr": {"value": {"tensor": {"dtype": "DT_FLOAT", "tensorShape": {}}}, "dtype": {"type": "DT_FLOAT"}}, "inputs": []}, {"name": "StatefulPartitionedCall/jax2tf_apply_/ActorCriticTransformerFlats/ActorCriticTransformerFlats/Transformer_0/tf_layers_0/ln2/pjit__mean_/Sum_1/reduction_indices", "op": "Const", "attr": {"value": {"tensor": {"dtype": "DT_INT32", "tensorShape": {"dim": [{"size": "1"}]}}}, "dtype": {"type": "DT_INT32"}}, "inputs": []}, {"name": "ConstantFolding/StatefulPartitionedCall/jax2tf_apply_/ActorCriticTransformerFlats/ActorCriticTransformerFlats/Transformer_0/tf_layers_0/ln2/pjit__mean_/truediv_1_recip", "op": "Const", "attr": {"value": {"tensor": {"dtype": "DT_FLOAT", "tensorShape": {}}}, "dtype": {"type": "DT_FLOAT"}}, "inputs": []}, {"name": "StatefulPartitionedCall/jax2tf_apply_/ActorCriticTransformerFlats/ActorCriticTransformerFlats/Transformer_0/tf_layers_0/ln2/pjit__mean_/Sum/reduction_indices", "op": "Const", "attr": {"value": {"tensor": {"dtype": "DT_INT32", "tensorShape": {"dim": [{"size": "1"}]}}}, "dtype": {"type": "DT_INT32"}}, "inputs": []}, {"name": "ConstantFolding/StatefulPartitionedCall/jax2tf_apply_/ActorCriticTransformerFlats/ActorCriticTransformerFlats/Transformer_0/tf_layers_0/ln2/pjit__mean_/truediv_recip", "op": "Const", "attr": {"value": {"tensor": {"dtype": "DT_FLOAT", "tensorShape": {}}}, "dtype": {"type": "DT_FLOAT"}}, "inputs": []}, {"name": "StatefulPartitionedCall/jax2tf_apply_/ActorCriticTransformerFlats/ActorCriticTransformerFlats/Transformer_0/tf_layers_0/ln2/Const_6", "op": "Const", "attr": {"value": {"tensor": {"dtype": "DT_INT32", "tensorShape": {}}}, "dtype": {"type": "DT_INT32"}}, "inputs": []}, {"name": "StatefulPartitionedCall/jax2tf_apply_/ActorCriticTransformerFlats/ActorCriticTransformerFlats/Transformer_0/tf_layers_0/ln2/Reshape_1/shape/1", "op": "Const", "attr": {"value": {"tensor": {"dtype": "DT_INT32", "tensorShape": {}}}, "dtype": {"type": "DT_INT32"}}, "inputs": []}, {"name": "StatefulPartitionedCall/jax2tf_apply_/ActorCriticTransformerFlats/ActorCriticTransformerFlats/Transformer_0/tf_layers_0/ln2/Const_8", "op": "Const", "attr": {"value": {"tensor": {"dtype": "DT_INT32", "tensorShape": {}}}, "dtype": {"type": "DT_INT32"}}, "inputs": []}, {"name": "StatefulPartitionedCall/jax2tf_apply_/ActorCriticTransformerFlats/ActorCriticTransformerFlats/Transformer_0/tf_layers_0/ln2/BroadcastTo_1/shape/1", "op": "Const", "attr": {"value": {"tensor": {"dtype": "DT_INT32", "tensorShape": {}}}, "dtype": {"type": "DT_INT32"}}, "inputs": []}, {"name": "StatefulPartitionedCall/Const_22", "op": "Const", "attr": {"value": {"tensor": {"dtype": "DT_FLOAT", "tensorShape": {}}}, "dtype": {"type": "DT_FLOAT"}}, "inputs": []}, {"name": "StatefulPartitionedCall/jax2tf_apply_/ActorCriticTransformerFlats/ActorCriticTransformerFlats/Transformer_0/tf_layers_0/ln2/Reshape_2", "op": "Const", "attr": {"value": {"tensor": {"dtype": "DT_FLOAT", "tensorShape": {"dim": [{"size": "1"}, {"size": "128"}]}}}, "dtype": {"type": "DT_FLOAT"}}, "inputs": []}, {"name": "StatefulPartitionedCall/jax2tf_apply_/ActorCriticTransformerFlats/ActorCriticTransformerFlats/Transformer_0/tf_layers_0/ln2/Reshape_3", "op": "Const", "attr": {"value": {"tensor": {"dtype": "DT_FLOAT", "tensorShape": {"dim": [{"size": "1"}, {"size": "128"}]}}}, "dtype": {"type": "DT_FLOAT"}}, "inputs": []}, {"name": "StatefulPartitionedCall/jax2tf_arg_45/ReadVariableOp", "op": "Const", "attr": {"value": {"tensor": {"dtype": "DT_FLOAT", "tensorShape": {"dim": [{"size": "128"}, {"size": "128"}]}}}, "dtype": {"type": "DT_FLOAT"}}, "inputs": []}, {"name": "StatefulPartitionedCall/jax2tf_apply_/ActorCriticTransformerFlats/ActorCriticTransformerFlats/Transformer_0/tf_layers_0/dense1/Reshape", "op": "Const", "attr": {"value": {"tensor": {"dtype": "DT_FLOAT", "tensorShape": {"dim": [{"size": "1"}, {"size": "128"}]}}}, "dtype": {"type": "DT_FLOAT"}}, "inputs": []}, {"name": "StatefulPartitionedCall/jax2tf_apply_/ActorCriticTransformerFlats/ActorCriticTransformerFlats/Transformer_0/tf_layers_0/Const_1", "op": "Const", "attr": {"value": {"tensor": {"dtype": "DT_FLOAT", "tensorShape": {}}}, "dtype": {"type": "DT_FLOAT"}}, "inputs": []}, {"name": "StatefulPartitionedCall/jax2tf_arg_53/ReadVariableOp", "op": "Const", "attr": {"value": {"tensor": {"dtype": "DT_FLOAT", "tensorShape": {"dim": [{"size": "128"}, {"size": "128"}]}}}, "dtype": {"type": "DT_FLOAT"}}, "inputs": []}, {"name": "StatefulPartitionedCall/jax2tf_arg_54/ReadVariableOp", "op": "Const", "attr": {"value": {"tensor": {"dtype": "DT_FLOAT", "tensorShape": {"dim": [{"size": "128"}, {"size": "128"}]}}}, "dtype": {"type": "DT_FLOAT"}}, "inputs": []}, {"name": "StatefulPartitionedCall/jax2tf_apply_/ActorCriticTransformerFlats/ActorCriticTransformerFlats/Transformer_0/tf_layers_0/gate1/pjit__lambda__/Cast", "op": "Const", "attr": {"value": {"tensor": {"dtype": "DT_FLOAT", "tensorShape": {}}}, "dtype": {"type": "DT_FLOAT"}}, "inputs": []}, {"name": "StatefulPartitionedCall/jax2tf_apply_/ActorCriticTransformerFlats/ActorCriticTransformerFlats/Transformer_0/tf_layers_0/gate1/pjit_sigmoid_/Const_2", "op": "Const", "attr": {"value": {"tensor": {"dtype": "DT_FLOAT", "tensorShape": {}}}, "dtype": {"type": "DT_FLOAT"}}, "inputs": []}, {"name": "StatefulPartitionedCall/jax2tf_arg_48/ReadVariableOp", "op": "Const", "attr": {"value": {"tensor": {"dtype": "DT_FLOAT", "tensorShape": {"dim": [{"size": "128"}, {"size": "128"}]}}}, "dtype": {"type": "DT_FLOAT"}}, "inputs": []}, {"name": "StatefulPartitionedCall/jax2tf_arg_49/ReadVariableOp", "op": "Const", "attr": {"value": {"tensor": {"dtype": "DT_FLOAT", "tensorShape": {"dim": [{"size": "128"}, {"size": "128"}]}}}, "dtype": {"type": "DT_FLOAT"}}, "inputs": []}, {"name": "StatefulPartitionedCall/jax2tf_apply_/ActorCriticTransformerFlats/ActorCriticTransformerFlats/Transformer_0/tf_layers_0/gate1/pjit__lambda__/BroadcastTo", "op": "Const", "attr": {"value": {"tensor": {"dtype": "DT_FLOAT", "tensorShape": {"dim": [{"size": "1"}, {"size": "128"}]}}}, "dtype": {"type": "DT_FLOAT"}}, "inputs": []}, {"name": "StatefulPartitionedCall/jax2tf_arg_50/ReadVariableOp", "op": "Const", "attr": {"value": {"tensor": {"dtype": "DT_FLOAT", "tensorShape": {"dim": [{"size": "128"}, {"size": "128"}]}}}, "dtype": {"type": "DT_FLOAT"}}, "inputs": []}, {"name": "StatefulPartitionedCall/jax2tf_apply_/ActorCriticTransformerFlats/ActorCriticTransformerFlats/Transformer_0/tf_layers_0/gate1/pjit_sigmoid_/Const", "op": "Const", "attr": {"value": {"tensor": {"dtype": "DT_FLOAT", "tensorShape": {}}}, "dtype": {"type": "DT_FLOAT"}}, "inputs": []}, {"name": "StatefulPartitionedCall/jax2tf_arg_43/ReadVariableOp", "op": "Const", "attr": {"value": {"tensor": {"dtype": "DT_FLOAT", "tensorShape": {"dim": [{"size": "128"}, {"size": "8"}, {"size": "2"}]}}}, "dtype": {"type": "DT_FLOAT"}}, "inputs": []}, {"name": "StatefulPartitionedCall/jax2tf_apply_/ActorCriticTransformerFlats/ActorCriticTransformerFlats/Transformer_0/tf_layers_0/attention1/value/Reshape", "op": "Const", "attr": {"value": {"tensor": {"dtype": "DT_FLOAT", "tensorShape": {"dim": [{"size": "1"}, {"size": "8"}, {"size": "2"}]}}}, "dtype": {"type": "DT_FLOAT"}}, "inputs": []}, {"name": "StatefulPartitionedCall/jax2tf_apply_/ActorCriticTransformerFlats/ActorCriticTransformerFlats/Reshape_8", "op": "Const", "attr": {"value": {"tensor": {"dtype": "DT_BOOL", "tensorShape": {"dim": [{"size": "1"}, {"size": "1"}, {"size": "1"}]}}}, "dtype": {"type": "DT_BOOL"}}, "inputs": []}, {"name": "StatefulPartitionedCall/jax2tf_apply_/ActorCriticTransformerFlats/ActorCriticTransformerFlats/BroadcastTo_8/shape/0", "op": "Const", "attr": {"value": {"tensor": {"dtype": "DT_INT32", "tensorShape": {}}}, "dtype": {"type": "DT_INT32"}}, "inputs": []}, {"name": "StatefulPartitionedCall/jax2tf_apply_/ActorCriticTransformerFlats/ActorCriticTransformerFlats/BroadcastTo_8/shape/1", "op": "Const", "attr": {"value": {"tensor": {"dtype": "DT_INT32", "tensorShape": {}}}, "dtype": {"type": "DT_INT32"}}, "inputs": []}, {"name": "StatefulPartitionedCall/jax2tf_apply_/ActorCriticTransformerFlats/ActorCriticTransformerFlats/Const_2", "op": "Const", "attr": {"value": {"tensor": {"dtype": "DT_INT32", "tensorShape": {}}}, "dtype": {"type": "DT_INT32"}}, "inputs": []}, {"name": "StatefulPartitionedCall/jax2tf_apply_/ActorCriticTransformerFlats/ActorCriticTransformerFlats/Reshape_9", "op": "Const", "attr": {"value": {"tensor": {"dtype": "DT_BOOL", "tensorShape": {"dim": [{"size": "1"}, {"size": "1"}, {"size": "1"}]}}}, "dtype": {"type": "DT_BOOL"}}, "inputs": []}, {"name": "StatefulPartitionedCall/jax2tf_apply_/ActorCriticTransformerFlats/ActorCriticTransformerFlats/BroadcastTo_9/shape/0", "op": "Const", "attr": {"value": {"tensor": {"dtype": "DT_INT32", "tensorShape": {}}}, "dtype": {"type": "DT_INT32"}}, "inputs": []}, {"name": "StatefulPartitionedCall/jax2tf_apply_/ActorCriticTransformerFlats/ActorCriticTransformerFlats/BroadcastTo_9/shape/2", "op": "Const", "attr": {"value": {"tensor": {"dtype": "DT_INT32", "tensorShape": {}}}, "dtype": {"type": "DT_INT32"}}, "inputs": []}, {"name": "StatefulPartitionedCall/jax2tf_apply_/ActorCriticTransformerFlats/ActorCriticTransformerFlats/Cast_8/x", "op": "Const", "attr": {"value": {"tensor": {"dtype": "DT_INT32", "tensorShape": {}}}, "dtype": {"type": "DT_INT32"}}, "inputs": []}, {"name": "StatefulPartitionedCall/jax2tf_apply_/ActorCriticTransformerFlats/ActorCriticTransformerFlats/Cast_9/x", "op": "Const", "attr": {"value": {"tensor": {"dtype": "DT_INT32", "tensorShape": {}}}, "dtype": {"type": "DT_INT32"}}, "inputs": []}, {"name": "StatefulPartitionedCall/jax2tf_apply_/ActorCriticTransformerFlats/ActorCriticTransformerFlats/Const_7", "op": "Const", "attr": {"value": {"tensor": {"dtype": "DT_INT32", "tensorShape": {}}}, "dtype": {"type": "DT_INT32"}}, "inputs": []}, {"name": "StatefulPartitionedCall/jax2tf_apply_/ActorCriticTransformerFlats/ActorCriticTransformerFlats/Reshape_10/shape/1", "op": "Const", "attr": {"value": {"tensor": {"dtype": "DT_INT32", "tensorShape": {}}}, "dtype": {"type": "DT_INT32"}}, "inputs": []}, {"name": "StatefulPartitionedCall/jax2tf_apply_/ActorCriticTransformerFlats/ActorCriticTransformerFlats/Const_9", "op": "Const", "attr": {"value": {"tensor": {"dtype": "DT_INT32", "tensorShape": {}}}, "dtype": {"type": "DT_INT32"}}, "inputs": []}, {"name": "StatefulPartitionedCall/jax2tf_apply_/ActorCriticTransformerFlats/ActorCriticTransformerFlats/BroadcastTo_10/shape/1", "op": "Const", "attr": {"value": {"tensor": {"dtype": "DT_INT32", "tensorShape": {}}}, "dtype": {"type": "DT_INT32"}}, "inputs": []}, {"name": "StatefulPartitionedCall/jax2tf_apply_/ActorCriticTransformerFlats/ActorCriticTransformerFlats/pjit__lambda__/Reshape/shape/0", "op": "Const", "attr": {"value": {"tensor": {"dtype": "DT_INT32", "tensorShape": {}}}, "dtype": {"type": "DT_INT32"}}, "inputs": []}, {"name": "StatefulPartitionedCall/jax2tf_apply_/ActorCriticTransformerFlats/ActorCriticTransformerFlats/pjit__lambda__/Const", "op": "Const", "attr": {"value": {"tensor": {"dtype": "DT_INT32", "tensorShape": {}}}, "dtype": {"type": "DT_INT32"}}, "inputs": []}, {"name": "StatefulPartitionedCall/jax2tf_apply_/ActorCriticTransformerFlats/ActorCriticTransformerFlats/pjit__lambda__/Reshape/shape/2", "op": "Const", "attr": {"value": {"tensor": {"dtype": "DT_INT32", "tensorShape": {}}}, "dtype": {"type": "DT_INT32"}}, "inputs": []}, {"name": "StatefulPartitionedCall/jax2tf_apply_/ActorCriticTransformerFlats/ActorCriticTransformerFlats/pjit__lambda__/BroadcastTo/shape/0", "op": "Const", "attr": {"value": {"tensor": {"dtype": "DT_INT32", "tensorShape": {}}}, "dtype": {"type": "DT_INT32"}}, "inputs": []}, {"name": "StatefulPartitionedCall/jax2tf_apply_/ActorCriticTransformerFlats/ActorCriticTransformerFlats/pjit__lambda__/Const_3", "op": "Const", "attr": {"value": {"tensor": {"dtype": "DT_INT32", "tensorShape": {}}}, "dtype": {"type": "DT_INT32"}}, "inputs": []}, {"name": "StatefulPartitionedCall/jax2tf_apply_/ActorCriticTransformerFlats/ActorCriticTransformerFlats/pjit__lambda__/BroadcastTo/shape/2", "op": "Const", "attr": {"value": {"tensor": {"dtype": "DT_INT32", "tensorShape": {}}}, "dtype": {"type": "DT_INT32"}}, "inputs": []}, {"name": "StatefulPartitionedCall/jax2tf_apply_/ActorCriticTransformerFlats/ActorCriticTransformerFlats/Reshape_11/shape/0", "op": "Const", "attr": {"value": {"tensor": {"dtype": "DT_INT32", "tensorShape": {}}}, "dtype": {"type": "DT_INT32"}}, "inputs": []}, {"name": "StatefulPartitionedCall/jax2tf_apply_/ActorCriticTransformerFlats/ActorCriticTransformerFlats/Const_11", "op": "Const", "attr": {"value": {"tensor": {"dtype": "DT_INT32", "tensorShape": {}}}, "dtype": {"type": "DT_INT32"}}, "inputs": []}, {"name": "StatefulPartitionedCall/jax2tf_apply_/ActorCriticTransformerFlats/ActorCriticTransformerFlats/BroadcastTo_11/shape/0", "op": "Const", "attr": {"value": {"tensor": {"dtype": "DT_INT32", "tensorShape": {}}}, "dtype": {"type": "DT_INT32"}}, "inputs": []}, {"name": "StatefulPartitionedCall/jax2tf_apply_/ActorCriticTransformerFlats/ActorCriticTransformerFlats/Const_13", "op": "Const", "attr": {"value": {"tensor": {"dtype": "DT_INT32", "tensorShape": {}}}, "dtype": {"type": "DT_INT32"}}, "inputs": []}, {"name": "StatefulPartitionedCall/jax2tf_apply_/ActorCriticTransformerFlats/ActorCriticTransformerFlats/pjit__lambda__/Reshape_1/shape/0", "op": "Const", "attr": {"value": {"tensor": {"dtype": "DT_INT32", "tensorShape": {}}}, "dtype": {"type": "DT_INT32"}}, "inputs": []}, {"name": "StatefulPartitionedCall/jax2tf_apply_/ActorCriticTransformerFlats/ActorCriticTransformerFlats/pjit__lambda__/Reshape_1/shape/1", "op": "Const", "attr": {"value": {"tensor": {"dtype": "DT_INT32", "tensorShape": {}}}, "dtype": {"type": "DT_INT32"}}, "inputs": []}, {"name": "StatefulPartitionedCall/jax2tf_apply_/ActorCriticTransformerFlats/ActorCriticTransformerFlats/pjit__lambda__/Const_6", "op": "Const", "attr": {"value": {"tensor": {"dtype": "DT_INT32", "tensorShape": {}}}, "dtype": {"type": "DT_INT32"}}, "inputs": []}, {"name": "StatefulPartitionedCall/jax2tf_apply_/ActorCriticTransformerFlats/ActorCriticTransformerFlats/pjit__lambda__/BroadcastTo_1/shape/0", "op": "Const", "attr": {"value": {"tensor": {"dtype": "DT_INT32", "tensorShape": {}}}, "dtype": {"type": "DT_INT32"}}, "inputs": []}, {"name": "StatefulPartitionedCall/jax2tf_apply_/ActorCriticTransformerFlats/ActorCriticTransformerFlats/pjit__lambda__/BroadcastTo_1/shape/1", "op": "Const", "attr": {"value": {"tensor": {"dtype": "DT_INT32", "tensorShape": {}}}, "dtype": {"type": "DT_INT32"}}, "inputs": []}, {"name": "StatefulPartitionedCall/jax2tf_apply_/ActorCriticTransformerFlats/ActorCriticTransformerFlats/pjit__lambda__/Const_9", "op": "Const", "attr": {"value": {"tensor": {"dtype": "DT_INT32", "tensorShape": {}}}, "dtype": {"type": "DT_INT32"}}, "inputs": []}, {"name": "StatefulPartitionedCall/jax2tf_apply_/ActorCriticTransformerFlats/ActorCriticTransformerFlats/Reshape_12/shape/0", "op": "Const", "attr": {"value": {"tensor": {"dtype": "DT_INT32", "tensorShape": {}}}, "dtype": {"type": "DT_INT32"}}, "inputs": []}, {"name": "StatefulPartitionedCall/jax2tf_apply_/ActorCriticTransformerFlats/ActorCriticTransformerFlats/Reshape_12/shape/1", "op": "Const", "attr": {"value": {"tensor": {"dtype": "DT_INT32", "tensorShape": {}}}, "dtype": {"type": "DT_INT32"}}, "inputs": []}, {"name": "StatefulPartitionedCall/jax2tf_apply_/ActorCriticTransformerFlats/ActorCriticTransformerFlats/Const_15", "op": "Const", "attr": {"value": {"tensor": {"dtype": "DT_INT32", "tensorShape": {}}}, "dtype": {"type": "DT_INT32"}}, "inputs": []}, {"name": "StatefulPartitionedCall/jax2tf_apply_/ActorCriticTransformerFlats/ActorCriticTransformerFlats/Const_16", "op": "Const", "attr": {"value": {"tensor": {"dtype": "DT_INT32", "tensorShape": {}}}, "dtype": {"type": "DT_INT32"}}, "inputs": []}, {"name": "StatefulPartitionedCall/jax2tf_apply_/ActorCriticTransformerFlats/ActorCriticTransformerFlats/BroadcastTo_12/shape/0", "op": "Const", "attr": {"value": {"tensor": {"dtype": "DT_INT32", "tensorShape": {}}}, "dtype": {"type": "DT_INT32"}}, "inputs": []}, {"name": "StatefulPartitionedCall/jax2tf_apply_/ActorCriticTransformerFlats/ActorCriticTransformerFlats/BroadcastTo_12/shape/1", "op": "Const", "attr": {"value": {"tensor": {"dtype": "DT_INT32", "tensorShape": {}}}, "dtype": {"type": "DT_INT32"}}, "inputs": []}, {"name": "StatefulPartitionedCall/jax2tf_apply_/ActorCriticTransformerFlats/ActorCriticTransformerFlats/Const_19", "op": "Const", "attr": {"value": {"tensor": {"dtype": "DT_INT32", "tensorShape": {}}}, "dtype": {"type": "DT_INT32"}}, "inputs": []}, {"name": "StatefulPartitionedCall/jax2tf_apply_/ActorCriticTransformerFlats/ActorCriticTransformerFlats/Const_20", "op": "Const", "attr": {"value": {"tensor": {"dtype": "DT_INT32", "tensorShape": {}}}, "dtype": {"type": "DT_INT32"}}, "inputs": []}, {"name": "StatefulPartitionedCall/jax2tf_apply_/ActorCriticTransformerFlats/ActorCriticTransformerFlats/Reshape_15/shape/0", "op": "Const", "attr": {"value": {"tensor": {"dtype": "DT_INT32", "tensorShape": {}}}, "dtype": {"type": "DT_INT32"}}, "inputs": []}, {"name": "StatefulPartitionedCall/jax2tf_apply_/ActorCriticTransformerFlats/ActorCriticTransformerFlats/Reshape_15/shape/1", "op": "Const", "attr": {"value": {"tensor": {"dtype": "DT_INT32", "tensorShape": {}}}, "dtype": {"type": "DT_INT32"}}, "inputs": []}, {"name": "StatefulPartitionedCall/jax2tf_apply_/ActorCriticTransformerFlats/ActorCriticTransformerFlats/Reshape_15/shape/2", "op": "Const", "attr": {"value": {"tensor": {"dtype": "DT_INT32", "tensorShape": {}}}, "dtype": {"type": "DT_INT32"}}, "inputs": []}, {"name": "StatefulPartitionedCall/jax2tf_apply_/ActorCriticTransformerFlats/ActorCriticTransformerFlats/Reshape_15/shape/3", "op": "Const", "attr": {"value": {"tensor": {"dtype": "DT_INT32", "tensorShape": {}}}, "dtype": {"type": "DT_INT32"}}, "inputs": []}, {"name": "StatefulPartitionedCall/jax2tf_apply_/ActorCriticTransformerFlats/ActorCriticTransformerFlats/Reshape_15/shape/4", "op": "Const", "attr": {"value": {"tensor": {"dtype": "DT_INT32", "tensorShape": {}}}, "dtype": {"type": "DT_INT32"}}, "inputs": []}, {"name": "StatefulPartitionedCall/jax2tf_apply_/ActorCriticTransformerFlats/ActorCriticTransformerFlats/Const_38", "op": "Const", "attr": {"value": {"tensor": {"dtype": "DT_INT32", "tensorShape": {}}}, "dtype": {"type": "DT_INT32"}}, "inputs": []}, {"name": "StatefulPartitionedCall/jax2tf_apply_/ActorCriticTransformerFlats/ActorCriticTransformerFlats/Reshape_15/shape/6", "op": "Const", "attr": {"value": {"tensor": {"dtype": "DT_INT32", "tensorShape": {}}}, "dtype": {"type": "DT_INT32"}}, "inputs": []}, {"name": "StatefulPartitionedCall/jax2tf_apply_/ActorCriticTransformerFlats/ActorCriticTransformerFlats/Const_39", "op": "Const", "attr": {"value": {"tensor": {"dtype": "DT_INT32", "tensorShape": {}}}, "dtype": {"type": "DT_INT32"}}, "inputs": []}, {"name": "StatefulPartitionedCall/jax2tf_apply_/ActorCriticTransformerFlats/ActorCriticTransformerFlats/BroadcastTo_13/shape/0", "op": "Const", "attr": {"value": {"tensor": {"dtype": "DT_INT32", "tensorShape": {}}}, "dtype": {"type": "DT_INT32"}}, "inputs": []}, {"name": "StatefulPartitionedCall/jax2tf_apply_/ActorCriticTransformerFlats/ActorCriticTransformerFlats/BroadcastTo_13/shape/1", "op": "Const", "attr": {"value": {"tensor": {"dtype": "DT_INT32", "tensorShape": {}}}, "dtype": {"type": "DT_INT32"}}, "inputs": []}, {"name": "StatefulPartitionedCall/jax2tf_apply_/ActorCriticTransformerFlats/ActorCriticTransformerFlats/BroadcastTo_13/shape/2", "op": "Const", "attr": {"value": {"tensor": {"dtype": "DT_INT32", "tensorShape": {}}}, "dtype": {"type": "DT_INT32"}}, "inputs": []}, {"name": "StatefulPartitionedCall/jax2tf_apply_/ActorCriticTransformerFlats/ActorCriticTransformerFlats/BroadcastTo_13/shape/3", "op": "Const", "attr": {"value": {"tensor": {"dtype": "DT_INT32", "tensorShape": {}}}, "dtype": {"type": "DT_INT32"}}, "inputs": []}, {"name": "StatefulPartitionedCall/jax2tf_apply_/ActorCriticTransformerFlats/ActorCriticTransformerFlats/BroadcastTo_13/shape/4", "op": "Const", "attr": {"value": {"tensor": {"dtype": "DT_INT32", "tensorShape": {}}}, "dtype": {"type": "DT_INT32"}}, "inputs": []}, {"name": "StatefulPartitionedCall/jax2tf_apply_/ActorCriticTransformerFlats/ActorCriticTransformerFlats/Const_46", "op": "Const", "attr": {"value": {"tensor": {"dtype": "DT_INT32", "tensorShape": {}}}, "dtype": {"type": "DT_INT32"}}, "inputs": []}, {"name": "StatefulPartitionedCall/jax2tf_apply_/ActorCriticTransformerFlats/ActorCriticTransformerFlats/BroadcastTo_13/shape/6", "op": "Const", "attr": {"value": {"tensor": {"dtype": "DT_INT32", "tensorShape": {}}}, "dtype": {"type": "DT_INT32"}}, "inputs": []}, {"name": "StatefulPartitionedCall/jax2tf_apply_/ActorCriticTransformerFlats/ActorCriticTransformerFlats/Const_47", "op": "Const", "attr": {"value": {"tensor": {"dtype": "DT_INT32", "tensorShape": {}}}, "dtype": {"type": "DT_INT32"}}, "inputs": []}, {"name": "StatefulPartitionedCall/jax2tf_apply_/ActorCriticTransformerFlats/ActorCriticTransformerFlats/Reshape_17/shape/0", "op": "Const", "attr": {"value": {"tensor": {"dtype": "DT_INT32", "tensorShape": {}}}, "dtype": {"type": "DT_INT32"}}, "inputs": []}, {"name": "StatefulPartitionedCall/jax2tf_apply_/ActorCriticTransformerFlats/ActorCriticTransformerFlats/Const_58", "op": "Const", "attr": {"value": {"tensor": {"dtype": "DT_INT32", "tensorShape": {}}}, "dtype": {"type": "DT_INT32"}}, "inputs": []}, {"name": "StatefulPartitionedCall/jax2tf_apply_/ActorCriticTransformerFlats/ActorCriticTransformerFlats/Const_59", "op": "Const", "attr": {"value": {"tensor": {"dtype": "DT_INT32", "tensorShape": {}}}, "dtype": {"type": "DT_INT32"}}, "inputs": []}, {"name": "StatefulPartitionedCall/jax2tf_arg_41/ReadVariableOp", "op": "Const", "attr": {"value": {"tensor": {"dtype": "DT_FLOAT", "tensorShape": {"dim": [{"size": "128"}, {"size": "8"}, {"size": "2"}]}}}, "dtype": {"type": "DT_FLOAT"}}, "inputs": []}, {"name": "StatefulPartitionedCall/jax2tf_apply_/ActorCriticTransformerFlats/ActorCriticTransformerFlats/Transformer_0/tf_layers_0/attention1/query/Reshape", "op": "Const", "attr": {"value": {"tensor": {"dtype": "DT_FLOAT", "tensorShape": {"dim": [{"size": "1"}, {"size": "8"}, {"size": "2"}]}}}, "dtype": {"type": "DT_FLOAT"}}, "inputs": []}, {"name": "ConstantFolding/StatefulPartitionedCall/jax2tf_apply_/ActorCriticTransformerFlats/ActorCriticTransformerFlats/Transformer_0/tf_layers_0/attention1/pjit_true_divide_/truediv_recip", "op": "Const", "attr": {"value": {"tensor": {"dtype": "DT_FLOAT", "tensorShape": {}}}, "dtype": {"type": "DT_FLOAT"}}, "inputs": []}, {"name": "StatefulPartitionedCall/jax2tf_apply_/ActorCriticTransformerFlats/ActorCriticTransformerFlats/Transformer_0/tf_layers_0/ln1/Const_2", "op": "Const", "attr": {"value": {"tensor": {"dtype": "DT_INT32", "tensorShape": {}}}, "dtype": {"type": "DT_INT32"}}, "inputs": []}, {"name": "StatefulPartitionedCall/jax2tf_apply_/ActorCriticTransformerFlats/ActorCriticTransformerFlats/Transformer_0/tf_layers_0/ln1/Reshape/shape/1", "op": "Const", "attr": {"value": {"tensor": {"dtype": "DT_INT32", "tensorShape": {}}}, "dtype": {"type": "DT_INT32"}}, "inputs": []}, {"name": "StatefulPartitionedCall/jax2tf_apply_/ActorCriticTransformerFlats/ActorCriticTransformerFlats/Transformer_0/tf_layers_0/ln1/Const_4", "op": "Const", "attr": {"value": {"tensor": {"dtype": "DT_INT32", "tensorShape": {}}}, "dtype": {"type": "DT_INT32"}}, "inputs": []}, {"name": "StatefulPartitionedCall/jax2tf_apply_/ActorCriticTransformerFlats/ActorCriticTransformerFlats/Transformer_0/tf_layers_0/ln1/BroadcastTo/shape/1", "op": "Const", "attr": {"value": {"tensor": {"dtype": "DT_INT32", "tensorShape": {}}}, "dtype": {"type": "DT_INT32"}}, "inputs": []}, {"name": "StatefulPartitionedCall/Const_16", "op": "Const", "attr": {"value": {"tensor": {"dtype": "DT_FLOAT", "tensorShape": {}}}, "dtype": {"type": "DT_FLOAT"}}, "inputs": []}, {"name": "StatefulPartitionedCall/jax2tf_apply_/ActorCriticTransformerFlats/ActorCriticTransformerFlats/Transformer_0/tf_layers_0/ln1/pjit__mean_/Sum_1/reduction_indices", "op": "Const", "attr": {"value": {"tensor": {"dtype": "DT_INT32", "tensorShape": {"dim": [{"size": "1"}]}}}, "dtype": {"type": "DT_INT32"}}, "inputs": []}, {"name": "ConstantFolding/StatefulPartitionedCall/jax2tf_apply_/ActorCriticTransformerFlats/ActorCriticTransformerFlats/Transformer_0/tf_layers_0/ln1/pjit__mean_/truediv_1_recip", "op": "Const", "attr": {"value": {"tensor": {"dtype": "DT_FLOAT", "tensorShape": {}}}, "dtype": {"type": "DT_FLOAT"}}, "inputs": []}, {"name": "StatefulPartitionedCall/jax2tf_apply_/ActorCriticTransformerFlats/ActorCriticTransformerFlats/Transformer_0/tf_layers_0/ln1/pjit__mean_/Sum/reduction_indices", "op": "Const", "attr": {"value": {"tensor": {"dtype": "DT_INT32", "tensorShape": {"dim": [{"size": "1"}]}}}, "dtype": {"type": "DT_INT32"}}, "inputs": []}, {"name": "ConstantFolding/StatefulPartitionedCall/jax2tf_apply_/ActorCriticTransformerFlats/ActorCriticTransformerFlats/Transformer_0/tf_layers_0/ln1/pjit__mean_/truediv_recip", "op": "Const", "attr": {"value": {"tensor": {"dtype": "DT_FLOAT", "tensorShape": {}}}, "dtype": {"type": "DT_FLOAT"}}, "inputs": []}, {"name": "StatefulPartitionedCall/jax2tf_apply_/ActorCriticTransformerFlats/ActorCriticTransformerFlats/Transformer_0/tf_layers_0/ln1/Const_6", "op": "Const", "attr": {"value": {"tensor": {"dtype": "DT_INT32", "tensorShape": {}}}, "dtype": {"type": "DT_INT32"}}, "inputs": []}, {"name": "StatefulPartitionedCall/jax2tf_apply_/ActorCriticTransformerFlats/ActorCriticTransformerFlats/Transformer_0/tf_layers_0/ln1/Reshape_1/shape/1", "op": "Const", "attr": {"value": {"tensor": {"dtype": "DT_INT32", "tensorShape": {}}}, "dtype": {"type": "DT_INT32"}}, "inputs": []}, {"name": "StatefulPartitionedCall/jax2tf_apply_/ActorCriticTransformerFlats/ActorCriticTransformerFlats/Transformer_0/tf_layers_0/ln1/Const_8", "op": "Const", "attr": {"value": {"tensor": {"dtype": "DT_INT32", "tensorShape": {}}}, "dtype": {"type": "DT_INT32"}}, "inputs": []}, {"name": "StatefulPartitionedCall/jax2tf_apply_/ActorCriticTransformerFlats/ActorCriticTransformerFlats/Transformer_0/tf_layers_0/ln1/BroadcastTo_1/shape/1", "op": "Const", "attr": {"value": {"tensor": {"dtype": "DT_INT32", "tensorShape": {}}}, "dtype": {"type": "DT_INT32"}}, "inputs": []}, {"name": "StatefulPartitionedCall/Const_17", "op": "Const", "attr": {"value": {"tensor": {"dtype": "DT_FLOAT", "tensorShape": {}}}, "dtype": {"type": "DT_FLOAT"}}, "inputs": []}, {"name": "StatefulPartitionedCall/jax2tf_apply_/ActorCriticTransformerFlats/ActorCriticTransformerFlats/Transformer_0/tf_layers_0/ln1/Reshape_2", "op": "Const", "attr": {"value": {"tensor": {"dtype": "DT_FLOAT", "tensorShape": {"dim": [{"size": "1"}, {"size": "128"}]}}}, "dtype": {"type": "DT_FLOAT"}}, "inputs": []}, {"name": "StatefulPartitionedCall/jax2tf_apply_/ActorCriticTransformerFlats/ActorCriticTransformerFlats/Transformer_0/tf_layers_0/ln1/Reshape_3", "op": "Const", "attr": {"value": {"tensor": {"dtype": "DT_FLOAT", "tensorShape": {"dim": [{"size": "1"}, {"size": "128"}]}}}, "dtype": {"type": "DT_FLOAT"}}, "inputs": []}, {"name": "StatefulPartitionedCall/jax2tf_arg_37/ReadVariableOp", "op": "Const", "attr": {"value": {"tensor": {"dtype": "DT_FLOAT", "tensorShape": {"dim": [{"size": "128"}, {"size": "8"}, {"size": "2"}]}}}, "dtype": {"type": "DT_FLOAT"}}, "inputs": []}, {"name": "StatefulPartitionedCall/jax2tf_apply_/ActorCriticTransformerFlats/ActorCriticTransformerFlats/Transformer_0/tf_layers_0/attention1/key/Reshape", "op": "Const", "attr": {"value": {"tensor": {"dtype": "DT_FLOAT", "tensorShape": {"dim": [{"size": "1"}, {"size": "8"}, {"size": "2"}]}}}, "dtype": {"type": "DT_FLOAT"}}, "inputs": []}, {"name": "StatefulPartitionedCall/jax2tf_apply_/ActorCriticTransformerFlats/ActorCriticTransformerFlats/Transformer_0/tf_layers_0/attention1/pjit__where_/Reshape", "op": "Const", "attr": {"value": {"tensor": {"dtype": "DT_FLOAT", "tensorShape": {"dim": [{"size": "1"}, {"size": "1"}, {"size": "1"}]}}}, "dtype": {"type": "DT_FLOAT"}}, "inputs": []}, {"name": "StatefulPartitionedCall/jax2tf_apply_/ActorCriticTransformerFlats/ActorCriticTransformerFlats/Transformer_0/tf_layers_0/attention1/pjit__where_/BroadcastTo/shape/0", "op": "Const", "attr": {"value": {"tensor": {"dtype": "DT_INT32", "tensorShape": {}}}, "dtype": {"type": "DT_INT32"}}, "inputs": []}, {"name": "StatefulPartitionedCall/jax2tf_apply_/ActorCriticTransformerFlats/ActorCriticTransformerFlats/Transformer_0/tf_layers_0/attention1/pjit__where_/Const", "op": "Const", "attr": {"value": {"tensor": {"dtype": "DT_INT32", "tensorShape": {}}}, "dtype": {"type": "DT_INT32"}}, "inputs": []}, {"name": "StatefulPartitionedCall/jax2tf_apply_/ActorCriticTransformerFlats/ActorCriticTransformerFlats/Transformer_0/tf_layers_0/attention1/pjit__where_/Const_1", "op": "Const", "attr": {"value": {"tensor": {"dtype": "DT_INT32", "tensorShape": {}}}, "dtype": {"type": "DT_INT32"}}, "inputs": []}, {"name": "StatefulPartitionedCall/jax2tf_apply_/ActorCriticTransformerFlats/ActorCriticTransformerFlats/Transformer_0/tf_layers_0/attention1/pjit__reduce_max_/Max/reduction_indices", "op": "Const", "attr": {"value": {"tensor": {"dtype": "DT_INT32", "tensorShape": {"dim": [{"size": "1"}]}}}, "dtype": {"type": "DT_INT32"}}, "inputs": []}, {"name": "StatefulPartitionedCall/jax2tf_apply_/ActorCriticTransformerFlats/ActorCriticTransformerFlats/Transformer_0/tf_layers_0/attention1/pjit__reduce_max_/Reshape/shape/0", "op": "Const", "attr": {"value": {"tensor": {"dtype": "DT_INT32", "tensorShape": {}}}, "dtype": {"type": "DT_INT32"}}, "inputs": []}, {"name": "StatefulPartitionedCall/jax2tf_apply_/ActorCriticTransformerFlats/ActorCriticTransformerFlats/Transformer_0/tf_layers_0/attention1/pjit__reduce_max_/Const", "op": "Const", "attr": {"value": {"tensor": {"dtype": "DT_INT32", "tensorShape": {}}}, "dtype": {"type": "DT_INT32"}}, "inputs": []}, {"name": "StatefulPartitionedCall/jax2tf_apply_/ActorCriticTransformerFlats/ActorCriticTransformerFlats/Transformer_0/tf_layers_0/attention1/pjit__reduce_max_/Reshape/shape/2", "op": "Const", "attr": {"value": {"tensor": {"dtype": "DT_INT32", "tensorShape": {}}}, "dtype": {"type": "DT_INT32"}}, "inputs": []}, {"name": "StatefulPartitionedCall/jax2tf_apply_/ActorCriticTransformerFlats/ActorCriticTransformerFlats/Transformer_0/tf_layers_0/attention1/pjit__reduce_max_/BroadcastTo/shape/0", "op": "Const", "attr": {"value": {"tensor": {"dtype": "DT_INT32", "tensorShape": {}}}, "dtype": {"type": "DT_INT32"}}, "inputs": []}, {"name": "StatefulPartitionedCall/jax2tf_apply_/ActorCriticTransformerFlats/ActorCriticTransformerFlats/Transformer_0/tf_layers_0/attention1/pjit__reduce_max_/Const_3", "op": "Const", "attr": {"value": {"tensor": {"dtype": "DT_INT32", "tensorShape": {}}}, "dtype": {"type": "DT_INT32"}}, "inputs": []}, {"name": "StatefulPartitionedCall/jax2tf_apply_/ActorCriticTransformerFlats/ActorCriticTransformerFlats/Transformer_0/tf_layers_0/attention1/pjit__reduce_max_/BroadcastTo/shape/2", "op": "Const", "attr": {"value": {"tensor": {"dtype": "DT_INT32", "tensorShape": {}}}, "dtype": {"type": "DT_INT32"}}, "inputs": []}, {"name": "StatefulPartitionedCall/jax2tf_apply_/ActorCriticTransformerFlats/ActorCriticTransformerFlats/Transformer_0/tf_layers_0/attention1/pjit__reduce_sum_/Sum/reduction_indices", "op": "Const", "attr": {"value": {"tensor": {"dtype": "DT_INT32", "tensorShape": {"dim": [{"size": "1"}]}}}, "dtype": {"type": "DT_INT32"}}, "inputs": []}, {"name": "StatefulPartitionedCall/jax2tf_apply_/ActorCriticTransformerFlats/ActorCriticTransformerFlats/Transformer_0/tf_layers_0/attention1/pjit__reduce_sum_/Reshape/shape/0", "op": "Const", "attr": {"value": {"tensor": {"dtype": "DT_INT32", "tensorShape": {}}}, "dtype": {"type": "DT_INT32"}}, "inputs": []}, {"name": "StatefulPartitionedCall/jax2tf_apply_/ActorCriticTransformerFlats/ActorCriticTransformerFlats/Transformer_0/tf_layers_0/attention1/pjit__reduce_sum_/Const", "op": "Const", "attr": {"value": {"tensor": {"dtype": "DT_INT32", "tensorShape": {}}}, "dtype": {"type": "DT_INT32"}}, "inputs": []}, {"name": "StatefulPartitionedCall/jax2tf_apply_/ActorCriticTransformerFlats/ActorCriticTransformerFlats/Transformer_0/tf_layers_0/attention1/pjit__reduce_sum_/Reshape/shape/2", "op": "Const", "attr": {"value": {"tensor": {"dtype": "DT_INT32", "tensorShape": {}}}, "dtype": {"type": "DT_INT32"}}, "inputs": []}, {"name": "StatefulPartitionedCall/jax2tf_apply_/ActorCriticTransformerFlats/ActorCriticTransformerFlats/Transformer_0/tf_layers_0/attention1/pjit__reduce_sum_/BroadcastTo/shape/0", "op": "Const", "attr": {"value": {"tensor": {"dtype": "DT_INT32", "tensorShape": {}}}, "dtype": {"type": "DT_INT32"}}, "inputs": []}, {"name": "StatefulPartitionedCall/jax2tf_apply_/ActorCriticTransformerFlats/ActorCriticTransformerFlats/Transformer_0/tf_layers_0/attention1/pjit__reduce_sum_/Const_3", "op": "Const", "attr": {"value": {"tensor": {"dtype": "DT_INT32", "tensorShape": {}}}, "dtype": {"type": "DT_INT32"}}, "inputs": []}, {"name": "StatefulPartitionedCall/jax2tf_apply_/ActorCriticTransformerFlats/ActorCriticTransformerFlats/Transformer_0/tf_layers_0/attention1/pjit__reduce_sum_/BroadcastTo/shape/2", "op": "Const", "attr": {"value": {"tensor": {"dtype": "DT_INT32", "tensorShape": {}}}, "dtype": {"type": "DT_INT32"}}, "inputs": []}, {"name": "StatefulPartitionedCall/jax2tf_apply_/ActorCriticTransformerFlats/ActorCriticTransformerFlats/Transformer_0/tf_layers_0/attention1/...hqk_...khd-_...qhd/pjit__einsum_/transpose/perm", "op": "Const", "attr": {"value": {"tensor": {"dtype": "DT_INT32", "tensorShape": {"dim": [{"size": "3"}]}}}, "dtype": {"type": "DT_INT32"}}, "inputs": []}, {"name": "StatefulPartitionedCall/jax2tf_arg_39/ReadVariableOp", "op": "Const", "attr": {"value": {"tensor": {"dtype": "DT_FLOAT", "tensorShape": {"dim": [{"size": "8"}, {"size": "2"}, {"size": "128"}]}}}, "dtype": {"type": "DT_FLOAT"}}, "inputs": []}, {"name": "StatefulPartitionedCall/jax2tf_apply_/ActorCriticTransformerFlats/ActorCriticTransformerFlats/Transformer_0/tf_layers_0/attention1/out/Reshape", "op": "Const", "attr": {"value": {"tensor": {"dtype": "DT_FLOAT", "tensorShape": {"dim": [{"size": "1"}, {"size": "128"}]}}}, "dtype": {"type": "DT_FLOAT"}}, "inputs": []}, {"name": "StatefulPartitionedCall/jax2tf_apply_/ActorCriticTransformerFlats/ActorCriticTransformerFlats/Transformer_0/tf_layers_0/Const", "op": "Const", "attr": {"value": {"tensor": {"dtype": "DT_FLOAT", "tensorShape": {}}}, "dtype": {"type": "DT_FLOAT"}}, "inputs": []}, {"name": "StatefulPartitionedCall/jax2tf_arg_46/ReadVariableOp", "op": "Const", "attr": {"value": {"tensor": {"dtype": "DT_FLOAT", "tensorShape": {"dim": [{"size": "128"}, {"size": "128"}]}}}, "dtype": {"type": "DT_FLOAT"}}, "inputs": []}, {"name": "StatefulPartitionedCall/jax2tf_arg_47/ReadVariableOp", "op": "Const", "attr": {"value": {"tensor": {"dtype": "DT_FLOAT", "tensorShape": {"dim": [{"size": "128"}, {"size": "128"}]}}}, "dtype": {"type": "DT_FLOAT"}}, "inputs": []}, {"name": "StatefulPartitionedCall/jax2tf_apply_/ActorCriticTransformerFlats/ActorCriticTransformerFlats/BroadcastTo_6", "op": "Const", "attr": {"value": {"tensor": {"dtype": "DT_FLOAT", "tensorShape": {"dim": [{"size": "1"}, {"size": "128"}]}}}, "dtype": {"type": "DT_FLOAT"}}, "inputs": []}, {"name": "StatefulPartitionedCall/jax2tf_arg_3/ReadVariableOp", "op": "Const", "attr": {"value": {"tensor": {"dtype": "DT_FLOAT", "tensorShape": {"dim": [{"size": "27"}, {"size": "127"}]}}}, "dtype": {"type": "DT_FLOAT"}}, "inputs": []}, {"name": "StatefulPartitionedCall/jax2tf_apply_/ActorCriticTransformerFlats/ActorCriticTransformerFlats/Dense_1/Reshape", "op": "Const", "attr": {"value": {"tensor": {"dtype": "DT_FLOAT", "tensorShape": {"dim": [{"size": "1"}, {"size": "127"}]}}}, "dtype": {"type": "DT_FLOAT"}}, "inputs": []}, {"name": "StatefulPartitionedCall/jax2tf_apply_/ActorCriticTransformerFlats/ActorCriticTransformerFlats/Reshape_3", "op": "Const", "attr": {"value": {"tensor": {"dtype": "DT_FLOAT", "tensorShape": {"dim": [{"size": "1"}, {"size": "1"}]}}}, "dtype": {"type": "DT_FLOAT"}}, "inputs": []}, {"name": "StatefulPartitionedCall/jax2tf_apply_/ActorCriticTransformerFlats/ActorCriticTransformerFlats/BroadcastTo_3/shape/1", "op": "Const", "attr": {"value": {"tensor": {"dtype": "DT_INT32", "tensorShape": {}}}, "dtype": {"type": "DT_INT32"}}, "inputs": []}, {"name": "StatefulPartitionedCall/jax2tf_apply_/ActorCriticTransformerFlats/ActorCriticTransformerFlats/transpose_4/perm", "op": "Const", "attr": {"value": {"tensor": {"dtype": "DT_INT32", "tensorShape": {"dim": [{"size": "2"}]}}}, "dtype": {"type": "DT_INT32"}}, "inputs": []}, {"name": "StatefulPartitionedCall/jax2tf_apply_/ActorCriticTransformerFlats/ActorCriticTransformerFlats/strided_slice_2", "op": "Const", "attr": {"value": {"tensor": {"dtype": "DT_INT32", "tensorShape": {"dim": [{"size": "1"}, {"size": "1"}]}}}, "dtype": {"type": "DT_INT32"}}, "inputs": []}, {"name": "StatefulPartitionedCall/jax2tf_apply_/ActorCriticTransformerFlats/ActorCriticTransformerFlats/Reshape_5", "op": "Const", "attr": {"value": {"tensor": {"dtype": "DT_FLOAT", "tensorShape": {"dim": [{"size": "1"}]}}}, "dtype": {"type": "DT_FLOAT"}}, "inputs": []}, {"name": "StatefulPartitionedCall/jax2tf_apply_/ActorCriticTransformerFlats/ActorCriticTransformerFlats/strided_slice_3/stack", "op": "Const", "attr": {"value": {"tensor": {"dtype": "DT_INT32", "tensorShape": {"dim": [{"size": "1"}]}}}, "dtype": {"type": "DT_INT32"}}, "inputs": []}, {"name": "StatefulPartitionedCall/jax2tf_apply_/ActorCriticTransformerFlats/ActorCriticTransformerFlats/strided_slice_3/stack_1", "op": "Const", "attr": {"value": {"tensor": {"dtype": "DT_INT32", "tensorShape": {"dim": [{"size": "1"}]}}}, "dtype": {"type": "DT_INT32"}}, "inputs": []}, {"name": "StatefulPartitionedCall/jax2tf_apply_/ActorCriticTransformerFlats/ActorCriticTransformerFlats/strided_slice_3/stack_2", "op": "Const", "attr": {"value": {"tensor": {"dtype": "DT_INT32", "tensorShape": {"dim": [{"size": "1"}]}}}, "dtype": {"type": "DT_INT32"}}, "inputs": []}, {"name": "StatefulPartitionedCall/jax2tf_apply_/ActorCriticTransformerFlats/ActorCriticTransformerFlats/transpose_5/perm", "op": "Const", "attr": {"value": {"tensor": {"dtype": "DT_INT32", "tensorShape": {"dim": [{"size": "2"}]}}}, "dtype": {"type": "DT_INT32"}}, "inputs": []}, {"name": "StatefulPartitionedCall/jax2tf_apply_/ActorCriticTransformerFlats/ActorCriticTransformerFlats/Cast_3/x", "op": "Const", "attr": {"value": {"tensor": {"dtype": "DT_INT32", "tensorShape": {}}}, "dtype": {"type": "DT_INT32"}}, "inputs": []}, {"name": "StatefulPartitionedCall/jax2tf_arg_1/ReadVariableOp", "op": "Const", "attr": {"value": {"tensor": {"dtype": "DT_FLOAT", "tensorShape": {"dim": [{"size": "19"}, {"size": "127"}]}}}, "dtype": {"type": "DT_FLOAT"}}, "inputs": []}, {"name": "StatefulPartitionedCall/jax2tf_apply_/ActorCriticTransformerFlats/ActorCriticTransformerFlats/Dense_0/Reshape", "op": "Const", "attr": {"value": {"tensor": {"dtype": "DT_FLOAT", "tensorShape": {"dim": [{"size": "1"}, {"size": "127"}]}}}, "dtype": {"type": "DT_FLOAT"}}, "inputs": []}, {"name": "StatefulPartitionedCall/jax2tf_apply_/ActorCriticTransformerFlats/ActorCriticTransformerFlats/Reshape", "op": "Const", "attr": {"value": {"tensor": {"dtype": "DT_FLOAT", "tensorShape": {"dim": [{"size": "1"}, {"size": "1"}]}}}, "dtype": {"type": "DT_FLOAT"}}, "inputs": []}, {"name": "StatefulPartitionedCall/jax2tf_apply_/ActorCriticTransformerFlats/ActorCriticTransformerFlats/BroadcastTo/shape/1", "op": "Const", "attr": {"value": {"tensor": {"dtype": "DT_INT32", "tensorShape": {}}}, "dtype": {"type": "DT_INT32"}}, "inputs": []}, {"name": "StatefulPartitionedCall/jax2tf_apply_/ActorCriticTransformerFlats/ActorCriticTransformerFlats/transpose_1/perm", "op": "Const", "attr": {"value": {"tensor": {"dtype": "DT_INT32", "tensorShape": {"dim": [{"size": "2"}]}}}, "dtype": {"type": "DT_INT32"}}, "inputs": []}, {"name": "StatefulPartitionedCall/jax2tf_apply_/ActorCriticTransformerFlats/ActorCriticTransformerFlats/strided_slice", "op": "Const", "attr": {"value": {"tensor": {"dtype": "DT_INT32", "tensorShape": {"dim": [{"size": "1"}, {"size": "1"}]}}}, "dtype": {"type": "DT_INT32"}}, "inputs": []}, {"name": "StatefulPartitionedCall/jax2tf_apply_/ActorCriticTransformerFlats/ActorCriticTransformerFlats/Reshape_2", "op": "Const", "attr": {"value": {"tensor": {"dtype": "DT_FLOAT", "tensorShape": {"dim": [{"size": "1"}]}}}, "dtype": {"type": "DT_FLOAT"}}, "inputs": []}, {"name": "StatefulPartitionedCall/jax2tf_apply_/ActorCriticTransformerFlats/ActorCriticTransformerFlats/strided_slice_1/stack", "op": "Const", "attr": {"value": {"tensor": {"dtype": "DT_INT32", "tensorShape": {"dim": [{"size": "1"}]}}}, "dtype": {"type": "DT_INT32"}}, "inputs": []}, {"name": "StatefulPartitionedCall/jax2tf_apply_/ActorCriticTransformerFlats/ActorCriticTransformerFlats/strided_slice_1/stack_1", "op": "Const", "attr": {"value": {"tensor": {"dtype": "DT_INT32", "tensorShape": {"dim": [{"size": "1"}]}}}, "dtype": {"type": "DT_INT32"}}, "inputs": []}, {"name": "StatefulPartitionedCall/jax2tf_apply_/ActorCriticTransformerFlats/ActorCriticTransformerFlats/strided_slice_1/stack_2", "op": "Const", "attr": {"value": {"tensor": {"dtype": "DT_INT32", "tensorShape": {"dim": [{"size": "1"}]}}}, "dtype": {"type": "DT_INT32"}}, "inputs": []}, {"name": "StatefulPartitionedCall/jax2tf_apply_/ActorCriticTransformerFlats/ActorCriticTransformerFlats/transpose_2/perm", "op": "Const", "attr": {"value": {"tensor": {"dtype": "DT_INT32", "tensorShape": {"dim": [{"size": "2"}]}}}, "dtype": {"type": "DT_INT32"}}, "inputs": []}, {"name": "StatefulPartitionedCall/jax2tf_apply_/ActorCriticTransformerFlats/ActorCriticTransformerFlats/Cast_1/x", "op": "Const", "attr": {"value": {"tensor": {"dtype": "DT_INT32", "tensorShape": {}}}, "dtype": {"type": "DT_INT32"}}, "inputs": []}, {"name": "StatefulPartitionedCall/jax2tf_apply_/ActorCriticTransformerFlats/ActorCriticTransformerFlats/Cast_6/x", "op": "Const", "attr": {"value": {"tensor": {"dtype": "DT_INT32", "tensorShape": {}}}, "dtype": {"type": "DT_INT32"}}, "inputs": []}, {"name": "StatefulPartitionedCall/jax2tf_arg_51/ReadVariableOp", "op": "Const", "attr": {"value": {"tensor": {"dtype": "DT_FLOAT", "tensorShape": {"dim": [{"size": "128"}, {"size": "128"}]}}}, "dtype": {"type": "DT_FLOAT"}}, "inputs": []}, {"name": "StatefulPartitionedCall/jax2tf_arg_58/ReadVariableOp", "op": "Const", "attr": {"value": {"tensor": {"dtype": "DT_FLOAT", "tensorShape": {"dim": [{"size": "128"}, {"size": "128"}]}}}, "dtype": {"type": "DT_FLOAT"}}, "inputs": []}, {"name": "StatefulPartitionedCall/Const_28", "op": "Const", "attr": {"value": {"tensor": {"dtype": "DT_INT32", "tensorShape": {}}}, "dtype": {"type": "DT_INT32"}}, "inputs": []}, {"name": "StatefulPartitionedCall/jax2tf_apply_/ActorCriticTransformerFlats/ActorCriticTransformerFlats/Transformer_0/Const_20", "op": "Const", "attr": {"value": {"tensor": {"dtype": "DT_INT32", "tensorShape": {}}}, "dtype": {"type": "DT_INT32"}}, "inputs": []}, {"name": "StatefulPartitionedCall/jax2tf_apply_/ActorCriticTransformerFlats/ActorCriticTransformerFlats/Transformer_0/Reshape_9/shape/1", "op": "Const", "attr": {"value": {"tensor": {"dtype": "DT_INT32", "tensorShape": {}}}, "dtype": {"type": "DT_INT32"}}, "inputs": []}, {"name": "StatefulPartitionedCall/jax2tf_apply_/ActorCriticTransformerFlats/ActorCriticTransformerFlats/Transformer_0/BroadcastTo_9/shape/1", "op": "Const", "attr": {"value": {"tensor": {"dtype": "DT_INT32", "tensorShape": {}}}, "dtype": {"type": "DT_INT32"}}, "inputs": []}, {"name": "StatefulPartitionedCall/jax2tf_apply_/ActorCriticTransformerFlats/ActorCriticTransformerFlats/Transformer_0/Const_23", "op": "Const", "attr": {"value": {"tensor": {"dtype": "DT_INT32", "tensorShape": {}}}, "dtype": {"type": "DT_INT32"}}, "inputs": []}, {"name": "StatefulPartitionedCall/jax2tf_apply_/ActorCriticTransformerFlats/ActorCriticTransformerFlats/Transformer_0/Sub_4/y", "op": "Const", "attr": {"value": {"tensor": {"dtype": "DT_INT32", "tensorShape": {"dim": [{"size": "1"}]}}}, "dtype": {"type": "DT_INT32"}}, "inputs": []}, {"name": "StatefulPartitionedCall/jax2tf_apply_/ActorCriticTransformerFlats/ActorCriticTransformerFlats/Transformer_0/clip_by_value_4/y", "op": "Const", "attr": {"value": {"tensor": {"dtype": "DT_INT32", "tensorShape": {}}}, "dtype": {"type": "DT_INT32"}}, "inputs": []}, {"name": "StatefulPartitionedCall/jax2tf_apply_/ActorCriticTransformerFlats/ActorCriticTransformerFlats/Transformer_0/GatherV2_2/axis", "op": "Const", "attr": {"value": {"tensor": {"dtype": "DT_INT32", "tensorShape": {}}}, "dtype": {"type": "DT_INT32"}}, "inputs": []}, {"name": "StatefulPartitionedCall/jax2tf_apply_/ActorCriticTransformerFlats/ActorCriticTransformerFlats/Transformer_0/BroadcastTo_10/shape/1", "op": "Const", "attr": {"value": {"tensor": {"dtype": "DT_INT32", "tensorShape": {}}}, "dtype": {"type": "DT_INT32"}}, "inputs": []}, {"name": "StatefulPartitionedCall/jax2tf_apply_/ActorCriticTransformerFlats/ActorCriticTransformerFlats/Transformer_0/Cast_1/x", "op": "Const", "attr": {"value": {"tensor": {"dtype": "DT_INT32", "tensorShape": {}}}, "dtype": {"type": "DT_INT32"}}, "inputs": []}, {"name": "StatefulPartitionedCall/jax2tf_arg_93/ReadVariableOp", "op": "Const", "attr": {"value": {"tensor": {"dtype": "DT_FLOAT", "tensorShape": {"dim": [{"size": "256"}, {"size": "128"}]}}}, "dtype": {"type": "DT_FLOAT"}}, "inputs": []}, {"name": "StatefulPartitionedCall/jax2tf_apply_/ActorCriticTransformerFlats/ActorCriticTransformerFlats/Transformer_0/thruster_layers_0/Reshape", "op": "Const", "attr": {"value": {"tensor": {"dtype": "DT_FLOAT", "tensorShape": {"dim": [{"size": "1"}, {"size": "128"}]}}}, "dtype": {"type": "DT_FLOAT"}}, "inputs": []}, {"name": "StatefulPartitionedCall/jax2tf_apply_/ActorCriticTransformerFlats/ActorCriticTransformerFlats/Transformer_0/Reshape_11/shape/1", "op": "Const", "attr": {"value": {"tensor": {"dtype": "DT_INT32", "tensorShape": {}}}, "dtype": {"type": "DT_INT32"}}, "inputs": []}, {"name": "StatefulPartitionedCall/jax2tf_apply_/ActorCriticTransformerFlats/ActorCriticTransformerFlats/Transformer_0/BroadcastTo_11/shape/1", "op": "Const", "attr": {"value": {"tensor": {"dtype": "DT_INT32", "tensorShape": {}}}, "dtype": {"type": "DT_INT32"}}, "inputs": []}, {"name": "StatefulPartitionedCall/jax2tf_apply_/ActorCriticTransformerFlats/ActorCriticTransformerFlats/Transformer_0/Const_32", "op": "Const", "attr": {"value": {"tensor": {"dtype": "DT_INT32", "tensorShape": {}}}, "dtype": {"type": "DT_INT32"}}, "inputs": []}, {"name": "StatefulPartitionedCall/jax2tf_apply_/ActorCriticTransformerFlats/ActorCriticTransformerFlats/Transformer_0/scan/while_1/loop_counter", "op": "Const", "attr": {"value": {"tensor": {"dtype": "DT_INT32", "tensorShape": {}}}, "dtype": {"type": "DT_INT32"}}, "inputs": []}, {"name": "StatefulPartitionedCall/jax2tf_arg_79/ReadVariableOp", "op": "Const", "attr": {"value": {"tensor": {"dtype": "DT_FLOAT", "tensorShape": {"dim": [{"size": "128"}, {"size": "128"}]}}}, "dtype": {"type": "DT_FLOAT"}}, "inputs": []}, {"name": "StatefulPartitionedCall/jax2tf_arg_86/ReadVariableOp", "op": "Const", "attr": {"value": {"tensor": {"dtype": "DT_FLOAT", "tensorShape": {"dim": [{"size": "128"}, {"size": "128"}]}}}, "dtype": {"type": "DT_FLOAT"}}, "inputs": []}, {"name": "StatefulPartitionedCall/Const_42", "op": "Const", "attr": {"value": {"tensor": {"dtype": "DT_INT32", "tensorShape": {}}}, "dtype": {"type": "DT_INT32"}}, "inputs": []}, {"name": "StatefulPartitionedCall/jax2tf_apply_/ActorCriticTransformerFlats/ActorCriticTransformerFlats/Transformer_0/Const_53", "op": "Const", "attr": {"value": {"tensor": {"dtype": "DT_INT32", "tensorShape": {}}}, "dtype": {"type": "DT_INT32"}}, "inputs": []}, {"name": "StatefulPartitionedCall/Const_15", "op": "Const", "attr": {"value": {"tensor": {"dtype": "DT_INT32", "tensorShape": {}}}, "dtype": {"type": "DT_INT32"}}, "inputs": []}, {"name": "StatefulPartitionedCall/jax2tf_apply_/ActorCriticTransformerFlats/ActorCriticTransformerFlats/Transformer_0/Reshape_23/shape/1", "op": "Const", "attr": {"value": {"tensor": {"dtype": "DT_INT32", "tensorShape": {}}}, "dtype": {"type": "DT_INT32"}}, "inputs": []}, {"name": "StatefulPartitionedCall/jax2tf_apply_/ActorCriticTransformerFlats/ActorCriticTransformerFlats/Transformer_0/BroadcastTo_23/shape/1", "op": "Const", "attr": {"value": {"tensor": {"dtype": "DT_INT32", "tensorShape": {}}}, "dtype": {"type": "DT_INT32"}}, "inputs": []}, {"name": "StatefulPartitionedCall/jax2tf_apply_/ActorCriticTransformerFlats/ActorCriticTransformerFlats/Transformer_0/Const_56", "op": "Const", "attr": {"value": {"tensor": {"dtype": "DT_INT32", "tensorShape": {}}}, "dtype": {"type": "DT_INT32"}}, "inputs": []}, {"name": "StatefulPartitionedCall/jax2tf_apply_/ActorCriticTransformerFlats/ActorCriticTransformerFlats/Transformer_0/Sub_10/y", "op": "Const", "attr": {"value": {"tensor": {"dtype": "DT_INT32", "tensorShape": {"dim": [{"size": "1"}]}}}, "dtype": {"type": "DT_INT32"}}, "inputs": []}, {"name": "StatefulPartitionedCall/jax2tf_apply_/ActorCriticTransformerFlats/ActorCriticTransformerFlats/Transformer_0/clip_by_value_10/y", "op": "Const", "attr": {"value": {"tensor": {"dtype": "DT_INT32", "tensorShape": {}}}, "dtype": {"type": "DT_INT32"}}, "inputs": []}, {"name": "StatefulPartitionedCall/jax2tf_apply_/ActorCriticTransformerFlats/ActorCriticTransformerFlats/Transformer_0/GatherV2_5/axis", "op": "Const", "attr": {"value": {"tensor": {"dtype": "DT_INT32", "tensorShape": {}}}, "dtype": {"type": "DT_INT32"}}, "inputs": []}, {"name": "StatefulPartitionedCall/jax2tf_apply_/ActorCriticTransformerFlats/ActorCriticTransformerFlats/Transformer_0/BroadcastTo_24/shape/1", "op": "Const", "attr": {"value": {"tensor": {"dtype": "DT_INT32", "tensorShape": {}}}, "dtype": {"type": "DT_INT32"}}, "inputs": []}, {"name": "StatefulPartitionedCall/jax2tf_arg_7/ReadVariableOp", "op": "Const", "attr": {"value": {"tensor": {"dtype": "DT_FLOAT", "tensorShape": {"dim": [{"size": "8"}, {"size": "128"}]}}}, "dtype": {"type": "DT_FLOAT"}}, "inputs": []}, {"name": "StatefulPartitionedCall/jax2tf_apply_/ActorCriticTransformerFlats/ActorCriticTransformerFlats/Dense_3/Reshape", "op": "Const", "attr": {"value": {"tensor": {"dtype": "DT_FLOAT", "tensorShape": {"dim": [{"size": "1"}, {"size": "128"}]}}}, "dtype": {"type": "DT_FLOAT"}}, "inputs": []}, {"name": "StatefulPartitionedCall/jax2tf_apply_/ActorCriticTransformerFlats/ActorCriticTransformerFlats/Transformer_0/Cast_3/x", "op": "Const", "attr": {"value": {"tensor": {"dtype": "DT_INT32", "tensorShape": {}}}, "dtype": {"type": "DT_INT32"}}, "inputs": []}, {"name": "StatefulPartitionedCall/jax2tf_arg_95/ReadVariableOp", "op": "Const", "attr": {"value": {"tensor": {"dtype": "DT_FLOAT", "tensorShape": {"dim": [{"size": "256"}, {"size": "128"}]}}}, "dtype": {"type": "DT_FLOAT"}}, "inputs": []}, {"name": "StatefulPartitionedCall/jax2tf_apply_/ActorCriticTransformerFlats/ActorCriticTransformerFlats/Transformer_0/thruster_layers_1/Reshape", "op": "Const", "attr": {"value": {"tensor": {"dtype": "DT_FLOAT", "tensorShape": {"dim": [{"size": "1"}, {"size": "128"}]}}}, "dtype": {"type": "DT_FLOAT"}}, "inputs": []}, {"name": "StatefulPartitionedCall/jax2tf_apply_/ActorCriticTransformerFlats/ActorCriticTransformerFlats/Transformer_0/Reshape_25/shape/1", "op": "Const", "attr": {"value": {"tensor": {"dtype": "DT_INT32", "tensorShape": {}}}, "dtype": {"type": "DT_INT32"}}, "inputs": []}, {"name": "StatefulPartitionedCall/jax2tf_apply_/ActorCriticTransformerFlats/ActorCriticTransformerFlats/Transformer_0/BroadcastTo_25/shape/1", "op": "Const", "attr": {"value": {"tensor": {"dtype": "DT_INT32", "tensorShape": {}}}, "dtype": {"type": "DT_INT32"}}, "inputs": []}, {"name": "StatefulPartitionedCall/jax2tf_apply_/ActorCriticTransformerFlats/ActorCriticTransformerFlats/Transformer_0/Const_65", "op": "Const", "attr": {"value": {"tensor": {"dtype": "DT_INT32", "tensorShape": {}}}, "dtype": {"type": "DT_INT32"}}, "inputs": []}, {"name": "StatefulPartitionedCall/jax2tf_apply_/ActorCriticTransformerFlats/ActorCriticTransformerFlats/Transformer_0/scan/while_3/loop_counter", "op": "Const", "attr": {"value": {"tensor": {"dtype": "DT_INT32", "tensorShape": {}}}, "dtype": {"type": "DT_INT32"}}, "inputs": []}, {"name": "StatefulPartitionedCall/jax2tf_apply_/ActorCriticTransformerFlats/ActorCriticTransformerFlats/pjit__mean_/pjit__where_/Reshape_2", "op": "Const", "attr": {"value": {"tensor": {"dtype": "DT_FLOAT", "tensorShape": {"dim": [{"size": "1"}, {"size": "1"}]}}}, "dtype": {"type": "DT_FLOAT"}}, "inputs": []}, {"name": "StatefulPartitionedCall/jax2tf_apply_/ActorCriticTransformerFlats/ActorCriticTransformerFlats/pjit__mean_/pjit__where_/Const_5", "op": "Const", "attr": {"value": {"tensor": {"dtype": "DT_INT32", "tensorShape": {}}}, "dtype": {"type": "DT_INT32"}}, "inputs": []}, {"name": "StatefulPartitionedCall/jax2tf_apply_/ActorCriticTransformerFlats/ActorCriticTransformerFlats/pjit__mean_/pjit__where_/BroadcastTo_1/shape/1", "op": "Const", "attr": {"value": {"tensor": {"dtype": "DT_INT32", "tensorShape": {}}}, "dtype": {"type": "DT_INT32"}}, "inputs": []}, {"name": "StatefulPartitionedCall/jax2tf_apply_/ActorCriticTransformerFlats/ActorCriticTransformerFlats/pjit__mean_/Sum_1/reduction_indices", "op": "Const", "attr": {"value": {"tensor": {"dtype": "DT_INT32", "tensorShape": {"dim": [{"size": "1"}]}}}, "dtype": {"type": "DT_INT32"}}, "inputs": []}, {"name": "StatefulPartitionedCall/jax2tf_apply_/ActorCriticTransformerFlats/ActorCriticTransformerFlats/BroadcastTo_7", "op": "Const", "attr": {"value": {"tensor": {"dtype": "DT_BOOL", "tensorShape": {"dim": [{"size": "1"}]}}}, "dtype": {"type": "DT_BOOL"}}, "inputs": []}, {"name": "StatefulPartitionedCall/jax2tf_apply_/ActorCriticTransformerFlats/ActorCriticTransformerFlats/Cast_7/x", "op": "Const", "attr": {"value": {"tensor": {"dtype": "DT_INT32", "tensorShape": {}}}, "dtype": {"type": "DT_INT32"}}, "inputs": []}, {"name": "StatefulPartitionedCall/jax2tf_apply_/ActorCriticTransformerFlats/ActorCriticTransformerFlats/Const_61", "op": "Const", "attr": {"value": {"tensor": {"dtype": "DT_INT32", "tensorShape": {}}}, "dtype": {"type": "DT_INT32"}}, "inputs": []}, {"name": "StatefulPartitionedCall/jax2tf_apply_/ActorCriticTransformerFlats/ActorCriticTransformerFlats/Reshape_18/shape/1", "op": "Const", "attr": {"value": {"tensor": {"dtype": "DT_INT32", "tensorShape": {}}}, "dtype": {"type": "DT_INT32"}}, "inputs": []}, {"name": "StatefulPartitionedCall/jax2tf_apply_/ActorCriticTransformerFlats/ActorCriticTransformerFlats/Const_63", "op": "Const", "attr": {"value": {"tensor": {"dtype": "DT_INT32", "tensorShape": {}}}, "dtype": {"type": "DT_INT32"}}, "inputs": []}, {"name": "StatefulPartitionedCall/jax2tf_apply_/ActorCriticTransformerFlats/ActorCriticTransformerFlats/BroadcastTo_14/shape/1", "op": "Const", "attr": {"value": {"tensor": {"dtype": "DT_INT32", "tensorShape": {}}}, "dtype": {"type": "DT_INT32"}}, "inputs": []}, {"name": "StatefulPartitionedCall/jax2tf_apply_/ActorCriticTransformerFlats/ActorCriticTransformerFlats/pjit__mean_/Const_3", "op": "Const", "attr": {"value": {"tensor": {"dtype": "DT_INT32", "tensorShape": {}}}, "dtype": {"type": "DT_INT32"}}, "inputs": []}, {"name": "StatefulPartitionedCall/jax2tf_apply_/ActorCriticTransformerFlats/ActorCriticTransformerFlats/pjit__mean_/BroadcastTo/shape/1", "op": "Const", "attr": {"value": {"tensor": {"dtype": "DT_INT32", "tensorShape": {}}}, "dtype": {"type": "DT_INT32"}}, "inputs": []}, {"name": "StatefulPartitionedCall/jax2tf_apply_/ActorCriticTransformerFlats/ActorCriticTransformerFlats/pjit__mean_/Sum/reduction_indices", "op": "Const", "attr": {"value": {"tensor": {"dtype": "DT_INT32", "tensorShape": {"dim": [{"size": "1"}]}}}, "dtype": {"type": "DT_INT32"}}, "inputs": []}, {"name": "StatefulPartitionedCall/jax2tf_apply_/ActorCriticTransformerFlats/ActorCriticTransformerFlats/GeneralActorCriticRNN_0/Dense_1/ExpandDims/dim", "op": "Const", "attr": {"value": {"tensor": {"dtype": "DT_INT32", "tensorShape": {}}}, "dtype": {"type": "DT_INT32"}}, "inputs": []}, {"name": "StatefulPartitionedCall/jax2tf_arg_11/ReadVariableOp", "op": "Const", "attr": {"value": {"tensor": {"dtype": "DT_FLOAT", "tensorShape": {"dim": [{"size": "128"}, {"size": "128"}]}}}, "dtype": {"type": "DT_FLOAT"}}, "inputs": []}, {"name": "StatefulPartitionedCall/jax2tf_arg_10/ReadVariableOp", "op": "Const", "attr": {"value": {"tensor": {"dtype": "DT_FLOAT", "tensorShape": {"dim": [{"size": "128"}]}}}, "dtype": {"type": "DT_FLOAT"}}, "inputs": []}, {"name": "StatefulPartitionedCall/jax2tf_apply_/ActorCriticTransformerFlats/ActorCriticTransformerFlats/GeneralActorCriticRNN_0/Dense_3/ExpandDims/dim", "op": "Const", "attr": {"value": {"tensor": {"dtype": "DT_INT32", "tensorShape": {}}}, "dtype": {"type": "DT_INT32"}}, "inputs": []}, {"name": "StatefulPartitionedCall/jax2tf_arg_19/ReadVariableOp", "op": "Const", "attr": {"value": {"tensor": {"dtype": "DT_FLOAT", "tensorShape": {"dim": [{"size": "128"}, {"size": "128"}]}}}, "dtype": {"type": "DT_FLOAT"}}, "inputs": []}, {"name": "StatefulPartitionedCall/jax2tf_arg_18/ReadVariableOp", "op": "Const", "attr": {"value": {"tensor": {"dtype": "DT_FLOAT", "tensorShape": {"dim": [{"size": "128"}]}}}, "dtype": {"type": "DT_FLOAT"}}, "inputs": []}, {"name": "StatefulPartitionedCall/jax2tf_apply_/ActorCriticTransformerFlats/ActorCriticTransformerFlats/GeneralActorCriticRNN_0/Dense_5/ExpandDims/dim", "op": "Const", "attr": {"value": {"tensor": {"dtype": "DT_INT32", "tensorShape": {}}}, "dtype": {"type": "DT_INT32"}}, "inputs": []}, {"name": "StatefulPartitionedCall/jax2tf_arg_23/ReadVariableOp", "op": "Const", "attr": {"value": {"tensor": {"dtype": "DT_FLOAT", "tensorShape": {"dim": [{"size": "128"}, {"size": "128"}]}}}, "dtype": {"type": "DT_FLOAT"}}, "inputs": []}, {"name": "StatefulPartitionedCall/jax2tf_arg_22/ReadVariableOp", "op": "Const", "attr": {"value": {"tensor": {"dtype": "DT_FLOAT", "tensorShape": {"dim": [{"size": "128"}]}}}, "dtype": {"type": "DT_FLOAT"}}, "inputs": []}, {"name": "StatefulPartitionedCall/jax2tf_apply_/ActorCriticTransformerFlats/ActorCriticTransformerFlats/GeneralActorCriticRNN_0/Dense_7/ExpandDims/dim", "op": "Const", "attr": {"value": {"tensor": {"dtype": "DT_INT32", "tensorShape": {}}}, "dtype": {"type": "DT_INT32"}}, "inputs": []}, {"name": "StatefulPartitionedCall/jax2tf_arg_27/ReadVariableOp", "op": "Const", "attr": {"value": {"tensor": {"dtype": "DT_FLOAT", "tensorShape": {"dim": [{"size": "128"}, {"size": "128"}]}}}, "dtype": {"type": "DT_FLOAT"}}, "inputs": []}, {"name": "StatefulPartitionedCall/jax2tf_arg_26/ReadVariableOp", "op": "Const", "attr": {"value": {"tensor": {"dtype": "DT_FLOAT", "tensorShape": {"dim": [{"size": "128"}]}}}, "dtype": {"type": "DT_FLOAT"}}, "inputs": []}, {"name": "StatefulPartitionedCall/jax2tf_apply_/ActorCriticTransformerFlats/ActorCriticTransformerFlats/GeneralActorCriticRNN_0/Dense_9/ExpandDims/dim", "op": "Const", "attr": {"value": {"tensor": {"dtype": "DT_INT32", "tensorShape": {}}}, "dtype": {"type": "DT_INT32"}}, "inputs": []}, {"name": "StatefulPartitionedCall/jax2tf_arg_31/ReadVariableOp", "op": "Const", "attr": {"value": {"tensor": {"dtype": "DT_FLOAT", "tensorShape": {"dim": [{"size": "128"}, {"size": "128"}]}}}, "dtype": {"type": "DT_FLOAT"}}, "inputs": []}, {"name": "StatefulPartitionedCall/jax2tf_arg_30/ReadVariableOp", "op": "Const", "attr": {"value": {"tensor": {"dtype": "DT_FLOAT", "tensorShape": {"dim": [{"size": "128"}]}}}, "dtype": {"type": "DT_FLOAT"}}, "inputs": []}, {"name": "StatefulPartitionedCall/jax2tf_apply_/ActorCriticTransformerFlats/ActorCriticTransformerFlats/GeneralActorCriticRNN_0/Dense_11/ExpandDims/dim", "op": "Const", "attr": {"value": {"tensor": {"dtype": "DT_INT32", "tensorShape": {}}}, "dtype": {"type": "DT_INT32"}}, "inputs": []}, {"name": "StatefulPartitionedCall/jax2tf_arg_15/ReadVariableOp", "op": "Const", "attr": {"value": {"tensor": {"dtype": "DT_FLOAT", "tensorShape": {"dim": [{"size": "128"}, {"size": "1"}]}}}, "dtype": {"type": "DT_FLOAT"}}, "inputs": []}, {"name": "StatefulPartitionedCall/jax2tf_arg_14/ReadVariableOp", "op": "Const", "attr": {"value": {"tensor": {"dtype": "DT_FLOAT", "tensorShape": {"dim": [{"size": "1"}]}}}, "dtype": {"type": "DT_FLOAT"}}, "inputs": []}, {"name": "StatefulPartitionedCall/jax2tf_apply_/ActorCriticTransformerFlats/ActorCriticTransformerFlats/GeneralActorCriticRNN_0/pjit__squeeze_/Reshape/shape_1", "op": "Const", "attr": {"value": {"tensor": {"dtype": "DT_INT32", "tensorShape": {"dim": [{}]}}}, "dtype": {"type": "DT_INT32"}}, "inputs": []}, {"name": "StatefulPartitionedCall/jax2tf_apply_/strided_slice_11/stack", "op": "Const", "attr": {"value": {"tensor": {"dtype": "DT_INT32", "tensorShape": {"dim": [{"size": "1"}]}}}, "dtype": {"type": "DT_INT32"}}, "inputs": []}, {"name": "StatefulPartitionedCall/jax2tf_apply_/strided_slice_11/stack_1", "op": "Const", "attr": {"value": {"tensor": {"dtype": "DT_INT32", "tensorShape": {"dim": [{"size": "1"}]}}}, "dtype": {"type": "DT_INT32"}}, "inputs": []}, {"name": "StatefulPartitionedCall/jax2tf_apply_/strided_slice_11/stack_2", "op": "Const", "attr": {"value": {"tensor": {"dtype": "DT_INT32", "tensorShape": {"dim": [{"size": "1"}]}}}, "dtype": {"type": "DT_INT32"}}, "inputs": []}, {"name": "StatefulPartitionedCall/jax2tf_apply_/assert_equal_23/y", "op": "Const", "attr": {"value": {"tensor": {"dtype": "DT_BOOL", "tensorShape": {}}}, "dtype": {"type": "DT_BOOL"}}, "inputs": []}, {"name": "StatefulPartitionedCall/jax2tf_apply_/strided_slice_10/stack", "op": "Const", "attr": {"value": {"tensor": {"dtype": "DT_INT32", "tensorShape": {"dim": [{"size": "1"}]}}}, "dtype": {"type": "DT_INT32"}}, "inputs": []}, {"name": "StatefulPartitionedCall/jax2tf_apply_/strided_slice_10/stack_1", "op": "Const", "attr": {"value": {"tensor": {"dtype": "DT_INT32", "tensorShape": {"dim": [{"size": "1"}]}}}, "dtype": {"type": "DT_INT32"}}, "inputs": []}, {"name": "StatefulPartitionedCall/jax2tf_apply_/strided_slice_10/stack_2", "op": "Const", "attr": {"value": {"tensor": {"dtype": "DT_INT32", "tensorShape": {"dim": [{"size": "1"}]}}}, "dtype": {"type": "DT_INT32"}}, "inputs": []}, {"name": "StatefulPartitionedCall/jax2tf_apply_/assert_equal_21/y", "op": "Const", "attr": {"value": {"tensor": {"dtype": "DT_BOOL", "tensorShape": {}}}, "dtype": {"type": "DT_BOOL"}}, "inputs": []}, {"name": "StatefulPartitionedCall/jax2tf_apply_/strided_slice_9/stack", "op": "Const", "attr": {"value": {"tensor": {"dtype": "DT_INT32", "tensorShape": {"dim": [{"size": "1"}]}}}, "dtype": {"type": "DT_INT32"}}, "inputs": []}, {"name": "StatefulPartitionedCall/jax2tf_apply_/strided_slice_9/stack_1", "op": "Const", "attr": {"value": {"tensor": {"dtype": "DT_INT32", "tensorShape": {"dim": [{"size": "1"}]}}}, "dtype": {"type": "DT_INT32"}}, "inputs": []}, {"name": "StatefulPartitionedCall/jax2tf_apply_/strided_slice_9/stack_2", "op": "Const", "attr": {"value": {"tensor": {"dtype": "DT_INT32", "tensorShape": {"dim": [{"size": "1"}]}}}, "dtype": {"type": "DT_INT32"}}, "inputs": []}, {"name": "StatefulPartitionedCall/jax2tf_apply_/assert_equal_19/y", "op": "Const", "attr": {"value": {"tensor": {"dtype": "DT_BOOL", "tensorShape": {}}}, "dtype": {"type": "DT_BOOL"}}, "inputs": []}, {"name": "StatefulPartitionedCall/jax2tf_apply_/strided_slice_8/stack", "op": "Const", "attr": {"value": {"tensor": {"dtype": "DT_INT32", "tensorShape": {"dim": [{"size": "1"}]}}}, "dtype": {"type": "DT_INT32"}}, "inputs": []}, {"name": "StatefulPartitionedCall/jax2tf_apply_/strided_slice_8/stack_1", "op": "Const", "attr": {"value": {"tensor": {"dtype": "DT_INT32", "tensorShape": {"dim": [{"size": "1"}]}}}, "dtype": {"type": "DT_INT32"}}, "inputs": []}, {"name": "StatefulPartitionedCall/jax2tf_apply_/strided_slice_8/stack_2", "op": "Const", "attr": {"value": {"tensor": {"dtype": "DT_INT32", "tensorShape": {"dim": [{"size": "1"}]}}}, "dtype": {"type": "DT_INT32"}}, "inputs": []}, {"name": "StatefulPartitionedCall/jax2tf_apply_/assert_equal_17/y", "op": "Const", "attr": {"value": {"tensor": {"dtype": "DT_BOOL", "tensorShape": {}}}, "dtype": {"type": "DT_BOOL"}}, "inputs": []}, {"name": "StatefulPartitionedCall/jax2tf_apply_/strided_slice_7/stack", "op": "Const", "attr": {"value": {"tensor": {"dtype": "DT_INT32", "tensorShape": {"dim": [{"size": "1"}]}}}, "dtype": {"type": "DT_INT32"}}, "inputs": []}, {"name": "StatefulPartitionedCall/jax2tf_apply_/strided_slice_7/stack_1", "op": "Const", "attr": {"value": {"tensor": {"dtype": "DT_INT32", "tensorShape": {"dim": [{"size": "1"}]}}}, "dtype": {"type": "DT_INT32"}}, "inputs": []}, {"name": "StatefulPartitionedCall/jax2tf_apply_/strided_slice_7/stack_2", "op": "Const", "attr": {"value": {"tensor": {"dtype": "DT_INT32", "tensorShape": {"dim": [{"size": "1"}]}}}, "dtype": {"type": "DT_INT32"}}, "inputs": []}, {"name": "StatefulPartitionedCall/jax2tf_apply_/assert_equal_15/y", "op": "Const", "attr": {"value": {"tensor": {"dtype": "DT_BOOL", "tensorShape": {}}}, "dtype": {"type": "DT_BOOL"}}, "inputs": []}, {"name": "StatefulPartitionedCall/jax2tf_apply_/strided_slice_6/stack", "op": "Const", "attr": {"value": {"tensor": {"dtype": "DT_INT32", "tensorShape": {"dim": [{"size": "1"}]}}}, "dtype": {"type": "DT_INT32"}}, "inputs": []}, {"name": "StatefulPartitionedCall/jax2tf_apply_/strided_slice_6/stack_1", "op": "Const", "attr": {"value": {"tensor": {"dtype": "DT_INT32", "tensorShape": {"dim": [{"size": "1"}]}}}, "dtype": {"type": "DT_INT32"}}, "inputs": []}, {"name": "StatefulPartitionedCall/jax2tf_apply_/strided_slice_6/stack_2", "op": "Const", "attr": {"value": {"tensor": {"dtype": "DT_INT32", "tensorShape": {"dim": [{"size": "1"}]}}}, "dtype": {"type": "DT_INT32"}}, "inputs": []}, {"name": "StatefulPartitionedCall/jax2tf_apply_/assert_equal_13/y", "op": "Const", "attr": {"value": {"tensor": {"dtype": "DT_BOOL", "tensorShape": {}}}, "dtype": {"type": "DT_BOOL"}}, "inputs": []}, {"name": "StatefulPartitionedCall/jax2tf_apply_/strided_slice_5/stack", "op": "Const", "attr": {"value": {"tensor": {"dtype": "DT_INT32", "tensorShape": {"dim": [{"size": "1"}]}}}, "dtype": {"type": "DT_INT32"}}, "inputs": []}, {"name": "StatefulPartitionedCall/jax2tf_apply_/strided_slice_5/stack_1", "op": "Const", "attr": {"value": {"tensor": {"dtype": "DT_INT32", "tensorShape": {"dim": [{"size": "1"}]}}}, "dtype": {"type": "DT_INT32"}}, "inputs": []}, {"name": "StatefulPartitionedCall/jax2tf_apply_/strided_slice_5/stack_2", "op": "Const", "attr": {"value": {"tensor": {"dtype": "DT_INT32", "tensorShape": {"dim": [{"size": "1"}]}}}, "dtype": {"type": "DT_INT32"}}, "inputs": []}, {"name": "StatefulPartitionedCall/jax2tf_apply_/assert_equal_11/y", "op": "Const", "attr": {"value": {"tensor": {"dtype": "DT_BOOL", "tensorShape": {}}}, "dtype": {"type": "DT_BOOL"}}, "inputs": []}, {"name": "StatefulPartitionedCall/jax2tf_apply_/strided_slice_4/stack", "op": "Const", "attr": {"value": {"tensor": {"dtype": "DT_INT32", "tensorShape": {"dim": [{"size": "1"}]}}}, "dtype": {"type": "DT_INT32"}}, "inputs": []}, {"name": "StatefulPartitionedCall/jax2tf_apply_/strided_slice_4/stack_1", "op": "Const", "attr": {"value": {"tensor": {"dtype": "DT_INT32", "tensorShape": {"dim": [{"size": "1"}]}}}, "dtype": {"type": "DT_INT32"}}, "inputs": []}, {"name": "StatefulPartitionedCall/jax2tf_apply_/strided_slice_4/stack_2", "op": "Const", "attr": {"value": {"tensor": {"dtype": "DT_INT32", "tensorShape": {"dim": [{"size": "1"}]}}}, "dtype": {"type": "DT_INT32"}}, "inputs": []}, {"name": "StatefulPartitionedCall/jax2tf_apply_/assert_equal_9/y", "op": "Const", "attr": {"value": {"tensor": {"dtype": "DT_BOOL", "tensorShape": {}}}, "dtype": {"type": "DT_BOOL"}}, "inputs": []}, {"name": "StatefulPartitionedCall/jax2tf_apply_/strided_slice_3/stack", "op": "Const", "attr": {"value": {"tensor": {"dtype": "DT_INT32", "tensorShape": {"dim": [{"size": "1"}]}}}, "dtype": {"type": "DT_INT32"}}, "inputs": []}, {"name": "StatefulPartitionedCall/jax2tf_apply_/strided_slice_3/stack_1", "op": "Const", "attr": {"value": {"tensor": {"dtype": "DT_INT32", "tensorShape": {"dim": [{"size": "1"}]}}}, "dtype": {"type": "DT_INT32"}}, "inputs": []}, {"name": "StatefulPartitionedCall/jax2tf_apply_/strided_slice_3/stack_2", "op": "Const", "attr": {"value": {"tensor": {"dtype": "DT_INT32", "tensorShape": {"dim": [{"size": "1"}]}}}, "dtype": {"type": "DT_INT32"}}, "inputs": []}, {"name": "StatefulPartitionedCall/Const_3", "op": "Const", "attr": {"value": {"tensor": {"dtype": "DT_INT32", "tensorShape": {}}}, "dtype": {"type": "DT_INT32"}}, "inputs": []}, {"name": "StatefulPartitionedCall/jax2tf_apply_/assert_equal_7/y", "op": "Const", "attr": {"value": {"tensor": {"dtype": "DT_BOOL", "tensorShape": {}}}, "dtype": {"type": "DT_BOOL"}}, "inputs": []}, {"name": "StatefulPartitionedCall/jax2tf_apply_/strided_slice_2/stack", "op": "Const", "attr": {"value": {"tensor": {"dtype": "DT_INT32", "tensorShape": {"dim": [{"size": "1"}]}}}, "dtype": {"type": "DT_INT32"}}, "inputs": []}, {"name": "StatefulPartitionedCall/jax2tf_apply_/strided_slice_2/stack_1", "op": "Const", "attr": {"value": {"tensor": {"dtype": "DT_INT32", "tensorShape": {"dim": [{"size": "1"}]}}}, "dtype": {"type": "DT_INT32"}}, "inputs": []}, {"name": "StatefulPartitionedCall/jax2tf_apply_/strided_slice_2/stack_2", "op": "Const", "attr": {"value": {"tensor": {"dtype": "DT_INT32", "tensorShape": {"dim": [{"size": "1"}]}}}, "dtype": {"type": "DT_INT32"}}, "inputs": []}, {"name": "StatefulPartitionedCall/Const_2", "op": "Const", "attr": {"value": {"tensor": {"dtype": "DT_INT32", "tensorShape": {}}}, "dtype": {"type": "DT_INT32"}}, "inputs": []}, {"name": "StatefulPartitionedCall/jax2tf_apply_/assert_equal_5/y", "op": "Const", "attr": {"value": {"tensor": {"dtype": "DT_BOOL", "tensorShape": {}}}, "dtype": {"type": "DT_BOOL"}}, "inputs": []}, {"name": "StatefulPartitionedCall/jax2tf_apply_/strided_slice_1/stack", "op": "Const", "attr": {"value": {"tensor": {"dtype": "DT_INT32", "tensorShape": {"dim": [{"size": "1"}]}}}, "dtype": {"type": "DT_INT32"}}, "inputs": []}, {"name": "StatefulPartitionedCall/jax2tf_apply_/strided_slice_1/stack_1", "op": "Const", "attr": {"value": {"tensor": {"dtype": "DT_INT32", "tensorShape": {"dim": [{"size": "1"}]}}}, "dtype": {"type": "DT_INT32"}}, "inputs": []}, {"name": "StatefulPartitionedCall/jax2tf_apply_/strided_slice_1/stack_2", "op": "Const", "attr": {"value": {"tensor": {"dtype": "DT_INT32", "tensorShape": {"dim": [{"size": "1"}]}}}, "dtype": {"type": "DT_INT32"}}, "inputs": []}, {"name": "StatefulPartitionedCall/Const_1", "op": "Const", "attr": {"value": {"tensor": {"dtype": "DT_INT32", "tensorShape": {}}}, "dtype": {"type": "DT_INT32"}}, "inputs": []}, {"name": "StatefulPartitionedCall/jax2tf_apply_/assert_equal_3/y", "op": "Const", "attr": {"value": {"tensor": {"dtype": "DT_BOOL", "tensorShape": {}}}, "dtype": {"type": "DT_BOOL"}}, "inputs": []}, {"name": "StatefulPartitionedCall/jax2tf_apply_/strided_slice/stack", "op": "Const", "attr": {"value": {"tensor": {"dtype": "DT_INT32", "tensorShape": {"dim": [{"size": "1"}]}}}, "dtype": {"type": "DT_INT32"}}, "inputs": []}, {"name": "StatefulPartitionedCall/jax2tf_apply_/strided_slice/stack_1", "op": "Const", "attr": {"value": {"tensor": {"dtype": "DT_INT32", "tensorShape": {"dim": [{"size": "1"}]}}}, "dtype": {"type": "DT_INT32"}}, "inputs": []}, {"name": "StatefulPartitionedCall/jax2tf_apply_/strided_slice/stack_2", "op": "Const", "attr": {"value": {"tensor": {"dtype": "DT_INT32", "tensorShape": {"dim": [{"size": "1"}]}}}, "dtype": {"type": "DT_INT32"}}, "inputs": []}, {"name": "StatefulPartitionedCall/Const", "op": "Const", "attr": {"value": {"tensor": {"dtype": "DT_INT32", "tensorShape": {}}}, "dtype": {"type": "DT_INT32"}}, "inputs": []}, {"name": "StatefulPartitionedCall/jax2tf_apply_/assert_equal_1/y", "op": "Const", "attr": {"value": {"tensor": {"dtype": "DT_BOOL", "tensorShape": {}}}, "dtype": {"type": "DT_BOOL"}}, "inputs": []}, {"name": "xs_0", "op": "Placeholder", "attr": {"shape": {"shape": {"dim": [{"size": "1"}, {"size": "256"}]}}, "dtype": {"type": "DT_FLOAT"}}, "inputs": []}, {"name": "xs_1", "op": "Placeholder", "attr": {"shape": {"shape": {"dim": [{"size": "1"}]}}, "dtype": {"type": "DT_FLOAT"}}, "inputs": []}, {"name": "xs_10", "op": "Placeholder", "attr": {"shape": {"shape": {"dim": [{"size": "4"}, {"size": "-1"}, {"size": "-1"}]}}, "dtype": {"type": "DT_BOOL"}}, "inputs": []}, {"name": "xs_11", "op": "Placeholder", "attr": {"shape": {"shape": {"dim": [{"size": "-1"}, {"size": "2"}]}}, "dtype": {"type": "DT_INT32"}}, "inputs": []}, {"name": "xs_12", "op": "Placeholder", "attr": {"shape": {"shape": {"dim": [{"size": "-1"}]}}, "dtype": {"type": "DT_INT32"}}, "inputs": []}, {"name": "xs_2", "op": "Placeholder", "attr": {"shape": {"shape": {"dim": [{"size": "-1"}, {"size": "19"}]}}, "dtype": {"type": "DT_FLOAT"}}, "inputs": []}, {"name": "xs_3", "op": "Placeholder", "attr": {"shape": {"shape": {"dim": [{"size": "-1"}, {"size": "27"}]}}, "dtype": {"type": "DT_FLOAT"}}, "inputs": []}, {"name": "xs_4", "op": "Placeholder", "attr": {"shape": {"shape": {"dim": [{"size": "-1"}, {"size": "22"}]}}, "dtype": {"type": "DT_FLOAT"}}, "inputs": []}, {"name": "xs_5", "op": "Placeholder", "attr": {"shape": {"shape": {"dim": [{"size": "-1"}, {"size": "8"}]}}, "dtype": {"type": "DT_FLOAT"}}, "inputs": []}, {"name": "xs_6", "op": "Placeholder", "attr": {"shape": {"shape": {"dim": [{"size": "-1"}]}}, "dtype": {"type": "DT_BOOL"}}, "inputs": []}, {"name": "xs_7", "op": "Placeholder", "attr": {"shape": {"shape": {"dim": [{"size": "-1"}]}}, "dtype": {"type": "DT_BOOL"}}, "inputs": []}, {"name": "xs_8", "op": "Placeholder", "attr": {"shape": {"shape": {"dim": [{"size": "-1"}]}}, "dtype": {"type": "DT_BOOL"}}, "inputs": []}, {"name": "xs_9", "op": "Placeholder", "attr": {"shape": {"shape": {"dim": [{"size": "-1"}]}}, "dtype": {"type": "DT_BOOL"}}, "inputs": []}, {"name": "StatefulPartitionedCall/jax2tf_apply_/ActorCriticTransformerFlats/ActorCriticTransformerFlats/Transformer_0/scan/while_2/enter/_337", "op": "Enter", "input": ["StatefulPartitionedCall/jax2tf_apply_/ActorCriticTransformerFlats/ActorCriticTransformerFlats/Transformer_0/Const_64"], "attr": {"is_constant": {"b": false}, "frame_name": {"s": "U3RhdGVmdWxQYXJ0aXRpb25lZENhbGwvamF4MnRmX2FwcGx5Xy9BY3RvckNyaXRpY1RyYW5zZm9ybWVyRmxhdHMvQWN0b3JDcml0aWNUcmFuc2Zvcm1lckZsYXRzL1RyYW5zZm9ybWVyXzAvc2Nhbi93aGlsZV8y"}, "T": {"type": "DT_INT32"}, "parallel_iterations": {"i": "10"}}, "inputs": ["StatefulPartitionedCall/jax2tf_apply_/ActorCriticTransformerFlats/ActorCriticTransformerFlats/Transformer_0/Const_64"]}, {"name": "StatefulPartitionedCall/jax2tf_apply_/ActorCriticTransformerFlats/ActorCriticTransformerFlats/Transformer_0/scan/while_2/enter/_335", "op": "Enter", "input": ["StatefulPartitionedCall/jax2tf_apply_/ActorCriticTransformerFlats/ActorCriticTransformerFlats/Transformer_0/scan/while_2/loop_counter"], "attr": {"is_constant": {"b": false}, "frame_name": {"s": "U3RhdGVmdWxQYXJ0aXRpb25lZENhbGwvamF4MnRmX2FwcGx5Xy9BY3RvckNyaXRpY1RyYW5zZm9ybWVyRmxhdHMvQWN0b3JDcml0aWNUcmFuc2Zvcm1lckZsYXRzL1RyYW5zZm9ybWVyXzAvc2Nhbi93aGlsZV8y"}, "T": {"type": "DT_INT32"}, "parallel_iterations": {"i": "10"}}, "inputs": ["StatefulPartitionedCall/jax2tf_apply_/ActorCriticTransformerFlats/ActorCriticTransformerFlats/Transformer_0/scan/while_2/loop_counter"]}, {"name": "StatefulPartitionedCall/jax2tf_apply_/ActorCriticTransformerFlats/ActorCriticTransformerFlats/Transformer_0/scan/while/enter/_237", "op": "Enter", "input": ["StatefulPartitionedCall/jax2tf_apply_/ActorCriticTransformerFlats/ActorCriticTransformerFlats/Transformer_0/Const_31"], "attr": {"is_constant": {"b": false}, "frame_name": {"s": "U3RhdGVmdWxQYXJ0aXRpb25lZENhbGwvamF4MnRmX2FwcGx5Xy9BY3RvckNyaXRpY1RyYW5zZm9ybWVyRmxhdHMvQWN0b3JDcml0aWNUcmFuc2Zvcm1lckZsYXRzL1RyYW5zZm9ybWVyXzAvc2Nhbi93aGlsZQ=="}, "T": {"type": "DT_INT32"}, "parallel_iterations": {"i": "10"}}, "inputs": ["StatefulPartitionedCall/jax2tf_apply_/ActorCriticTransformerFlats/ActorCriticTransformerFlats/Transformer_0/Const_31"]}, {"name": "StatefulPartitionedCall/jax2tf_apply_/ActorCriticTransformerFlats/ActorCriticTransformerFlats/Transformer_0/scan/while/enter/_235", "op": "Enter", "input": ["StatefulPartitionedCall/jax2tf_apply_/ActorCriticTransformerFlats/ActorCriticTransformerFlats/Transformer_0/scan/while/loop_counter"], "attr": {"is_constant": {"b": false}, "frame_name": {"s": "U3RhdGVmdWxQYXJ0aXRpb25lZENhbGwvamF4MnRmX2FwcGx5Xy9BY3RvckNyaXRpY1RyYW5zZm9ybWVyRmxhdHMvQWN0b3JDcml0aWNUcmFuc2Zvcm1lckZsYXRzL1RyYW5zZm9ybWVyXzAvc2Nhbi93aGlsZQ=="}, "T": {"type": "DT_INT32"}, "parallel_iterations": {"i": "10"}}, "inputs": ["StatefulPartitionedCall/jax2tf_apply_/ActorCriticTransformerFlats/ActorCriticTransformerFlats/Transformer_0/scan/while/loop_counter"]}, {"name": "StatefulPartitionedCall/jax2tf_apply_/ActorCriticTransformerFlats/ActorCriticTransformerFlats/Transformer_0/scan/while_1/enter/_287", "op": "Enter", "input": ["StatefulPartitionedCall/jax2tf_apply_/ActorCriticTransformerFlats/ActorCriticTransformerFlats/Transformer_0/Const_32"], "attr": {"is_constant": {"b": false}, "frame_name": {"s": "U3RhdGVmdWxQYXJ0aXRpb25lZENhbGwvamF4MnRmX2FwcGx5Xy9BY3RvckNyaXRpY1RyYW5zZm9ybWVyRmxhdHMvQWN0b3JDcml0aWNUcmFuc2Zvcm1lckZsYXRzL1RyYW5zZm9ybWVyXzAvc2Nhbi93aGlsZV8x"}, "T": {"type": "DT_INT32"}, "parallel_iterations": {"i": "10"}}, "inputs": ["StatefulPartitionedCall/jax2tf_apply_/ActorCriticTransformerFlats/ActorCriticTransformerFlats/Transformer_0/Const_32"]}, {"name": "StatefulPartitionedCall/jax2tf_apply_/ActorCriticTransformerFlats/ActorCriticTransformerFlats/Transformer_0/scan/while_1/enter/_285", "op": "Enter", "input": ["StatefulPartitionedCall/jax2tf_apply_/ActorCriticTransformerFlats/ActorCriticTransformerFlats/Transformer_0/scan/while_1/loop_counter"], "attr": {"is_constant": {"b": false}, "frame_name": {"s": "U3RhdGVmdWxQYXJ0aXRpb25lZENhbGwvamF4MnRmX2FwcGx5Xy9BY3RvckNyaXRpY1RyYW5zZm9ybWVyRmxhdHMvQWN0b3JDcml0aWNUcmFuc2Zvcm1lckZsYXRzL1RyYW5zZm9ybWVyXzAvc2Nhbi93aGlsZV8x"}, "T": {"type": "DT_INT32"}, "parallel_iterations": {"i": "10"}}, "inputs": ["StatefulPartitionedCall/jax2tf_apply_/ActorCriticTransformerFlats/ActorCriticTransformerFlats/Transformer_0/scan/while_1/loop_counter"]}, {"name": "StatefulPartitionedCall/jax2tf_apply_/ActorCriticTransformerFlats/ActorCriticTransformerFlats/Transformer_0/scan/while_3/enter/_387", "op": "Enter", "input": ["StatefulPartitionedCall/jax2tf_apply_/ActorCriticTransformerFlats/ActorCriticTransformerFlats/Transformer_0/Const_65"], "attr": {"is_constant": {"b": false}, "frame_name": {"s": "U3RhdGVmdWxQYXJ0aXRpb25lZENhbGwvamF4MnRmX2FwcGx5Xy9BY3RvckNyaXRpY1RyYW5zZm9ybWVyRmxhdHMvQWN0b3JDcml0aWNUcmFuc2Zvcm1lckZsYXRzL1RyYW5zZm9ybWVyXzAvc2Nhbi93aGlsZV8z"}, "T": {"type": "DT_INT32"}, "parallel_iterations": {"i": "10"}}, "inputs": ["StatefulPartitionedCall/jax2tf_apply_/ActorCriticTransformerFlats/ActorCriticTransformerFlats/Transformer_0/Const_65"]}, {"name": "StatefulPartitionedCall/jax2tf_apply_/ActorCriticTransformerFlats/ActorCriticTransformerFlats/Transformer_0/scan/while_3/enter/_385", "op": "Enter", "input": ["StatefulPartitionedCall/jax2tf_apply_/ActorCriticTransformerFlats/ActorCriticTransformerFlats/Transformer_0/scan/while_3/loop_counter"], "attr": {"is_constant": {"b": false}, "frame_name": {"s": "U3RhdGVmdWxQYXJ0aXRpb25lZENhbGwvamF4MnRmX2FwcGx5Xy9BY3RvckNyaXRpY1RyYW5zZm9ybWVyRmxhdHMvQWN0b3JDcml0aWNUcmFuc2Zvcm1lckZsYXRzL1RyYW5zZm9ybWVyXzAvc2Nhbi93aGlsZV8z"}, "T": {"type": "DT_INT32"}, "parallel_iterations": {"i": "10"}}, "inputs": ["StatefulPartitionedCall/jax2tf_apply_/ActorCriticTransformerFlats/ActorCriticTransformerFlats/Transformer_0/scan/while_3/loop_counter"]}, {"name": "StatefulPartitionedCall/jax2tf_apply_/Shape_9", "op": "Shape", "input": ["xs_10"], "attr": {"T": {"type": "DT_BOOL"}, "out_type": {"type": "DT_INT32"}}, "experimentalType": {"typeId": "TFT_PRODUCT", "args": [{"typeId": "TFT_SHAPE_TENSOR", "args": [{"typeId": "TFT_INT32"}]}]}, "inputs": ["xs_10"]}, {"name": "StatefulPartitionedCall/jax2tf_apply_/Shape_8", "op": "Shape", "input": ["xs_10"], "attr": {"T": {"type": "DT_BOOL"}, "out_type": {"type": "DT_INT32"}}, "experimentalType": {"typeId": "TFT_PRODUCT", "args": [{"typeId": "TFT_SHAPE_TENSOR", "args": [{"typeId": "TFT_INT32"}]}]}, "inputs": ["xs_10"]}, {"name": "StatefulPartitionedCall/jax2tf_apply_/ActorCriticTransformerFlats/ActorCriticTransformerFlats/pjit_fn_/AddV2_11", "op": "AddV2", "input": ["xs_11", "StatefulPartitionedCall/Const_14"], "attr": {"T": {"type": "DT_INT32"}}, "inputs": ["xs_11", "StatefulPartitionedCall/Const_14"]}, {"name": "StatefulPartitionedCall/jax2tf_apply_/Shape_10", "op": "Shape", "input": ["xs_11"], "attr": {"T": {"type": "DT_INT32"}, "out_type": {"type": "DT_INT32"}}, "experimentalType": {"typeId": "TFT_PRODUCT", "args": [{"typeId": "TFT_SHAPE_TENSOR", "args": [{"typeId": "TFT_INT32"}]}]}, "inputs": ["xs_11"]}, {"name": "StatefulPartitionedCall/jax2tf_apply_/ActorCriticTransformerFlats/ActorCriticTransformerFlats/pjit_fn_/AddV2_12", "op": "AddV2", "input": ["xs_12", "StatefulPartitionedCall/Const_15"], "attr": {"T": {"type": "DT_INT32"}}, "inputs": ["xs_12", "StatefulPartitionedCall/Const_15"]}, {"name": "StatefulPartitionedCall/jax2tf_apply_/Shape_11", "op": "Shape", "input": ["xs_12"], "attr": {"T": {"type": "DT_INT32"}, "out_type": {"type": "DT_INT32"}}, "experimentalType": {"typeId": "TFT_PRODUCT", "args": [{"typeId": "TFT_SHAPE_TENSOR", "args": [{"typeId": "TFT_INT32"}]}]}, "inputs": ["xs_12"]}, {"name": "StatefulPartitionedCall/jax2tf_apply_/ActorCriticTransformerFlats/ActorCriticTransformerFlats/pjit_tanh_/Tanh", "op": "_FusedMatMul", "input": ["xs_2", "StatefulPartitionedCall/jax2tf_arg_1/ReadVariableOp", "StatefulPartitionedCall/jax2tf_apply_/ActorCriticTransformerFlats/ActorCriticTransformerFlats/Dense_0/Reshape"], "device": "/device:CPU:0", "attr": {"transpose_a": {"b": false}, "_input_shapes": {"list": {"shape": [{"dim": [{"size": "-66"}, {"size": "19"}]}, {"dim": [{"size": "19"}, {"size": "127"}]}]}}, "transpose_b": {"b": false}, "fused_ops": {"list": {"s": ["Qmlhc0FkZA==", "VGFuaA=="]}}, "num_args": {"i": "1"}, "leakyrelu_alpha": {"f": 0.2}, "epsilon": {"f": 0.0}, "T": {"type": "DT_FLOAT"}}, "inputs": ["xs_2", "StatefulPartitionedCall/jax2tf_arg_1/ReadVariableOp", "StatefulPartitionedCall/jax2tf_apply_/ActorCriticTransformerFlats/ActorCriticTransformerFlats/Dense_0/Reshape"]}, {"name": "StatefulPartitionedCall/jax2tf_apply_/Shape", "op": "Shape", "input": ["xs_2"], "attr": {"T": {"type": "DT_FLOAT"}, "out_type": {"type": "DT_INT32"}}, "experimentalType": {"typeId": "TFT_PRODUCT", "args": [{"typeId": "TFT_SHAPE_TENSOR", "args": [{"typeId": "TFT_INT32"}]}]}, "inputs": ["xs_2"]}, {"name": "StatefulPartitionedCall/jax2tf_apply_/ActorCriticTransformerFlats/ActorCriticTransformerFlats/pjit_tanh_/Tanh_1", "op": "_FusedMatMul", "input": ["xs_3", "StatefulPartitionedCall/jax2tf_arg_3/ReadVariableOp", "StatefulPartitionedCall/jax2tf_apply_/ActorCriticTransformerFlats/ActorCriticTransformerFlats/Dense_1/Reshape"], "device": "/device:CPU:0", "attr": {"transpose_a": {"b": false}, "_input_shapes": {"list": {"shape": [{"dim": [{"size": "-69"}, {"size": "27"}]}, {"dim": [{"size": "27"}, {"size": "127"}]}]}}, "transpose_b": {"b": false}, "fused_ops": {"list": {"s": ["Qmlhc0FkZA==", "VGFuaA=="]}}, "num_args": {"i": "1"}, "leakyrelu_alpha": {"f": 0.2}, "epsilon": {"f": 0.0}, "T": {"type": "DT_FLOAT"}}, "inputs": ["xs_3", "StatefulPartitionedCall/jax2tf_arg_3/ReadVariableOp", "StatefulPartitionedCall/jax2tf_apply_/ActorCriticTransformerFlats/ActorCriticTransformerFlats/Dense_1/Reshape"]}, {"name": "StatefulPartitionedCall/jax2tf_apply_/Shape_1", "op": "Shape", "input": ["xs_3"], "attr": {"T": {"type": "DT_FLOAT"}, "out_type": {"type": "DT_INT32"}}, "experimentalType": {"typeId": "TFT_PRODUCT", "args": [{"typeId": "TFT_SHAPE_TENSOR", "args": [{"typeId": "TFT_INT32"}]}]}, "inputs": ["xs_3"]}, {"name": "StatefulPartitionedCall/jax2tf_apply_/ActorCriticTransformerFlats/ActorCriticTransformerFlats/pjit_tanh_/Tanh_2", "op": "_FusedMatMul", "input": ["xs_4", "StatefulPartitionedCall/jax2tf_arg_5/ReadVariableOp", "StatefulPartitionedCall/jax2tf_apply_/ActorCriticTransformerFlats/ActorCriticTransformerFlats/Dense_2/Reshape"], "device": "/device:CPU:0", "attr": {"transpose_a": {"b": false}, "_input_shapes": {"list": {"shape": [{"dim": [{"size": "-83"}, {"size": "22"}]}, {"dim": [{"size": "22"}, {"size": "128"}]}]}}, "transpose_b": {"b": false}, "fused_ops": {"list": {"s": ["Qmlhc0FkZA==", "VGFuaA=="]}}, "num_args": {"i": "1"}, "leakyrelu_alpha": {"f": 0.2}, "epsilon": {"f": 0.0}, "T": {"type": "DT_FLOAT"}}, "inputs": ["xs_4", "StatefulPartitionedCall/jax2tf_arg_5/ReadVariableOp", "StatefulPartitionedCall/jax2tf_apply_/ActorCriticTransformerFlats/ActorCriticTransformerFlats/Dense_2/Reshape"]}, {"name": "StatefulPartitionedCall/jax2tf_apply_/Shape_2", "op": "Shape", "input": ["xs_4"], "attr": {"T": {"type": "DT_FLOAT"}, "out_type": {"type": "DT_INT32"}}, "experimentalType": {"typeId": "TFT_PRODUCT", "args": [{"typeId": "TFT_SHAPE_TENSOR", "args": [{"typeId": "TFT_INT32"}]}]}, "inputs": ["xs_4"]}, {"name": "StatefulPartitionedCall/jax2tf_apply_/ActorCriticTransformerFlats/ActorCriticTransformerFlats/pjit_tanh_/Tanh_3", "op": "_FusedMatMul", "input": ["xs_5", "StatefulPartitionedCall/jax2tf_arg_7/ReadVariableOp", "StatefulPartitionedCall/jax2tf_apply_/ActorCriticTransformerFlats/ActorCriticTransformerFlats/Dense_3/Reshape"], "device": "/device:CPU:0", "attr": {"transpose_a": {"b": false}, "_input_shapes": {"list": {"shape": [{"dim": [{"size": "-95"}, {"size": "8"}]}, {"dim": [{"size": "8"}, {"size": "128"}]}]}}, "transpose_b": {"b": false}, "fused_ops": {"list": {"s": ["Qmlhc0FkZA==", "VGFuaA=="]}}, "leakyrelu_alpha": {"f": 0.2}, "num_args": {"i": "1"}, "epsilon": {"f": 0.0}, "T": {"type": "DT_FLOAT"}}, "inputs": ["xs_5", "StatefulPartitionedCall/jax2tf_arg_7/ReadVariableOp", "StatefulPartitionedCall/jax2tf_apply_/ActorCriticTransformerFlats/ActorCriticTransformerFlats/Dense_3/Reshape"]}, {"name": "StatefulPartitionedCall/jax2tf_apply_/Shape_3", "op": "Shape", "input": ["xs_5"], "attr": {"T": {"type": "DT_FLOAT"}, "out_type": {"type": "DT_INT32"}}, "experimentalType": {"typeId": "TFT_PRODUCT", "args": [{"typeId": "TFT_SHAPE_TENSOR", "args": [{"typeId": "TFT_INT32"}]}]}, "inputs": ["xs_5"]}, {"name": "StatefulPartitionedCall/jax2tf_apply_/Shape_4", "op": "Shape", "input": ["xs_6"], "attr": {"T": {"type": "DT_BOOL"}, "out_type": {"type": "DT_INT32"}}, "experimentalType": {"typeId": "TFT_PRODUCT", "args": [{"typeId": "TFT_SHAPE_TENSOR", "args": [{"typeId": "TFT_INT32"}]}]}, "inputs": ["xs_6"]}, {"name": "StatefulPartitionedCall/jax2tf_apply_/ActorCriticTransformerFlats/ActorCriticTransformerFlats/concat_5", "op": "ConcatV2", "input": ["StatefulPartitionedCall/jax2tf_apply_/ActorCriticTransformerFlats/ActorCriticTransformerFlats/BroadcastTo_7", "xs_7", "xs_6", "StatefulPartitionedCall/jax2tf_apply_/ActorCriticTransformerFlats/ActorCriticTransformerFlats/Cast_7/x"], "attr": {"N": {"i": "3"}, "Tidx": {"type": "DT_INT32"}, "T": {"type": "DT_BOOL"}}, "inputs": ["StatefulPartitionedCall/jax2tf_apply_/ActorCriticTransformerFlats/ActorCriticTransformerFlats/BroadcastTo_7", "xs_7", "xs_6", "StatefulPartitionedCall/jax2tf_apply_/ActorCriticTransformerFlats/ActorCriticTransformerFlats/Cast_7/x"]}, {"name": "StatefulPartitionedCall/jax2tf_apply_/Shape_5", "op": "Shape", "input": ["xs_7"], "attr": {"T": {"type": "DT_BOOL"}, "out_type": {"type": "DT_INT32"}}, "experimentalType": {"typeId": "TFT_PRODUCT", "args": [{"typeId": "TFT_SHAPE_TENSOR", "args": [{"typeId": "TFT_INT32"}]}]}, "inputs": ["xs_7"]}, {"name": "StatefulPartitionedCall/jax2tf_apply_/Shape_6", "op": "Shape", "input": ["xs_8"], "attr": {"T": {"type": "DT_BOOL"}, "out_type": {"type": "DT_INT32"}}, "experimentalType": {"typeId": "TFT_PRODUCT", "args": [{"typeId": "TFT_SHAPE_TENSOR", "args": [{"typeId": "TFT_INT32"}]}]}, "inputs": ["xs_8"]}, {"name": "StatefulPartitionedCall/jax2tf_apply_/Shape_7", "op": "Shape", "input": ["xs_9"], "attr": {"T": {"type": "DT_BOOL"}, "out_type": {"type": "DT_INT32"}}, "experimentalType": {"typeId": "TFT_PRODUCT", "args": [{"typeId": "TFT_SHAPE_TENSOR", "args": [{"typeId": "TFT_INT32"}]}]}, "inputs": ["xs_9"]}, {"name": "StatefulPartitionedCall/jax2tf_apply_/ActorCriticTransformerFlats/ActorCriticTransformerFlats/Transformer_0/scan/while_2/merge/_346", "op": "Merge", "input": ["StatefulPartitionedCall/jax2tf_apply_/ActorCriticTransformerFlats/ActorCriticTransformerFlats/Transformer_0/scan/while_2/enter/_337", "StatefulPartitionedCall/jax2tf_apply_/ActorCriticTransformerFlats/ActorCriticTransformerFlats/Transformer_0/scan/while_2/next_iteration/_376"], "attr": {"N": {"i": "2"}, "T": {"type": "DT_INT32"}}, "inputs": ["StatefulPartitionedCall/jax2tf_apply_/ActorCriticTransformerFlats/ActorCriticTransformerFlats/Transformer_0/scan/while_2/enter/_337", "StatefulPartitionedCall/jax2tf_apply_/ActorCriticTransformerFlats/ActorCriticTransformerFlats/Transformer_0/scan/while_2/next_iteration/_376"]}, {"name": "StatefulPartitionedCall/jax2tf_apply_/ActorCriticTransformerFlats/ActorCriticTransformerFlats/Transformer_0/scan/while_2/merge/_344", "op": "Merge", "input": ["StatefulPartitionedCall/jax2tf_apply_/ActorCriticTransformerFlats/ActorCriticTransformerFlats/Transformer_0/scan/while_2/enter/_335", "StatefulPartitionedCall/jax2tf_apply_/ActorCriticTransformerFlats/ActorCriticTransformerFlats/Transformer_0/scan/while_2/next_iteration/_374"], "attr": {"N": {"i": "2"}, "_has_manual_control_dependencies": {"b": true}, "T": {"type": "DT_INT32"}}, "inputs": ["StatefulPartitionedCall/jax2tf_apply_/ActorCriticTransformerFlats/ActorCriticTransformerFlats/Transformer_0/scan/while_2/enter/_335", "StatefulPartitionedCall/jax2tf_apply_/ActorCriticTransformerFlats/ActorCriticTransformerFlats/Transformer_0/scan/while_2/next_iteration/_374"]}, {"name": "StatefulPartitionedCall/jax2tf_apply_/ActorCriticTransformerFlats/ActorCriticTransformerFlats/Transformer_0/scan/while/merge/_246", "op": "Merge", "input": ["StatefulPartitionedCall/jax2tf_apply_/ActorCriticTransformerFlats/ActorCriticTransformerFlats/Transformer_0/scan/while/enter/_237", "StatefulPartitionedCall/jax2tf_apply_/ActorCriticTransformerFlats/ActorCriticTransformerFlats/Transformer_0/scan/while/next_iteration/_276"], "attr": {"N": {"i": "2"}, "T": {"type": "DT_INT32"}}, "inputs": ["StatefulPartitionedCall/jax2tf_apply_/ActorCriticTransformerFlats/ActorCriticTransformerFlats/Transformer_0/scan/while/enter/_237", "StatefulPartitionedCall/jax2tf_apply_/ActorCriticTransformerFlats/ActorCriticTransformerFlats/Transformer_0/scan/while/next_iteration/_276"]}, {"name": "StatefulPartitionedCall/jax2tf_apply_/ActorCriticTransformerFlats/ActorCriticTransformerFlats/Transformer_0/scan/while/merge/_244", "op": "Merge", "input": ["StatefulPartitionedCall/jax2tf_apply_/ActorCriticTransformerFlats/ActorCriticTransformerFlats/Transformer_0/scan/while/enter/_235", "StatefulPartitionedCall/jax2tf_apply_/ActorCriticTransformerFlats/ActorCriticTransformerFlats/Transformer_0/scan/while/next_iteration/_274"], "attr": {"N": {"i": "2"}, "T": {"type": "DT_INT32"}}, "inputs": ["StatefulPartitionedCall/jax2tf_apply_/ActorCriticTransformerFlats/ActorCriticTransformerFlats/Transformer_0/scan/while/enter/_235", "StatefulPartitionedCall/jax2tf_apply_/ActorCriticTransformerFlats/ActorCriticTransformerFlats/Transformer_0/scan/while/next_iteration/_274"]}, {"name": "StatefulPartitionedCall/jax2tf_apply_/ActorCriticTransformerFlats/ActorCriticTransformerFlats/Transformer_0/scan/while_1/merge/_296", "op": "Merge", "input": ["StatefulPartitionedCall/jax2tf_apply_/ActorCriticTransformerFlats/ActorCriticTransformerFlats/Transformer_0/scan/while_1/enter/_287", "StatefulPartitionedCall/jax2tf_apply_/ActorCriticTransformerFlats/ActorCriticTransformerFlats/Transformer_0/scan/while_1/next_iteration/_326"], "attr": {"N": {"i": "2"}, "T": {"type": "DT_INT32"}}, "inputs": ["StatefulPartitionedCall/jax2tf_apply_/ActorCriticTransformerFlats/ActorCriticTransformerFlats/Transformer_0/scan/while_1/enter/_287", "StatefulPartitionedCall/jax2tf_apply_/Act…
 "dtype": "int32"}, {"name": "StatefulPartitionedCall/jax2tf_apply_/ActorCriticTransformerFlats/ActorCriticTransformerFlats/Transformer_0/BroadcastTo_9/shape/1", "shape": [], "dtype": "int32"}, {"name": "StatefulPartitionedCall/jax2tf_apply_/ActorCriticTransformerFlats/ActorCriticTransformerFlats/Transformer_0/Const_23", "shape": [], "dtype": "int32"}, {"name": "StatefulPartitionedCall/jax2tf_apply_/ActorCriticTransformerFlats/ActorCriticTransformerFlats/Transformer_0/Sub_4/y", "shape": [1], "dtype": "int32"}, {"name": "StatefulPartitionedCall/jax2tf_apply_/ActorCriticTransformerFlats/ActorCriticTransformerFlats/Transformer_0/clip_by_value_4/y", "shape": [], "dtype": "int32"}, {"name": "StatefulPartitionedCall/jax2tf_apply_/ActorCriticTransformerFlats/ActorCriticTransformerFlats/Transformer_0/GatherV2_2/axis", "shape": [], "dtype": "int32"}, {"name": "StatefulPartitionedCall/jax2tf_apply_/ActorCriticTransformerFlats/ActorCriticTransformerFlats/Transformer_0/BroadcastTo_10/shape/1", "shape": [], "dtype": "int32"}, {"name": "StatefulPartitionedCall/jax2tf_apply_/ActorCriticTransformerFlats/ActorCriticTransformerFlats/Transformer_0/Cast_1/x", "shape": [], "dtype": "int32"}, {"name": "StatefulPartitionedCall/jax2tf_arg_93/ReadVariableOp", "shape": [256, 128], "dtype": "float32"}, {"name": "StatefulPartitionedCall/jax2tf_apply_/ActorCriticTransformerFlats/ActorCriticTransformerFlats/Transformer_0/thruster_layers_0/Reshape", "shape": [1, 128], "dtype": "float32"}, {"name": "StatefulPartitionedCall/jax2tf_apply_/ActorCriticTransformerFlats/ActorCriticTransformerFlats/Transformer_0/Reshape_11/shape/1", "shape": [], "dtype": "int32"}, {"name": "StatefulPartitionedCall/jax2tf_apply_/ActorCriticTransformerFlats/ActorCriticTransformerFlats/Transformer_0/BroadcastTo_11/shape/1", "shape": [], "dtype": "int32"}, {"name": "StatefulPartitionedCall/jax2tf_apply_/ActorCriticTransformerFlats/ActorCriticTransformerFlats/Transformer_0/Const_32", "shape": [], "dtype": "int32"}, {"name": "StatefulPartitionedCall/jax2tf_apply_/ActorCriticTransformerFlats/ActorCriticTransformerFlats/Transformer_0/scan/while_1/loop_counter", "shape": [], "dtype": "int32"}, {"name": "StatefulPartitionedCall/jax2tf_arg_79/ReadVariableOp", "shape": [128, 128], "dtype": "float32"}, {"name": "StatefulPartitionedCall/jax2tf_arg_86/ReadVariableOp", "shape": [128, 128], "dtype": "float32"}, {"name": "StatefulPartitionedCall/Const_42", "shape": [], "dtype": "int32"}, {"name": "StatefulPartitionedCall/jax2tf_apply_/ActorCriticTransformerFlats/ActorCriticTransformerFlats/Transformer_0/Const_53", "shape": [], "dtype": "int32"}, {"name": "StatefulPartitionedCall/Const_15", "shape": [], "dtype": "int32"}, {"name": "StatefulPartitionedCall/jax2tf_apply_/ActorCriticTransformerFlats/ActorCriticTransformerFlats/Transformer_0/Reshape_23/shape/1", "shape": [], "dtype": "int32"}, {"name": "StatefulPartitionedCall/jax2tf_apply_/ActorCriticTransformerFlats/ActorCriticTransformerFlats/Transformer_0/BroadcastTo_23/shape/1", "shape": [], "dtype": "int32"}, {"name": "StatefulPartitionedCall/jax2tf_apply_/ActorCriticTransformerFlats/ActorCriticTransformerFlats/Transformer_0/Const_56", "shape": [], "dtype": "int32"}, {"name": "StatefulPartitionedCall/jax2tf_apply_/ActorCriticTransformerFlats/ActorCriticTransformerFlats/Transformer_0/Sub_10/y", "shape": [1], "dtype": "int32"}, {"name": "StatefulPartitionedCall/jax2tf_apply_/ActorCriticTransformerFlats/ActorCriticTransformerFlats/Transformer_0/clip_by_value_10/y", "shape": [], "dtype": "int32"}, {"name": "StatefulPartitionedCall/jax2tf_apply_/ActorCriticTransformerFlats/ActorCriticTransformerFlats/Transformer_0/GatherV2_5/axis", "shape": [], "dtype": "int32"}, {"name": "StatefulPartitionedCall/jax2tf_apply_/ActorCriticTransformerFlats/ActorCriticTransformerFlats/Transformer_0/BroadcastTo_24/shape/1", "shape": [], "dtype": "int32"}, {"name": "StatefulPartitionedCall/jax2tf_arg_7/ReadVariableOp", "shape": [8, 128], "dtype": "float32"}, {"name": "StatefulPartitionedCall/jax2tf_apply_/ActorCriticTransformerFlats/ActorCriticTransformerFlats/Dense_3/Reshape", "shape": [1, 128], "dtype": "float32"}, {"name": "StatefulPartitionedCall/jax2tf_apply_/ActorCriticTransformerFlats/ActorCriticTransformerFlats/Transformer_0/Cast_3/x", "shape": [], "dtype": "int32"}, {"name": "StatefulPartitionedCall/jax2tf_arg_95/ReadVariableOp", "shape": [256, 128], "dtype": "float32"}, {"name": "StatefulPartitionedCall/jax2tf_apply_/ActorCriticTransformerFlats/ActorCriticTransformerFlats/Transformer_0/thruster_layers_1/Reshape", "shape": [1, 128], "dtype": "float32"}, {"name": "StatefulPartitionedCall/jax2tf_apply_/ActorCriticTransformerFlats/ActorCriticTransformerFlats/Transformer_0/Reshape_25/shape/1", "shape": [], "dtype": "int32"}, {"name": "StatefulPartitionedCall/jax2tf_apply_/ActorCriticTransformerFlats/ActorCriticTransformerFlats/Transformer_0/BroadcastTo_25/shape/1", "shape": [], "dtype": "int32"}, {"name": "StatefulPartitionedCall/jax2tf_apply_/ActorCriticTransformerFlats/ActorCriticTransformerFlats/Transformer_0/Const_65", "shape": [], "dtype": "int32"}, {"name": "StatefulPartitionedCall/jax2tf_apply_/ActorCriticTransformerFlats/ActorCriticTransformerFlats/Transformer_0/scan/while_3/loop_counter", "shape": [], "dtype": "int32"}, {"name": "StatefulPartitionedCall/jax2tf_apply_/ActorCriticTransformerFlats/ActorCriticTransformerFlats/pjit__mean_/pjit__where_/Reshape_2", "shape": [1, 1], "dtype": "float32"}, {"name": "StatefulPartitionedCall/jax2tf_apply_/ActorCriticTransformerFlats/ActorCriticTransformerFlats/pjit__mean_/pjit__where_/Const_5", "shape": [], "dtype": "int32"}, {"name": "StatefulPartitionedCall/jax2tf_apply_/ActorCriticTransformerFlats/ActorCriticTransformerFlats/pjit__mean_/pjit__where_/BroadcastTo_1/shape/1", "shape": [], "dtype": "int32"}, {"name": "StatefulPartitionedCall/jax2tf_apply_/ActorCriticTransformerFlats/ActorCriticTransformerFlats/pjit__mean_/Sum_1/reduction_indices", "shape": [1], "dtype": "int32"}, {"name": "StatefulPartitionedCall/jax2tf_apply_/ActorCriticTransformerFlats/ActorCriticTransformerFlats/BroadcastTo_7", "shape": [1], "dtype": "bool"}, {"name": "StatefulPartitionedCall/jax2tf_apply_/ActorCriticTransformerFlats/ActorCriticTransformerFlats/Cast_7/x", "shape": [], "dtype": "int32"}, {"name": "StatefulPartitionedCall/jax2tf_apply_/ActorCriticTransformerFlats/ActorCriticTransformerFlats/Const_61", "shape": [], "dtype": "int32"}, {"name": "StatefulPartitionedCall/jax2tf_apply_/ActorCriticTransformerFlats/ActorCriticTransformerFlats/Reshape_18/shape/1", "shape": [], "dtype": "int32"}, {"name": "StatefulPartitionedCall/jax2tf_apply_/ActorCriticTransformerFlats/ActorCriticTransformerFlats/Const_63", "shape": [], "dtype": "int32"}, {"name": "StatefulPartitionedCall/jax2tf_apply_/ActorCriticTransformerFlats/ActorCriticTransformerFlats/BroadcastTo_14/shape/1", "shape": [], "dtype": "int32"}, {"name": "StatefulPartitionedCall/jax2tf_apply_/ActorCriticTransformerFlats/ActorCriticTransformerFlats/pjit__mean_/Const_3", "shape": [], "dtype": "int32"}, {"name": "StatefulPartitionedCall/jax2tf_apply_/ActorCriticTransformerFlats/ActorCriticTransformerFlats/pjit__mean_/BroadcastTo/shape/1", "shape": [], "dtype": "int32"}, {"name": "StatefulPartitionedCall/jax2tf_apply_/ActorCriticTransformerFlats/ActorCriticTransformerFlats/pjit__mean_/Sum/reduction_indices", "shape": [1], "dtype": "int32"}, {"name": "StatefulPartitionedCall/jax2tf_apply_/ActorCriticTransformerFlats/ActorCriticTransformerFlats/GeneralActorCriticRNN_0/Dense_1/ExpandDims/dim", "shape": [], "dtype": "int32"}, {"name": "StatefulPartitionedCall/jax2tf_arg_11/ReadVariableOp", "shape": [128, 128], "dtype": "float32"}, {"name": "StatefulPartitionedCall/jax2tf_arg_10/ReadVariableOp", "shape": [128], "dtype": "float32"}, {"name": "StatefulPartitionedCall/jax2tf_apply_/ActorCriticTransformerFlats/ActorCriticTransformerFlats/GeneralActorCriticRNN_0/Dense_3/ExpandDims/dim", "shape": [], "dtype": "int32"}, {"name": "StatefulPartitionedCall/jax2tf_arg_19/ReadVariableOp", "shape": [128, 128], "dtype": "float32"}, {"name": "StatefulPartitionedCall/jax2tf_arg_18/ReadVariableOp", "shape": [128], "dtype": "float32"}, {"name": "StatefulPartitionedCall/jax2tf_apply_/ActorCriticTransformerFlats/ActorCriticTransformerFlats/GeneralActorCriticRNN_0/Dense_5/ExpandDims/dim", "shape": [], "dtype": "int32"}, {"name": "StatefulPartitionedCall/jax2tf_arg_23/ReadVariableOp", "shape": [128, 128], "dtype": "float32"}, {"name": "StatefulPartitionedCall/jax2tf_arg_22/ReadVariableOp", "shape": [128], "dtype": "float32"}, {"name": "StatefulPartitionedCall/jax2tf_apply_/ActorCriticTransformerFlats/ActorCriticTransformerFlats/GeneralActorCriticRNN_0/Dense_7/ExpandDims/dim", "shape": [], "dtype": "int32"}, {"name": "StatefulPartitionedCall/jax2tf_arg_27/ReadVariableOp", "shape": [128, 128], "dtype": "float32"}, {"name": "StatefulPartitionedCall/jax2tf_arg_26/ReadVariableOp", "shape": [128], "dtype": "float32"}, {"name": "StatefulPartitionedCall/jax2tf_apply_/ActorCriticTransformerFlats/ActorCriticTransformerFlats/GeneralActorCriticRNN_0/Dense_9/ExpandDims/dim", "shape": [], "dtype": "int32"}, {"name": "StatefulPartitionedCall/jax2tf_arg_31/ReadVariableOp", "shape": [128, 128], "dtype": "float32"}, {"name": "StatefulPartitionedCall/jax2tf_arg_30/ReadVariableOp", "shape": [128], "dtype": "float32"}, {"name": "StatefulPartitionedCall/jax2tf_apply_/ActorCriticTransformerFlats/ActorCriticTransformerFlats/GeneralActorCriticRNN_0/Dense_11/ExpandDims/dim", "shape": [], "dtype": "int32"}, {"name": "StatefulPartitionedCall/jax2tf_arg_15/ReadVariableOp", "shape": [128, 1], "dtype": "float32"}, {"name": "StatefulPartitionedCall/jax2tf_arg_14/ReadVariableOp", "shape": [1], "dtype": "float32"}, {"name": "StatefulPartitionedCall/jax2tf_apply_/ActorCriticTransformerFlats/ActorCriticTransformerFlats/GeneralActorCriticRNN_0/pjit__squeeze_/Reshape/shape_1", "shape": [0], "dtype": "int32"}, {"name": "StatefulPartitionedCall/jax2tf_apply_/strided_slice_11/stack", "shape": [1], "dtype": "int32"}, {"name": "StatefulPartitionedCall/jax2tf_apply_/strided_slice_11/stack_1", "shape": [1], "dtype": "int32"}, {"name": "StatefulPartitionedCall/jax2tf_apply_/strided_slice_11/stack_2", "shape": [1], "dtype": "int32"}, {"name": "StatefulPartitionedCall/jax2tf_apply_/assert_equal_23/y", "shape": [], "dtype": "bool"}, {"name": "StatefulPartitionedCall/jax2tf_apply_/strided_slice_10/stack", "shape": [1], "dtype": "int32"}, {"name": "StatefulPartitionedCall/jax2tf_apply_/strided_slice_10/stack_1", "shape": [1], "dtype": "int32"}, {"name": "StatefulPartitionedCall/jax2tf_apply_/strided_slice_10/stack_2", "shape": [1], "dtype": "int32"}, {"name": "StatefulPartitionedCall/jax2tf_apply_/assert_equal_21/y", "shape": [], "dtype": "bool"}, {"name": "StatefulPartitionedCall/jax2tf_apply_/strided_slice_9/stack", "shape": [1], "dtype": "int32"}, {"name": "StatefulPartitionedCall/jax2tf_apply_/strided_slice_9/stack_1", "shape": [1], "dtype": "int32"}, {"name": "StatefulPartitionedCall/jax2tf_apply_/strided_slice_9/stack_2", "shape": [1], "dtype": "int32"}, {"name": "StatefulPartitionedCall/jax2tf_apply_/assert_equal_19/y", "shape": [], "dtype": "bool"}, {"name": "StatefulPartitionedCall/jax2tf_apply_/strided_slice_8/stack", "shape": [1], "dtype": "int32"}, {"name": "StatefulPartitionedCall/jax2tf_apply_/strided_slice_8/stack_1", "shape": [1], "dtype": "int32"}, {"name": "StatefulPartitionedCall/jax2tf_apply_/strided_slice_8/stack_2", "shape": [1], "dtype": "int32"}, {"name": "StatefulPartitionedCall/jax2tf_apply_/assert_equal_17/y", "shape": [], "dtype": "bool"}, {"name": "StatefulPartitionedCall/jax2tf_apply_/strided_slice_7/stack", "shape": [1], "dtype": "int32"}, {"name": "StatefulPartitionedCall/jax2tf_apply_/strided_slice_7/stack_1", "shape": [1], "dtype": "int32"}, {"name": "StatefulPartitionedCall/jax2tf_apply_/strided_slice_7/stack_2", "shape": [1], "dtype": "int32"}, {"name": "StatefulPartitionedCall/jax2tf_apply_/assert_equal_15/y", "shape": [], "dtype": "bool"}, {"name": "StatefulPartitionedCall/jax2tf_apply_/strided_slice_6/stack", "shape": [1], "dtype": "int32"}, {"name": "StatefulPartitionedCall/jax2tf_apply_/strided_slice_6/stack_1", "shape": [1], "dtype": "int32"}, {"name": "StatefulPartitionedCall/jax2tf_apply_/strided_slice_6/stack_2", "shape": [1], "dtype": "int32"}, {"name": "StatefulPartitionedCall/jax2tf_apply_/assert_equal_13/y", "shape": [], "dtype": "bool"}, {"name": "StatefulPartitionedCall/jax2tf_apply_/strided_slice_5/stack", "shape": [1], "dtype": "int32"}, {"name": "StatefulPartitionedCall/jax2tf_apply_/strided_slice_5/stack_1", "shape": [1], "dtype": "int32"}, {"name": "StatefulPartitionedCall/jax2tf_apply_/strided_slice_5/stack_2", "shape": [1], "dtype": "int32"}, {"name": "StatefulPartitionedCall/jax2tf_apply_/assert_equal_11/y", "shape": [], "dtype": "bool"}, {"name": "StatefulPartitionedCall/jax2tf_apply_/strided_slice_4/stack", "shape": [1], "dtype": "int32"}, {"name": "StatefulPartitionedCall/jax2tf_apply_/strided_slice_4/stack_1", "shape": [1], "dtype": "int32"}, {"name": "StatefulPartitionedCall/jax2tf_apply_/strided_slice_4/stack_2", "shape": [1], "dtype": "int32"}, {"name": "StatefulPartitionedCall/jax2tf_apply_/assert_equal_9/y", "shape": [], "dtype": "bool"}, {"name": "StatefulPartitionedCall/jax2tf_apply_/strided_slice_3/stack", "shape": [1], "dtype": "int32"}, {"name": "StatefulPartitionedCall/jax2tf_apply_/strided_slice_3/stack_1", "shape": [1], "dtype": "int32"}, {"name": "StatefulPartitionedCall/jax2tf_apply_/strided_slice_3/stack_2", "shape": [1], "dtype": "int32"}, {"name": "StatefulPartitionedCall/Const_3", "shape": [], "dtype": "int32"}, {"name": "StatefulPartitionedCall/jax2tf_apply_/assert_equal_7/y", "shape": [], "dtype": "bool"}, {"name": "StatefulPartitionedCall/jax2tf_apply_/strided_slice_2/stack", "shape": [1], "dtype": "int32"}, {"name": "StatefulPartitionedCall/jax2tf_apply_/strided_slice_2/stack_1", "shape": [1], "dtype": "int32"}, {"name": "StatefulPartitionedCall/jax2tf_apply_/strided_slice_2/stack_2", "shape": [1], "dtype": "int32"}, {"name": "StatefulPartitionedCall/Const_2", "shape": [], "dtype": "int32"}, {"name": "StatefulPartitionedCall/jax2tf_apply_/assert_equal_5/y", "shape": [], "dtype": "bool"}, {"name": "StatefulPartitionedCall/jax2tf_apply_/strided_slice_1/stack", "shape": [1], "dtype": "int32"}, {"name": "StatefulPartitionedCall/jax2tf_apply_/strided_slice_1/stack_1", "shape": [1], "dtype": "int32"}, {"name": "StatefulPartitionedCall/jax2tf_apply_/strided_slice_1/stack_2", "shape": [1], "dtype": "int32"}, {"name": "StatefulPartitionedCall/Const_1", "shape": [], "dtype": "int32"}, {"name": "StatefulPartitionedCall/jax2tf_apply_/assert_equal_3/y", "shape": [], "dtype": "bool"}, {"name": "StatefulPartitionedCall/jax2tf_apply_/strided_slice/stack", "shape": [1], "dtype": "int32"}, {"name": "StatefulPartitionedCall/jax2tf_apply_/strided_slice/stack_1", "shape": [1], "dtype": "int32"}, {"name": "StatefulPartitionedCall/jax2tf_apply_/strided_slice/stack_2", "shape": [1], "dtype": "int32"}, {"name": "StatefulPartitionedCall/Const", "shape": [], "dtype": "int32"}, {"name": "StatefulPartitionedCall/jax2tf_apply_/assert_equal_1/y", "shape": [], "dtype": "bool"}, {"name": "ConstantFolding/StatefulPartitionedCall/jax2tf_apply_/ActorCriticTransformerFlats/ActorCriticTransformerFlats/BroadcastTo_2/shape_const_axis", "shape": [], "dtype": "int32"}, {"name": "ConstantFolding/StatefulPartitionedCall/jax2tf_apply_/ActorCriticTransformerFlats/ActorCriticTransformerFlats/BroadcastTo_5/shape_const_axis", "shape": [], "dtype": "int32"}, {"name": "ConstantFolding/StatefulPartitionedCall/jax2tf_apply_/ActorCriticTransformerFlats/ActorCriticTransformerFlats/Transformer_0/BroadcastTo_27/shape_const_axis", "shape": [], "dtype": "int32"}, {"name": "ConstantFolding/StatefulPartitionedCall/jax2tf_apply_/ActorCriticTransformerFlats/ActorCriticTransformerFlats/Transformer_0/BroadcastTo_15/shape_const_axis", "shape": [], "dtype": "int32"}, {"name": "ConstantFolding/StatefulPartitionedCall/jax2tf_apply_/ActorCriticTransformerFlats/ActorCriticTransformerFlats/Transformer_0/BroadcastTo_19/shape_const_axis", "shape": [], "dtype": "int32"}, {"name": "ConstantFolding/StatefulPartitionedCall/jax2tf_apply_/ActorCriticTransformerFlats/ActorCriticTransformerFlats/Transformer_0/BroadcastTo_13/shape_const_axis", "shape": [], "dtype": "int32"}, {"name": "ConstantFolding/StatefulPartitionedCall/jax2tf_apply_/ActorCriticTransformerFlats/ActorCriticTransformerFlats/Transformer_0/BroadcastTo_1/shape_const_axis", "shape": [], "dtype": "int32"}, {"name": "ConstantFolding/StatefulPartitionedCall/jax2tf_apply_/ActorCriticTransformerFlats/ActorCriticTransformerFlats/Transformer_0/BroadcastTo_5/shape_const_axis", "shape": [], "dtype": "int32"}, {"name": "ConstantFolding/StatefulPartitionedCall/jax2tf_apply_/ActorCriticTransformerFlats/ActorCriticTransformerFlats/Transformer_0/Sub_7/x_const_axis", "shape": [], "dtype": "int32"}, {"name": "ConstantFolding/StatefulPartitionedCall/jax2tf_apply_/ActorCriticTransformerFlats/ActorCriticTransformerFlats/Transformer_0/Sub_9/x_const_axis", "shape": [], "dtype": "int32"}, {"name": "ConstantFolding/StatefulPartitionedCall/jax2tf_apply_/ActorCriticTransformerFlats/ActorCriticTransformerFlats/Transformer_0/Sub_1/x_const_axis", "shape": [], "dtype": "int32"}, {"name": "ConstantFolding/StatefulPartitionedCall/jax2tf_apply_/ActorCriticTransformerFlats/ActorCriticTransformerFlats/Transformer_0/Sub_3/x_const_axis", "shape": [], "dtype": "int32"}, {"name": "ConstantFolding/StatefulPartitionedCall/jax2tf_apply_/ActorCriticTransformerFlats/ActorCriticTransformerFlats/Transformer_0/Sub_4/x_const_axis", "shape": [], "dtype": "int32"}, {"name": "ConstantFolding/StatefulPartitionedCall/jax2tf_apply_/ActorCriticTransformerFlats/ActorCriticTransformerFlats/Transformer_0/Sub_10/x_const_axis", "shape": [], "dtype": "int32"}, {"name": "StatefulPartitionedCall/jax2tf_apply_/assert_equal_1/Assert/AssertGuard/pivot_f/_116", "shape": [], "dtype": "bool"}, {"name": "StatefulPartitionedCall/jax2tf_apply_/assert_equal_1/Assert/AssertGuard/pivot_t/_117", "shape": [], "dtype": "bool"}, {"name": "StatefulPartitionedCall/jax2tf_apply_/ActorCriticTransformerFlats/ActorCriticTransformerFlats/Transformer_0/scan/while_2/body/_334/jax2tf_apply_/ActorCriticTransformerFlats/ActorCriticTransformerFlats/Transformer_0/scan/while/body/strided_slice/stack", "shape": [1], "dtype": "int32"}, {"name": "StatefulPartitionedCall/jax2tf_apply_/ActorCriticTransformerFlats/ActorCriticTransformerFlats/Transformer_0/scan/while_2/body/_334/jax2tf_apply_/ActorCriticTransformerFlats/ActorCriticTransformerFlats/Transformer_0/scan/while/body/strided_slice/stack_1", "shape": [1], "dtype": "int32"}, {"name": "StatefulPartitionedCall/jax2tf_apply_/ActorCriticTransformerFlats/ActorCriticTransformerFlats/Transformer_0/scan/while_2/body/_334/jax2tf_apply_/ActorCriticTransformerFlats/ActorCriticTransformerFlats/Transformer_0/scan/while/body/strided_slice/stack_2", "shape": [1], "dtype": "int32"}, {"name": "StatefulPartitionedCall/jax2tf_apply_/ActorCriticTransformerFlats/ActorCriticTransformerFlats/Transformer_0/scan/while_2/body/_334/jax2tf_apply_/ActorCriticTransformerFlats/ActorCriticTransformerFlats/Transformer_0/scan/while_2/Const_3", "shape": [], "dtype": "int32"}, {"name": "StatefulPartitionedCall/jax2tf_apply_/ActorCriticTransformerFlats/ActorCriticTransformerFlats/Transformer_0/scan/while_2/body/_334/jax2tf_apply_/ActorCriticTransformerFlats/ActorCriticTransformerFlats/Transformer_0/scan/while/body/Const_1", "shape": [], "dtype": "int32"}, {"name": "StatefulPartitionedCall/jax2tf_apply_/ActorCriticTransformerFlats/ActorCriticTransformerFlats/Transformer_0/scan/while_2/body/_334/jax2tf_apply_/ActorCriticTransformerFlats/ActorCriticTransformerFlats/Transformer_0/scan/while_2/Const", "shape": [], "dtype": "int32"}, {"name": "StatefulPartitionedCall/jax2tf_apply_/ActorCriticTransformerFlats/ActorCriticTransformerFlats/Transformer_0/scan/while_2/body/_334/jax2tf_apply_/ActorCriticTransformerFlats/ActorCriticTransformerFlats/Transformer_0/scan/while/body/Sub/y", "shape": [1], "dtype": "int32"}, {"name": "StatefulPartitionedCall/jax2tf_apply_/ActorCriticTransformerFlats/ActorCriticTransformerFlats/Transformer_0/scan/while_2/body/_334/jax2tf_apply_/ActorCriticTransformerFlats/ActorCriticTransformerFlats/Transformer_0/scan/while/body/clip_by_value/y", "shape": [], "dtype": "int32"}, {"name": "StatefulPartitionedCall/jax2tf_apply_/ActorCriticTransformerFlats/ActorCriticTransformerFlats/Transformer_0/scan/while_2/body/_334/jax2tf_apply_/ActorCriticTransformerFlats/ActorCriticTransformerFlats/Transformer_0/scan/while/body/Slice/size", "shape": [1], "dtype": "int32"}, {"name": "StatefulPartitionedCall/jax2tf_apply_/ActorCriticTransformerFlats/ActorCriticTransformerFlats/Transformer_0/scan/while_2/body/_334/jax2tf_apply_/ActorCriticTransformerFlats/ActorCriticTransformerFlats/Transformer_0/scan/while/body/Reshape/shape_1", "shape": [0], "dtype": "int32"}, {"name": "StatefulPartitionedCall/jax2tf_apply_/ActorCriticTransformerFlats/ActorCriticTransformerFlats/Transformer_0/scan/while_2/body/_334/jax2tf_apply_/ActorCriticTransformerFlats/ActorCriticTransformerFlats/Transformer_0/scan/while/body/Reshape_2/shape", "shape": [1], "dtype": "int32"}, {"name": "StatefulPartitionedCall/jax2tf_apply_/ActorCriticTransformerFlats/ActorCriticTransformerFlats/Transformer_0/scan/while_2/body/_334/jax2tf_apply_/ActorCriticTransformerFlats/ActorCriticTransformerFlats/Transformer_0/scan/while_2/Const_1", "shape": [], "dtype": "int32"}, {"name": "StatefulPartitionedCall/jax2tf_apply_/ActorCriticTransformerFlats/ActorCriticTransformerFlats/Transformer_0/scan/while_2/body/_334/jax2tf_apply_/ActorCriticTransformerFlats/ActorCriticTransformerFlats/Transformer_0/scan/while_2/Const_2", "shape": [], "dtype": "int32"}, {"name": "StatefulPartitionedCall/jax2tf_apply_/ActorCriticTransformerFlats/ActorCriticTransformerFlats/Transformer_0/scan/while_2/body/_334/jax2tf_apply_/ActorCriticTransformerFlats/ActorCriticTransformerFlats/Transformer_0/scan/while/body/Sub_1/x/1", "shape": [], "dtype": "int32"}, {"name": "StatefulPartitionedCall/jax2tf_apply_/ActorCriticTransformerFlats/ActorCriticTransformerFlats/Transformer_0/scan/while_2/body/_334/jax2tf_apply_/ActorCriticTransformerFlats/ActorCriticTransformerFlats/Transformer_0/scan/while/body/Sub_1/y", "shape": [2], "dtype": "int32"}, {"name": "StatefulPartitionedCall/jax2tf_apply_/ActorCriticTransformerFlats/ActorCriticTransformerFlats/Transformer_0/scan/while_2/body/_334/jax2tf_apply_/ActorCriticTransformerFlats/ActorCriticTransformerFlats/Transformer_0/scan/while/body/clip_by_value_1/y", "shape": [], "dtype": "int32"}, {"name": "StatefulPartitionedCall/jax2tf_apply_/ActorCriticTransformerFlats/ActorCriticTransformerFlats/Transformer_0/scan/while_2/body/_334/jax2tf_apply_/ActorCriticTransformerFlats/ActorCriticTransformerFlats/Transformer_0/scan/while/body/Slice_1/size", "shape": [2], "dtype": "int32"}, {"name": "StatefulPartitionedCall/jax2tf_apply_/ActorCriticTransformerFlats/ActorCriticTransformerFlats/Transformer_0/scan/while_2/body/_334/jax2tf_apply_/ActorCriticTransformerFlats/ActorCriticTransformerFlats/Transformer_0/scan/while/body/Reshape_1/shape", "shape": [1], "dtype": "int32"}, {"name": "StatefulPartitionedCall/jax2tf_apply_/ActorCriticTransformerFlats/ActorCriticTransformerFlats/Transformer_0/scan/while_2/body/_334/jax2tf_apply_/ActorCriticTransformerFlats/ActorCriticTransformerFlats/Transformer_0/scan/while/body/strided_slice_1/stack", "shape": [1], "dtype": "int32"}, {"name": "StatefulPartitionedCall/jax2tf_apply_/ActorCriticTransformerFlats/ActorCriticTransformerFlats/Transformer_0/scan/while_2/body/_334/jax2tf_apply_/ActorCriticTransformerFlats/ActorCriticTransformerFlats/Transformer_0/scan/while/body/strided_slice_1/stack_1", "shape": [1], "dtype": "int32"}, {"name": "StatefulPartitionedCall/jax2tf_apply_/ActorCriticTransformerFlats/ActorCriticTransformerFlats/Transformer_0/scan/while_2/body/_334/jax2tf_apply_/ActorCriticTransformerFlats/ActorCriticTransformerFlats/Transformer_0/scan/while/body/strided_slice_1/stack_2", "shape": [1], "dtype": "int32"}, {"name": "StatefulPartitionedCall/jax2tf_apply_/ActorCriticTransformerFlats/ActorCriticTransformerFlats/Transformer_0/scan/while_2/body/_334/jax2tf_apply_/ActorCriticTransformerFlats/ActorCriticTransformerFlats/Transformer_0/scan/while_2/Const_4", "shape": [], "dtype": "int32"}, {"name": "StatefulPartitionedCall/jax2tf_apply_/ActorCriticTransformerFlats/ActorCriticTransformerFlats/Transformer_0/scan/while_2/body/_334/jax2tf_apply_/ActorCriticTransformerFlats/ActorCriticTransformerFlats/Transformer_0/scan/while_2/add/y", "shape": [], "dtype": "int32"}, {"name": "StatefulPartitionedCall/jax2tf_apply_/ActorCriticTransformerFlats/ActorCriticTransformerFlats/Transformer_0/scan/while/body/_234/jax2tf_apply_/ActorCriticTransformerFlats/ActorCriticTransformerFlats/Transformer_0/scan/while/body/strided_slice/stack", "shape": [1], "dtype": "int32"}, {"name": "StatefulPartitionedCall/jax2tf_apply_/ActorCriticTransformerFlats/ActorCriticTransformerFlats/Transformer_0/scan/while/body/_234/jax2tf_apply_/ActorCriticTransformerFlats/ActorCriticTransformerFlats/Transformer_0/scan/while/body/strided_slice/stack_1", "shape": [1], "dtype": "int32"}, {"name": "StatefulPartitionedCall/jax2tf_apply_/ActorCriticTransformerFlats/ActorCriticTransformerFlats/Transformer_0/scan/while/body/_234/jax2tf_apply_/ActorCriticTransformerFlats/ActorCriticTransformerFlats/Transformer_0/scan/while/body/strided_slice/stack_2", "shape": [1], "dtype": "int32"}, {"name": "StatefulPartitionedCall/jax2tf_apply_/ActorCriticTransformerFlats/ActorCriticTransformerFlats/Transformer_0/scan/while/body/_234/jax2tf_apply_/ActorCriticTransformerFlats/ActorCriticTransformerFlats/Transformer_0/scan/while/Const_3", "shape": [], "dtype": "int32"}, {"name": "StatefulPartitionedCall/jax2tf_apply_/ActorCriticTransformerFlats/ActorCriticTransformerFlats/Transformer_0/scan/while/body/_234/jax2tf_apply_/ActorCriticTransformerFlats/ActorCriticTransformerFlats/Transformer_0/scan/while/body/Const_1", "shape": [], "dtype": "int32"}, {"name": "StatefulPartitionedCall/jax2tf_apply_/ActorCriticTransformerFlats/ActorCriticTransformerFlats/Transformer_0/scan/while/body/_234/jax2tf_apply_/ActorCriticTransformerFlats/ActorCriticTransformerFlats/Transformer_0/scan/while/Const", "shape": [], "dtype": "int32"}, {"name": "StatefulPartitionedCall/jax2tf_apply_/ActorCriticTransformerFlats/ActorCriticTransformerFlats/Transformer_0/scan/while/body/_234/jax2tf_apply_/ActorCriticTransformerFlats/ActorCriticTransformerFlats/Transformer_0/scan/while/body/Sub/y", "shape": [1], "dtype": "int32"}, {"name": "StatefulPartitionedCall/jax2tf_apply_/ActorCriticTransformerFlats/ActorCriticTransformerFlats/Transformer_0/scan/while/body/_234/jax2tf_apply_/ActorCriticTransformerFlats/ActorCriticTransformerFlats/Transformer_0/scan/while/body/clip_by_value/y", "shape": [], "dtype": "int32"}, {"name": "StatefulPartitionedCall/jax2tf_apply_/ActorCriticTransformerFlats/ActorCriticTransformerFlats/Transformer_0/scan/while/body/_234/jax2tf_apply_/ActorCriticTransformerFlats/ActorCriticTransformerFlats/Transformer_0/scan/while/body/Slice/size", "shape": [1], "dtype": "int32"}, {"name": "StatefulPartitionedCall/jax2tf_apply_/ActorCriticTransformerFlats/ActorCriticTransformerFlats/Transformer_0/scan/while/body/_234/jax2tf_apply_/ActorCriticTransformerFlats/ActorCriticTransformerFlats/Transformer_0/scan/while/body/Reshape/shape_1", "shape": [0], "dtype": "int32"}, {"name": "StatefulPartitionedCall/jax2tf_apply_/ActorCriticTransformerFlats/ActorCriticTransformerFlats/Transformer_0/scan/while/body/_234/jax2tf_apply_/ActorCriticTransformerFlats/ActorCriticTransformerFlats/Transformer_0/scan/while/body/Reshape_2/shape", "shape": [1], "dtype": "int32"}, {"name": "StatefulPartitionedCall/jax2tf_apply_/ActorCriticTransformerFlats/ActorCriticTransformerFlats/Transformer_0/scan/while/body/_234/jax2tf_apply_/ActorCriticTransformerFlats/ActorCriticTransformerFlats/Transformer_0/scan/while/Const_1", "shape": [], "dtype": "int32"}, {"name": "StatefulPartitionedCall/jax2tf_apply_/ActorCriticTransformerFlats/ActorCriticTransformerFlats/Transformer_0/scan/while/body/_234/jax2tf_apply_/ActorCriticTransformerFlats/ActorCriticTransformerFlats/Transformer_0/scan/while/Const_2", "shape": [], "dtype": "int32"}, {"name": "StatefulPartitionedCall/jax2tf_apply_/ActorCriticTransformerFlats/ActorCriticTransformerFlats/Transformer_0/scan/while/body/_234/jax2tf_apply_/ActorCriticTransformerFlats/ActorCriticTransformerFlats/Transformer_0/scan/while/body/Sub_1/x/1", "shape": [], "dtype": "int32"}, {"name": "StatefulPartitionedCall/jax2tf_apply_/ActorCriticTransformerFlats/ActorCriticTransformerFlats/Transformer_0/scan/while/body/_234/jax2tf_apply_/ActorCriticTransformerFlats/ActorCriticTransformerFlats/Transformer_0/scan/while/body/Sub_1/y", "shape": [2], "dtype": "int32"}, {"name": "StatefulPartitionedCall/jax2tf_apply_/ActorCriticTransformerFlats/ActorCriticTransformerFlats/Transformer_0/scan/while/body/_234/jax2tf_apply_/ActorCriticTransformerFlats/ActorCriticTransformerFlats/Transformer_0/scan/while/body/clip_by_value_1/y", "shape": [], "dtype": "int32"}, {"name": "StatefulPartitionedCall/jax2tf_apply_/ActorCriticTransformerFlats/ActorCriticTransformerFlats/Transformer_0/scan/while/body/_234/jax2tf_apply_/ActorCriticTransformerFlats/ActorCriticTransformerFlats/Transformer_0/scan/while/body/Slice_1/size", "shape": [2], "dtype": "int32"}, {"name": "StatefulPartitionedCall/jax2tf_apply_/ActorCriticTransformerFlats/ActorCriticTransformerFlats/Transformer_0/scan/while/body/_234/jax2tf_apply_/ActorCriticTransformerFlats/ActorCriticTransformerFlats/Transformer_0/scan/while/body/Reshape_1/shape", "shape": [1], "dtype": "int32"}, {"name": "StatefulPartitionedCall/jax2tf_apply_/ActorCriticTransformerFlats/ActorCriticTransformerFlats/Transformer_0/scan/while/body/_234/jax2tf_apply_/ActorCriticTransformerFlats/ActorCriticTransformerFlats/Transformer_0/scan/while/body/strided_slice_1/stack", "shape": [1], "dtype": "int32"}, {"name": "StatefulPartitionedCall/jax2tf_apply_/ActorCriticTransformerFlats/ActorCriticTransformerFlats/Transformer_0/scan/while/body/_234/jax2tf_apply_/ActorCriticTransformerFlats/ActorCriticTransformerFlats/Transformer_0/scan/while/body/strided_slice_1/stack_1", "shape": [1], "dtype": "int32"}, {"name": "StatefulPartitionedCall/jax2tf_apply_/ActorCriticTransformerFlats/ActorCriticTransformerFlats/Transformer_0/scan/while/body/_234/jax2tf_apply_/ActorCriticTransformerFlats/ActorCriticTransformerFlats/Transformer_0/scan/while/body/strided_slice_1/stack_2", "shape": [1], "dtype": "int32"}, {"name": "StatefulPartitionedCall/jax2tf_apply_/ActorCriticTransformerFlats/ActorCriticTransformerFlats/Transformer_0/scan/while/body/_234/jax2tf_apply_/ActorCriticTransformerFlats/ActorCriticTransformerFlats/Transformer_0/scan/while/Const_4", "shape": [], "dtype": "int32"}, {"name": "StatefulPartitionedCall/jax2tf_apply_/ActorCriticTransformerFlats/ActorCriticTransformerFlats/Transformer_0/scan/while/body/_234/jax2tf_apply_/ActorCriticTransformerFlats/ActorCriticTransformerFlats/Transformer_0/scan/while/add/y", "shape": [], "dtype": "int32"}, {"name": "StatefulPartitionedCall/jax2tf_apply_/ActorCriticTransformerFlats/ActorCriticTransformerFlats/Transformer_0/scan/while_1/body/_284/jax2tf_apply_/ActorCriticTransformerFlats/ActorCriticTransformerFlats/Transformer_0/scan/while/body/strided_slice/stack", "shape": [1], "dtype": "int32"}, {"name": "StatefulPartitionedCall/jax2tf_apply_/ActorCriticTransformerFlats/ActorCriticTransformerFlats/Transformer_0/scan/while_1/body/_284/jax2tf_apply_/ActorCriticTransformerFlats/ActorCriticTransformerFlats/Transformer_0/scan/while/body/strided_slice/stack_1", "shape": [1], "dtype": "int32"}, {"name": "StatefulPartitionedCall/jax2tf_apply_/ActorCriticTransformerFlats/ActorCriticTransformerFlats/Transformer_0/scan/while_1/body/_284/jax2tf_apply_/ActorCriticTransformerFlats/ActorCriticTransformerFlats/Transformer_0/scan/while/body/strided_slice/stack_2", "shape": [1], "dtype": "int32"}, {"name": "StatefulPartitionedCall/jax2tf_apply_/ActorCriticTransformerFlats/ActorCriticTransformerFlats/Transformer_0/scan/while_1/body/_284/jax2tf_apply_/ActorCriticTransformerFlats/ActorCriticTransformerFlats/Transformer_0/scan/while_1/Const_3", "shape": [], "dtype": "int32"}, {"name": "StatefulPartitionedCall/jax2tf_apply_/ActorCriticTransformerFlats/ActorCriticTransformerFlats/Transformer_0/scan/while_1/body/_284/jax2tf_apply_/ActorCriticTransformerFlats/ActorCriticTransformerFlats/Transformer_0/scan/while/body/Const_1", "shape": [], "dtype": "int32"}, {"name": "StatefulPartitionedCall/jax2tf_apply_/ActorCriticTransformerFlats/ActorCriticTransformerFlats/Transformer_0/scan/while_1/body/_284/jax2tf_apply_/ActorCriticTransformerFlats/ActorCriticTransformerFlats/Transformer_0/scan/while_1/Const", "shape": [], "dtype": "int32"}, {"name": "StatefulPartitionedCall/jax2tf_apply_/ActorCriticTransformerFlats/ActorCriticTransformerFlats/Transformer_0/scan/while_1/body/_284/jax2tf_apply_/ActorCriticTransformerFlats/ActorCriticTransformerFlats/Transformer_0/scan/while/body/Sub/y", "shape": [1], "dtype": "int32"}, {"name": "StatefulPartitionedCall/jax2tf_apply_/ActorCriticTransformerFlats/ActorCriticTransformerFlats/Transformer_0/scan/while_1/body/_284/jax2tf_apply_/ActorCriticTransformerFlats/ActorCriticTransformerFlats/Transformer_0/scan/while/body/clip_by_value/y", "shape": [], "dtype": "int32"}, {"name": "StatefulPartitionedCall/jax2tf_apply_/ActorCriticTransformerFlats/ActorCriticTransformerFlats/Transformer_0/scan/while_1/body/_284/jax2tf_apply_/ActorCriticTransformerFlats/ActorCriticTransformerFlats/Transformer_0/scan/while/body/Slice/size", "shape": [1], "dtype": "int32"}, {"name": "StatefulPartitionedCall/jax2tf_apply_/ActorCriticTransformerFlats/ActorCriticTransformerFlats/Transformer_0/scan/while_1/body/_284/jax2tf_apply_/ActorCriticTransformerFlats/ActorCriticTransformerFlats/Transformer_0/scan/while/body/Reshape/shape_1", "shape": [0], "dtype": "int32"}, {"name": "StatefulPartitionedCall/jax2tf_apply_/ActorCriticTransformerFlats/ActorCriticTransformerFlats/Transformer_0/scan/while_1/body/_284/jax2tf_apply_/ActorCriticTransformerFlats/ActorCriticTransformerFlats/Transformer_0/scan/while/body/Reshape_2/shape", "shape": [1], "dtype": "int32"}, {"name": "StatefulPartitionedCall/jax2tf_apply_/ActorCriticTransformerFlats/ActorCriticTransformerFlats/Transformer_0/scan/while_1/body/_284/jax2tf_apply_/ActorCriticTransformerFlats/ActorCriticTransformerFlats/Transformer_0/scan/while_1/Const_1", "shape": [], "dtype": "int32"}, {"name": "StatefulPartitionedCall/jax2tf_apply_/ActorCriticTransformerFlats/ActorCriticTransformerFlats/Transformer_0/scan/while_1/body/_284/jax2tf_apply_/ActorCriticTransformerFlats/ActorCriticTransformerFlats/Transformer_0/scan/while_1/Const_2", "shape": [], "dtype": "int32"}, {"name": "StatefulPartitionedCall/jax2tf_apply_/ActorCriticTransformerFlats/ActorCriticTransformerFlats/Transformer_0/scan/while_1/body/_284/jax2tf_apply_/ActorCriticTransformerFlats/ActorCriticTransformerFlats/Transformer_0/scan/while/body/Sub_1/x/1", "shape": [], "dtype": "int32"}, {"name": "StatefulPartitionedCall/jax2tf_apply_/ActorCriticTransformerFlats/ActorCriticTransformerFlats/Transformer_0/scan/while_1/body/_284/jax2tf_apply_/ActorCriticTransformerFlats/ActorCriticTransformerFlats/Transformer_0/scan/while/body/Sub_1/y", "shape": [2], "dtype": "int32"}, {"name": "StatefulPartitionedCall/jax2tf_apply_/ActorCriticTransformerFlats/ActorCriticTransformerFlats/Transformer_0/scan/while_1/body/_284/jax2tf_apply_/ActorCriticTransformerFlats/ActorCriticTransformerFlats/Transformer_0/scan/while/body/clip_by_value_1/y", "shape": [], "dtype": "int32"}, {"name": "StatefulPartitionedCall/jax2tf_apply_/ActorCriticTransformerFlats/ActorCriticTransformerFlats/Transformer_0/scan/while_1/body/_284/jax2tf_apply_/ActorCriticTransformerFlats/ActorCriticTransformerFlats/Transformer_0/scan/while/body/Slice_1/size", "shape": [2], "dtype": "int32"}, {"name": "StatefulPartitionedCall/jax2tf_apply_/ActorCriticTransformerFlats/ActorCriticTransformerFlats/Transformer_0/scan/while_1/body/_284/jax2tf_apply_/ActorCriticTransformerFlats/ActorCriticTransformerFlats/Transformer_0/scan/while/body/Reshape_1/shape", "shape": [1], "dtype": "int32"}, {"name": "StatefulPartitionedCall/jax2tf_apply_/ActorCriticTransformerFlats/ActorCriticTransformerFlats/Transformer_0/scan/while_1/body/_284/jax2tf_apply_/ActorCriticTransformerFlats/ActorCriticTransformerFlats/Transformer_0/scan/while/body/strided_slice_1/stack", "shape": [1], "dtype": "int32"}, {"name": "StatefulPartitionedCall/jax2tf_apply_/ActorCriticTransformerFlats/ActorCriticTransformerFlats/Transformer_0/scan/while_1/body/_284/jax2tf_apply_/ActorCriticTransformerFlats/ActorCriticTransformerFlats/Transformer_0/scan/while/body/strided_slice_1/stack_1", "shape": [1], "dtype": "int32"}, {"name": "StatefulPartitionedCall/jax2tf_apply_/ActorCriticTransformerFlats/ActorCriticTransformerFlats/Transformer_0/scan/while_1/body/_284/jax2tf_apply_/ActorCriticTransformerFlats/ActorCriticTransformerFlats/Transformer_0/scan/while/body/strided_slice_1/stack_2", "shape": [1], "dtype": "int32"}, {"name": "StatefulPartitionedCall/jax2tf_apply_/ActorCriticTransformerFlats/ActorCriticTransformerFlats/Transformer_0/scan/while_1/body/_284/jax2tf_apply_/ActorCriticTransformerFlats/ActorCriticTransformerFlats/Transformer_0/scan/while_1/Const_4", "shape": [], "dtype": "int32"}, {"name": "StatefulPartitionedCall/jax2tf_apply_/ActorCriticTransformerFlats/ActorCriticTransformerFlats/Transformer_0/scan/while_1/body/_284/jax2tf_apply_/ActorCriticTransformerFlats/ActorCriticTransformerFlats/Transformer_0/scan/while_1/add/y", "shape": [], "dtype": "int32"}, {"name": "StatefulPartitionedCall/jax2tf_apply_/ActorCriticTransformerFlats/ActorCriticTransformerFlats/Transformer_0/scan/while_3/body/_384/jax2tf_apply_/ActorCriticTransformerFlats/ActorCriticTransformerFlats/Transformer_0/scan/while/body/strided_slice/stack", "shape": [1], "dtype": "int32"}, {"name": "StatefulPartitionedCall/jax2tf_apply_/ActorCriticTransformerFlats/ActorCriticTransformerFlats/Transformer_0/scan/while_3/body/_384/jax2tf_apply_/ActorCriticTransformerFlats/ActorCriticTransformerFlats/Transformer_0/scan/while/body/strided_slice/stack_1", "shape": [1], "dtype": "int32"}, {"name": "StatefulPartitionedCall/jax2tf_apply_/ActorCriticTransformerFlats/ActorCriticTransformerFlats/Transformer_0/scan/while_3/body/_384/jax2tf_apply_/ActorCriticTransformerFlats/ActorCriticTransformerFlats/Transformer_0/scan/while/body/strided_slice/stack_2", "shape": [1], "dtype": "int32"}, {"name": "StatefulPartitionedCall/jax2tf_apply_/ActorCriticTransformerFlats/ActorCriticTransformerFlats/Transformer_0/scan/while_3/body/_384/jax2tf_apply_/ActorCriticTransformerFlats/ActorCriticTransformerFlats/Transformer_0/scan/while_3/Const_3", "shape": [], "dtype": "int32"}, {"name": "StatefulPartitionedCall/jax2tf_apply_/ActorCriticTransformerFlats/ActorCriticTransformerFlats/Transformer_0/scan/while_3/body/_384/jax2tf_apply_/ActorCriticTransformerFlats/ActorCriticTransformerFlats/Transformer_0/scan/while/body/Const_1", "shape": [], "dtype": "int32"}, {"name": "StatefulPartitionedCall/jax2tf_apply_/ActorCriticTransformerFlats/ActorCriticTransformerFlats/Transformer_0/scan/while_3/body/_384/jax2tf_apply_/ActorCriticTransformerFlats/ActorCriticTransformerFlats/Transformer_0/scan/while_3/Const", "shape": [], "dtype": "int32"}, {"name": "StatefulPartitionedCall/jax2tf_apply_/ActorCriticTransformerFlats/ActorCriticTransformerFlats/Transformer_0/scan/while_3/body/_384/jax2tf_apply_/ActorCriticTransformerFlats/ActorCriticTransformerFlats/Transformer_0/scan/while/body/Sub/y", "shape": [1], "dtype": "int32"}, {"name": "StatefulPartitionedCall/jax2tf_apply_/ActorCriticTransformerFlats/ActorCriticTransformerFlats/Transformer_0/scan/while_3/body/_384/jax2tf_apply_/ActorCriticTransformerFlats/ActorCriticTransformerFlats/Transformer_0/scan/while/body/clip_by_value/y", "shape": [], "dtype": "int32"}, {"name": "StatefulPartitionedCall/jax2tf_apply_/ActorCriticTransformerFlats/ActorCriticTransformerFlats/Transformer_0/scan/while_3/body/_384/jax2tf_apply_/ActorCriticTransformerFlats/ActorCriticTransformerFlats/Transformer_0/scan/while/body/Slice/size", "shape": [1], "dtype": "int32"}, {"name": "StatefulPartitionedCall/jax2tf_apply_/ActorCriticTransformerFlats/ActorCriticTransformerFlats/Transformer_0/scan/while_3/body/_384/jax2tf_apply_/ActorCriticTransformerFlats/ActorCriticTransformerFlats/Transformer_0/scan/while/body/Reshape/shape_1", "shape": [0], "dtype": "int32"}, {"name": "StatefulPartitionedCall/jax2tf_apply_/ActorCriticTransformerFlats/ActorCriticTransformerFlats/Transformer_0/scan/while_3/body/_384/jax2tf_apply_/ActorCriticTransformerFlats/ActorCriticTransformerFlats/Transformer_0/scan/while/body/Reshape_2/shape", "shape": [1], "dtype": "int32"}, {"name": "StatefulPartitionedCall/jax2tf_apply_/ActorCriticTransformerFlats/ActorCriticTransformerFlats/Transformer_0/scan/while_3/body/_384/jax2tf_apply_/ActorCriticTransformerFlats/ActorCriticTransformerFlats/Transformer_0/scan/while_3/Const_1", "shape": [], "dtype": "int32"}, {"name": "StatefulPartitionedCall/jax2tf_apply_/ActorCriticTransformerFlats/ActorCriticTransformerFlats/Transformer_0/scan/while_3/body/_384/jax2tf_apply_/ActorCriticTransformerFlats/ActorCriticTransformerFlats/Transformer_0/scan/while_3/Const_2", "shape": [], "dtype": "int32"}, {"name": "StatefulPartitionedCall/jax2tf_apply_/ActorCriticTransformerFlats/ActorCriticTransformerFlats/Transformer_0/scan/while_3/body/_384/jax2tf_apply_/ActorCriticTransformerFlats/ActorCriticTransformerFlats/Transformer_0/scan/while/body/Sub_1/x/1", "shape": [], "dtype": "int32"}, {"name": "StatefulPartitionedCall/jax2tf_apply_/ActorCriticTransformerFlats/ActorCriticTransformerFlats/Transformer_0/scan/while_3/body/_384/jax2tf_apply_/ActorCriticTransformerFlats/ActorCriticTransformerFlats/Transformer_0/scan/while/body/Sub_1/y", "shape": [2], "dtype": "int32"}, {"name": "StatefulPartitionedCall/jax2tf_apply_/ActorCriticTransformerFlats/ActorCriticTransformerFlats/Transformer_0/scan/while_3/body/_384/jax2tf_apply_/ActorCriticTransformerFlats/ActorCriticTransformerFlats/Transformer_0/scan/while/body/clip_by_value_1/y", "shape": [], "dtype": "int32"}, {"name": "StatefulPartitionedCall/jax2tf_apply_/ActorCriticTransformerFlats/ActorCriticTransformerFlats/Transformer_0/scan/while_3/body/_384/jax2tf_apply_/ActorCriticTransformerFlats/ActorCriticTransformerFlats/Transformer_0/scan/while/body/Slice_1/size", "shape": [2], "dtype": "int32"}, {"name": "StatefulPartitionedCall/jax2tf_apply_/ActorCriticTransformerFlats/ActorCriticTransformerFlats/Transformer_0/scan/while_3/body/_384/jax2tf_apply_/ActorCriticTransformerFlats/ActorCriticTransformerFlats/Transformer_0/scan/while/body/Reshape_1/shape", "shape": [1], "dtype": "int32"}, {"name": "StatefulPartitionedCall/jax2tf_apply_/ActorCriticTransformerFlats/ActorCriticTransformerFlats/Transformer_0/scan/while_3/body/_384/jax2tf_apply_/ActorCriticTransformerFlats/ActorCriticTransformerFlats/Transformer_0/scan/while/body/strided_slice_1/stack", "shape": [1], "dtype": "int32"}, {"name": "StatefulPartitionedCall/jax2tf_apply_/ActorCriticTransformerFlats/ActorCriticTransformerFlats/Transformer_0/scan/while_3/body/_384/jax2tf_apply_/ActorCriticTransformerFlats/ActorCriticTransformerFlats/Transformer_0/scan/while/body/strided_slice_1/stack_1", "shape": [1], "dtype": "int32"}, {"name": "StatefulPartitionedCall/jax2tf_apply_/ActorCriticTransformerFlats/ActorCriticTransformerFlats/Transformer_0/scan/while_3/body/_384/jax2tf_apply_/ActorCriticTransformerFlats/ActorCriticTransformerFlats/Transformer_0/scan/while/body/strided_slice_1/stack_2", "shape": [1], "dtype": "int32"}, {"name": "StatefulPartitionedCall/jax2tf_apply_/ActorCriticTransformerFlats/ActorCriticTransformerFlats/Transformer_0/scan/while_3/body/_384/jax2tf_apply_/ActorCriticTransformerFlats/ActorCriticTransformerFlats/Transformer_0/scan/while_3/Const_4", "shape": [], "dtype": "int32"}, {"name": "StatefulPartitionedCall/jax2tf_apply_/ActorCriticTransformerFlats/ActorCriticTransformerFlats/Transformer_0/scan/while_3/body/_384/jax2tf_apply_/ActorCriticTransformerFlats/ActorCriticTransformerFlats/Transformer_0/scan/while_3/add/y", "shape": [], "dtype": "int32"}, {"name": "ConstantFolding/StatefulPartitionedCall/jax2tf_apply_/ActorCriticTransformerFlats/ActorCriticTransformerFlats/Transformer_0/scan/while_2/body/_334/jax2tf_apply_/ActorCriticTransformerFlats/ActorCriticTransformerFlats/Transformer_0/scan/while/body/Sub/x_const_axis", "shape": [], "dtype": "int32"}, {"name": "ConstantFolding/StatefulPartitionedCall/jax2tf_apply_/ActorCriticTransformerFlats/ActorCriticTransformerFlats/Transformer_0/scan/while/body/_234/jax2tf_apply_/ActorCriticTransformerFlats/ActorCriticTransformerFlats/Transformer_0/scan/while/body/Sub/x_const_axis", "shape": [], "dtype": "int32"}, {"name": "ConstantFolding/StatefulPartitionedCall/jax2tf_apply_/ActorCriticTransformerFlats/ActorCriticTransformerFlats/Transformer_0/scan/while_1/body/_284/jax2tf_apply_/ActorCriticTransformerFlats/ActorCriticTransformerFlats/Transformer_0/scan/while/body/Sub/x_const_axis", "shape": [], "dtype": "int32"}, {"name": "ConstantFolding/StatefulPartitionedCall/jax2tf_apply_/ActorCriticTransformerFlats/ActorCriticTransformerFlats/Transformer_0/scan/while_3/body/_384/jax2tf_apply_/ActorCriticTransformerFlats/ActorCriticTransformerFlats/Transformer_0/scan/while/body/Sub/x_const_axis", "shape": [], "dtype": "int32"}, {"name": "StatefulPartitionedCall/jax2tf_apply_/assert_equal_3/Assert/AssertGuard/pivot_f/_126", "shape": [], "dtype": "bool"}, {"name": "StatefulPartitionedCall/jax2tf_apply_/assert_equal_3/Assert/AssertGuard/pivot_t/_127", "shape": [], "dtype": "bool"}, {"name": "ConstantFolding/StatefulPartitionedCall/jax2tf_apply_/ActorCriticTransformerFlats/ActorCriticTransformerFlats/Transformer_0/scan/while_2/body/_334/jax2tf_apply_/ActorCriticTransformerFlats/ActorCriticTransformerFlats/Transformer_0/scan/while/body/stack_const_axis", "shape": [], "dtype": "int32"}, {"name": "ConstantFolding/StatefulPartitionedCall/jax2tf_apply_/ActorCriticTransformerFlats/ActorCriticTransformerFlats/Transformer_0/scan/while/body/_234/jax2tf_apply_/ActorCriticTransformerFlats/ActorCriticTransformerFlats/Transformer_0/scan/while/body/stack_const_axis", "shape": [], "dtype": "int32"}, {"name": "ConstantFolding/StatefulPartitionedCall/jax2tf_apply_/ActorCriticTransformerFlats/ActorCriticTransformerFlats/Transformer_0/scan/while_1/body/_284/jax2tf_apply_/ActorCriticTransformerFlats/ActorCriticTransformerFlats/Transformer_0/scan/while/body/stack_const_axis", "shape": [], "dtype": "int32"}, {"name": "ConstantFolding/StatefulPartitionedCall/jax2tf_apply_/ActorCriticTransformerFlats/ActorCriticTransformerFlats/Transformer_0/scan/while_3/body/_384/jax2tf_apply_/ActorCriticTransformerFlats/ActorCriticTransformerFlats/Transformer_0/scan/while/body/stack_const_axis", "shape": [], "dtype": "int32"}, {"name": "StatefulPartitionedCall/jax2tf_apply_/assert_equal_5/Assert/AssertGuard/pivot_f/_136", "shape": [], "dtype": "bool"}, {"name": "StatefulPartitionedCall/jax2tf_apply_/assert_equal_5/Assert/AssertGuard/pivot_t/_137", "shape": [], "dtype": "bool"}, {"name": "StatefulPartitionedCall/jax2tf_apply_/assert_equal_7/Assert/AssertGuard/pivot_f/_146", "shape": [], "dtype": "bool"}, {"name": "StatefulPartitionedCall/jax2tf_apply_/assert_equal_7/Assert/AssertGuard/pivot_t/_147", "shape": [], "dtype": "bool"}, {"name": "StatefulPartitionedCall/jax2tf_apply_/assert_equal_9/Assert/AssertGuard/pivot_f/_156", "shape": [], "dtype": "bool"}, {"name": "StatefulPartitionedCall/jax2tf_apply_/assert_equal_9/Assert/AssertGuard/pivot_t/_157", "shape": [], "dtype": "bool"}, {"name": "StatefulPartitionedCall/jax2tf_apply_/assert_equal_11/Assert/AssertGuard/pivot_f/_166", "shape": [], "dtype": "bool"}, {"name": "StatefulPartitionedCall/jax2tf_apply_/assert_equal_11/Assert/AssertGuard/pivot_t/_167", "shape": [], "dtype": "bool"}, {"name": "StatefulPartitionedCall/jax2tf_apply_/assert_equal_13/Assert/AssertGuard/pivot_f/_176", "shape": [], "dtype": "bool"}, {"name": "StatefulPartitionedCall/jax2tf_apply_/assert_equal_13/Assert/AssertGuard/pivot_t/_177", "shape": [], "dtype": "bool"}, {"name": "StatefulPartitionedCall/jax2tf_apply_/assert_equal_15/Assert/AssertGuard/pivot_f/_186", "shape": [], "dtype": "bool"}, {"name": "StatefulPartitionedCall/jax2tf_apply_/assert_equal_15/Assert/AssertGuard/pivot_t/_187", "shape": [], "dtype": "bool"}, {"name": "StatefulPartitionedCall/jax2tf_apply_/assert_equal_17/Assert/AssertGuard/pivot_f/_196", "shape": [], "dtype": "bool"}, {"name": "StatefulPartitionedCall/jax2tf_apply_/assert_equal_17/Assert/AssertGuard/pivot_t/_197", "shape": [], "dtype": "bool"}, {"name": "StatefulPartitionedCall/jax2tf_apply_/assert_equal_19/Assert/AssertGuard/pivot_f/_206", "shape": [], "dtype": "bool"}, {"name": "StatefulPartitionedCall/jax2tf_apply_/assert_equal_19/Assert/AssertGuard/pivot_t/_207", "shape": [], "dtype": "bool"}, {"name": "StatefulPartitionedCall/jax2tf_apply_/assert_equal_21/Assert/AssertGuard/pivot_f/_216", "shape": [], "dtype": "bool"}, {"name": "StatefulPartitionedCall/jax2tf_apply_/assert_equal_21/Assert/AssertGuard/pivot_t/_217", "shape": [], "dtype": "bool"}, {"name": "StatefulPartitionedCall/jax2tf_apply_/assert_equal_23/Assert/AssertGuard/pivot_f/_226", "shape": [], "dtype": "bool"}, {"name": "StatefulPartitionedCall/jax2tf_apply_/assert_equal_23/Assert/AssertGuard/pivot_t/_227", "shape": [], "dtype": "bool"}]}]}