{"format": "graph-model", "generatedBy": "2.17.0", "convertedBy": "TensorFlow.js Converter v4.21.0", "signature": {"inputs": {"xs_1": {"name": "xs_1:0", "dtype": "DT_FLOAT", "tensorShape": {"dim": [{"size": "1"}]}}, "xs_2": {"name": "xs_2:0", "dtype": "DT_FLOAT", "tensorShape": {"dim": [{"size": "679"}]}}, "xs_0": {"name": "xs_0:0", "dtype": "DT_FLOAT", "tensorShape": {"dim": [{"size": "1"}, {"size": "256"}]}}}, "outputs": {"output_2": {"name": "Identity_2:0", "dtype": "DT_FLOAT", "tensorShape": {}}, "output_1": {"name": "Identity_1:0", "dtype": "DT_FLOAT", "tensorShape": {"dim": [{"size": "16"}]}}, "output_0": {"name": "Identity:0", "dtype": "DT_FLOAT", "tensorShape": {"dim": [{"size": "1"}, {"size": "256"}]}}}}, "modelTopology": {"node": [{"name": "StatefulPartitionedCall/jax2tf_apply_/ActorCriticSymbolicRNN/GeneralActorCriticRNN_0/Dense_0/ExpandDims/dim", "op": "Const", "attr": {"value": {"tensor": {"dtype": "DT_INT32", "tensorShape": {}}}, "dtype": {"type": "DT_INT32"}}, "inputs": []}, {"name": "StatefulPartitionedCall/jax2tf_arg_3/ReadVariableOp", "op": "Const", "attr": {"value": {"tensor": {"dtype": "DT_FLOAT", "tensorShape": {"dim": [{"size": "128"}, {"size": "128"}]}}}, "dtype": {"type": "DT_FLOAT"}}, "inputs": []}, {"name": "StatefulPartitionedCall/jax2tf_arg_2/ReadVariableOp", "op": "Const", "attr": {"value": {"tensor": {"dtype": "DT_FLOAT", "tensorShape": {"dim": [{"size": "128"}]}}}, "dtype": {"type": "DT_FLOAT"}}, "inputs": []}, {"name": "StatefulPartitionedCall/jax2tf_apply_/ActorCriticSymbolicRNN/GeneralActorCriticRNN_0/Dense_2/ExpandDims/dim", "op": "Const", "attr": {"value": {"tensor": {"dtype": "DT_INT32", "tensorShape": {}}}, "dtype": {"type": "DT_INT32"}}, "inputs": []}, {"name": "StatefulPartitionedCall/jax2tf_arg_11/ReadVariableOp", "op": "Const", "attr": {"value": {"tensor": {"dtype": "DT_FLOAT", "tensorShape": {"dim": [{"size": "128"}, {"size": "128"}]}}}, "dtype": {"type": "DT_FLOAT"}}, "inputs": []}, {"name": "StatefulPartitionedCall/jax2tf_arg_10/ReadVariableOp", "op": "Const", "attr": {"value": {"tensor": {"dtype": "DT_FLOAT", "tensorShape": {"dim": [{"size": "128"}]}}}, "dtype": {"type": "DT_FLOAT"}}, "inputs": []}, {"name": "StatefulPartitionedCall/jax2tf_apply_/ActorCriticSymbolicRNN/GeneralActorCriticRNN_0/Dense_4/ExpandDims/dim", "op": "Const", "attr": {"value": {"tensor": {"dtype": "DT_INT32", "tensorShape": {}}}, "dtype": {"type": "DT_INT32"}}, "inputs": []}, {"name": "StatefulPartitionedCall/jax2tf_arg_15/ReadVariableOp", "op": "Const", "attr": {"value": {"tensor": {"dtype": "DT_FLOAT", "tensorShape": {"dim": [{"size": "128"}, {"size": "128"}]}}}, "dtype": {"type": "DT_FLOAT"}}, "inputs": []}, {"name": "StatefulPartitionedCall/jax2tf_arg_14/ReadVariableOp", "op": "Const", "attr": {"value": {"tensor": {"dtype": "DT_FLOAT", "tensorShape": {"dim": [{"size": "128"}]}}}, "dtype": {"type": "DT_FLOAT"}}, "inputs": []}, {"name": "StatefulPartitionedCall/jax2tf_apply_/ActorCriticSymbolicRNN/GeneralActorCriticRNN_0/Dense_6/ExpandDims/dim", "op": "Const", "attr": {"value": {"tensor": {"dtype": "DT_INT32", "tensorShape": {}}}, "dtype": {"type": "DT_INT32"}}, "inputs": []}, {"name": "StatefulPartitionedCall/jax2tf_arg_19/ReadVariableOp", "op": "Const", "attr": {"value": {"tensor": {"dtype": "DT_FLOAT", "tensorShape": {"dim": [{"size": "128"}, {"size": "128"}]}}}, "dtype": {"type": "DT_FLOAT"}}, "inputs": []}, {"name": "StatefulPartitionedCall/jax2tf_arg_18/ReadVariableOp", "op": "Const", "attr": {"value": {"tensor": {"dtype": "DT_FLOAT", "tensorShape": {"dim": [{"size": "128"}]}}}, "dtype": {"type": "DT_FLOAT"}}, "inputs": []}, {"name": "StatefulPartitionedCall/jax2tf_apply_/ActorCriticSymbolicRNN/GeneralActorCriticRNN_0/Dense_8/ExpandDims/dim", "op": "Const", "attr": {"value": {"tensor": {"dtype": "DT_INT32", "tensorShape": {}}}, "dtype": {"type": "DT_INT32"}}, "inputs": []}, {"name": "StatefulPartitionedCall/jax2tf_arg_23/ReadVariableOp", "op": "Const", "attr": {"value": {"tensor": {"dtype": "DT_FLOAT", "tensorShape": {"dim": [{"size": "128"}, {"size": "128"}]}}}, "dtype": {"type": "DT_FLOAT"}}, "inputs": []}, {"name": "StatefulPartitionedCall/jax2tf_arg_22/ReadVariableOp", "op": "Const", "attr": {"value": {"tensor": {"dtype": "DT_FLOAT", "tensorShape": {"dim": [{"size": "128"}]}}}, "dtype": {"type": "DT_FLOAT"}}, "inputs": []}, {"name": "StatefulPartitionedCall/jax2tf_apply_/ActorCriticSymbolicRNN/GeneralActorCriticRNN_0/Dense_10/ExpandDims/dim", "op": "Const", "attr": {"value": {"tensor": {"dtype": "DT_INT32", "tensorShape": {}}}, "dtype": {"type": "DT_INT32"}}, "inputs": []}, {"name": "StatefulPartitionedCall/jax2tf_arg_7/ReadVariableOp", "op": "Const", "attr": {"value": {"tensor": {"dtype": "DT_FLOAT", "tensorShape": {"dim": [{"size": "128"}, {"size": "16"}]}}}, "dtype": {"type": "DT_FLOAT"}}, "inputs": []}, {"name": "StatefulPartitionedCall/jax2tf_arg_6/ReadVariableOp", "op": "Const", "attr": {"value": {"tensor": {"dtype": "DT_FLOAT", "tensorShape": {"dim": [{"size": "16"}]}}}, "dtype": {"type": "DT_FLOAT"}}, "inputs": []}, {"name": "StatefulPartitionedCall/jax2tf_apply_/ActorCriticSymbolicRNN/Dense_0/ExpandDims/dim", "op": "Const", "attr": {"value": {"tensor": {"dtype": "DT_INT32", "tensorShape": {}}}, "dtype": {"type": "DT_INT32"}}, "inputs": []}, {"name": "StatefulPartitionedCall/jax2tf_arg_1/ReadVariableOp", "op": "Const", "attr": {"value": {"tensor": {"dtype": "DT_FLOAT", "tensorShape": {"dim": [{"size": "679"}, {"size": "128"}]}}}, "dtype": {"type": "DT_FLOAT"}}, "inputs": []}, {"name": "StatefulPartitionedCall/jax2tf_arg_0/ReadVariableOp", "op": "Const", "attr": {"value": {"tensor": {"dtype": "DT_FLOAT", "tensorShape": {"dim": [{"size": "128"}]}}}, "dtype": {"type": "DT_FLOAT"}}, "inputs": []}, {"name": "StatefulPartitionedCall/jax2tf_apply_/ActorCriticSymbolicRNN/Const", "op": "Const", "attr": {"value": {"tensor": {"dtype": "DT_FLOAT", "tensorShape": {}}}, "dtype": {"type": "DT_FLOAT"}}, "inputs": []}, {"name": "StatefulPartitionedCall/jax2tf_apply_/ActorCriticSymbolicRNN/GeneralActorCriticRNN_0/Dense_1/ExpandDims/dim", "op": "Const", "attr": {"value": {"tensor": {"dtype": "DT_INT32", "tensorShape": {}}}, "dtype": {"type": "DT_INT32"}}, "inputs": []}, {"name": "StatefulPartitionedCall/jax2tf_arg_5/ReadVariableOp", "op": "Const", "attr": {"value": {"tensor": {"dtype": "DT_FLOAT", "tensorShape": {"dim": [{"size": "128"}, {"size": "128"}]}}}, "dtype": {"type": "DT_FLOAT"}}, "inputs": []}, {"name": "StatefulPartitionedCall/jax2tf_arg_4/ReadVariableOp", "op": "Const", "attr": {"value": {"tensor": {"dtype": "DT_FLOAT", "tensorShape": {"dim": [{"size": "128"}]}}}, "dtype": {"type": "DT_FLOAT"}}, "inputs": []}, {"name": "StatefulPartitionedCall/jax2tf_apply_/ActorCriticSymbolicRNN/GeneralActorCriticRNN_0/Dense_3/ExpandDims/dim", "op": "Const", "attr": {"value": {"tensor": {"dtype": "DT_INT32", "tensorShape": {}}}, "dtype": {"type": "DT_INT32"}}, "inputs": []}, {"name": "StatefulPartitionedCall/jax2tf_arg_13/ReadVariableOp", "op": "Const", "attr": {"value": {"tensor": {"dtype": "DT_FLOAT", "tensorShape": {"dim": [{"size": "128"}, {"size": "128"}]}}}, "dtype": {"type": "DT_FLOAT"}}, "inputs": []}, {"name": "StatefulPartitionedCall/jax2tf_arg_12/ReadVariableOp", "op": "Const", "attr": {"value": {"tensor": {"dtype": "DT_FLOAT", "tensorShape": {"dim": [{"size": "128"}]}}}, "dtype": {"type": "DT_FLOAT"}}, "inputs": []}, {"name": "StatefulPartitionedCall/jax2tf_apply_/ActorCriticSymbolicRNN/GeneralActorCriticRNN_0/Dense_5/ExpandDims/dim", "op": "Const", "attr": {"value": {"tensor": {"dtype": "DT_INT32", "tensorShape": {}}}, "dtype": {"type": "DT_INT32"}}, "inputs": []}, {"name": "StatefulPartitionedCall/jax2tf_arg_17/ReadVariableOp", "op": "Const", "attr": {"value": {"tensor": {"dtype": "DT_FLOAT", "tensorShape": {"dim": [{"size": "128"}, {"size": "128"}]}}}, "dtype": {"type": "DT_FLOAT"}}, "inputs": []}, {"name": "StatefulPartitionedCall/jax2tf_arg_16/ReadVariableOp", "op": "Const", "attr": {"value": {"tensor": {"dtype": "DT_FLOAT", "tensorShape": {"dim": [{"size": "128"}]}}}, "dtype": {"type": "DT_FLOAT"}}, "inputs": []}, {"name": "StatefulPartitionedCall/jax2tf_apply_/ActorCriticSymbolicRNN/GeneralActorCriticRNN_0/Dense_7/ExpandDims/dim", "op": "Const", "attr": {"value": {"tensor": {"dtype": "DT_INT32", "tensorShape": {}}}, "dtype": {"type": "DT_INT32"}}, "inputs": []}, {"name": "StatefulPartitionedCall/jax2tf_arg_21/ReadVariableOp", "op": "Const", "attr": {"value": {"tensor": {"dtype": "DT_FLOAT", "tensorShape": {"dim": [{"size": "128"}, {"size": "128"}]}}}, "dtype": {"type": "DT_FLOAT"}}, "inputs": []}, {"name": "StatefulPartitionedCall/jax2tf_arg_20/ReadVariableOp", "op": "Const", "attr": {"value": {"tensor": {"dtype": "DT_FLOAT", "tensorShape": {"dim": [{"size": "128"}]}}}, "dtype": {"type": "DT_FLOAT"}}, "inputs": []}, {"name": "StatefulPartitionedCall/jax2tf_apply_/ActorCriticSymbolicRNN/GeneralActorCriticRNN_0/Dense_9/ExpandDims/dim", "op": "Const", "attr": {"value": {"tensor": {"dtype": "DT_INT32", "tensorShape": {}}}, "dtype": {"type": "DT_INT32"}}, "inputs": []}, {"name": "StatefulPartitionedCall/jax2tf_arg_25/ReadVariableOp", "op": "Const", "attr": {"value": {"tensor": {"dtype": "DT_FLOAT", "tensorShape": {"dim": [{"size": "128"}, {"size": "128"}]}}}, "dtype": {"type": "DT_FLOAT"}}, "inputs": []}, {"name": "StatefulPartitionedCall/jax2tf_arg_24/ReadVariableOp", "op": "Const", "attr": {"value": {"tensor": {"dtype": "DT_FLOAT", "tensorShape": {"dim": [{"size": "128"}]}}}, "dtype": {"type": "DT_FLOAT"}}, "inputs": []}, {"name": "StatefulPartitionedCall/jax2tf_apply_/ActorCriticSymbolicRNN/GeneralActorCriticRNN_0/Dense_11/ExpandDims/dim", "op": "Const", "attr": {"value": {"tensor": {"dtype": "DT_INT32", "tensorShape": {}}}, "dtype": {"type": "DT_INT32"}}, "inputs": []}, {"name": "StatefulPartitionedCall/jax2tf_arg_9/ReadVariableOp", "op": "Const", "attr": {"value": {"tensor": {"dtype": "DT_FLOAT", "tensorShape": {"dim": [{"size": "128"}, {"size": "1"}]}}}, "dtype": {"type": "DT_FLOAT"}}, "inputs": []}, {"name": "StatefulPartitionedCall/jax2tf_arg_8/ReadVariableOp", "op": "Const", "attr": {"value": {"tensor": {"dtype": "DT_FLOAT", "tensorShape": {"dim": [{"size": "1"}]}}}, "dtype": {"type": "DT_FLOAT"}}, "inputs": []}, {"name": "StatefulPartitionedCall/jax2tf_apply_/ActorCriticSymbolicRNN/GeneralActorCriticRNN_0/pjit__squeeze_/Reshape/shape_1", "op": "Const", "attr": {"value": {"tensor": {"dtype": "DT_INT32", "tensorShape": {"dim": [{}]}}}, "dtype": {"type": "DT_INT32"}}, "inputs": []}, {"name": "xs_0", "op": "Placeholder", "attr": {"shape": {"shape": {"dim": [{"size": "1"}, {"size": "256"}]}}, "dtype": {"type": "DT_FLOAT"}}, "inputs": []}, {"name": "xs_1", "op": "Placeholder", "attr": {"shape": {"shape": {"dim": [{"size": "1"}]}}, "dtype": {"type": "DT_FLOAT"}}, "inputs": []}, {"name": "xs_2", "op": "Placeholder", "attr": {"shape": {"shape": {"dim": [{"size": "679"}]}}, "dtype": {"type": "DT_FLOAT"}}, "inputs": []}, {"name": "Identity", "op": "Identity", "input": ["xs_0"], "attr": {"T": {"type": "DT_FLOAT"}}, "inputs": ["xs_0"]}, {"name": "StatefulPartitionedCall/jax2tf_apply_/ActorCriticSymbolicRNN/Dense_0/ExpandDims", "op": "ExpandDims", "input": ["xs_2", "StatefulPartitionedCall/jax2tf_apply_/ActorCriticSymbolicRNN/Dense_0/ExpandDims/dim"], "attr": {"Tdim": {"type": "DT_INT32"}, "T": {"type": "DT_FLOAT"}}, "inputs": ["xs_2", "StatefulPartitionedCall/jax2tf_apply_/ActorCriticSymbolicRNN/Dense_0/ExpandDims/dim"]}, {"name": "StatefulPartitionedCall/jax2tf_apply_/ActorCriticSymbolicRNN/Dense_0/MatMul", "op": "MatMul", "input": ["StatefulPartitionedCall/jax2tf_apply_/ActorCriticSymbolicRNN/Dense_0/ExpandDims", "StatefulPartitionedCall/jax2tf_arg_1/ReadVariableOp"], "device": "/device:CPU:0", "attr": {"transpose_a": {"b": false}, "grad_a": {"b": false}, "T": {"type": "DT_FLOAT"}, "grad_b": {"b": false}, "transpose_b": {"b": false}}, "inputs": ["StatefulPartitionedCall/jax2tf_apply_/ActorCriticSymbolicRNN/Dense_0/ExpandDims", "StatefulPartitionedCall/jax2tf_arg_1/ReadVariableOp"]}, {"name": "StatefulPartitionedCall/jax2tf_apply_/ActorCriticSymbolicRNN/Dense_0/Squeeze", "op": "Squeeze", "input": ["StatefulPartitionedCall/jax2tf_apply_/ActorCriticSymbolicRNN/Dense_0/MatMul"], "attr": {"T": {"type": "DT_FLOAT"}, "squeeze_dims": {"list": {"i": ["0"]}}}, "inputs": ["StatefulPartitionedCall/jax2tf_apply_/ActorCriticSymbolicRNN/Dense_0/MatMul"]}, {"name": "StatefulPartitionedCall/jax2tf_apply_/ActorCriticSymbolicRNN/Dense_0/pjit_fn_/AddV2", "op": "AddV2", "input": ["StatefulPartitionedCall/jax2tf_apply_/ActorCriticSymbolicRNN/Dense_0/Squeeze", "StatefulPartitionedCall/jax2tf_arg_0/ReadVariableOp"], "attr": {"T": {"type": "DT_FLOAT"}}, "inputs": ["StatefulPartitionedCall/jax2tf_apply_/ActorCriticSymbolicRNN/Dense_0/Squeeze", "StatefulPartitionedCall/jax2tf_arg_0/ReadVariableOp"]}, {"name": "StatefulPartitionedCall/jax2tf_apply_/ActorCriticSymbolicRNN/pjit_relu_/Maximum", "op": "Maximum", "input": ["StatefulPartitionedCall/jax2tf_apply_/ActorCriticSymbolicRNN/Dense_0/pjit_fn_/AddV2", "StatefulPartitionedCall/jax2tf_apply_/ActorCriticSymbolicRNN/Const"], "attr": {"T": {"type": "DT_FLOAT"}}, "inputs": ["StatefulPartitionedCall/jax2tf_apply_/ActorCriticSymbolicRNN/Dense_0/pjit_fn_/AddV2", "StatefulPartitionedCall/jax2tf_apply_/ActorCriticSymbolicRNN/Const"]}, {"name": "StatefulPartitionedCall/jax2tf_apply_/ActorCriticSymbolicRNN/GeneralActorCriticRNN_0/Dense_0/ExpandDims", "op": "ExpandDims", "input": ["StatefulPartitionedCall/jax2tf_apply_/ActorCriticSymbolicRNN/pjit_relu_/Maximum", "StatefulPartitionedCall/jax2tf_apply_/ActorCriticSymbolicRNN/GeneralActorCriticRNN_0/Dense_0/ExpandDims/dim"], "attr": {"Tdim": {"type": "DT_INT32"}, "T": {"type": "DT_FLOAT"}}, "inputs": ["StatefulPartitionedCall/jax2tf_apply_/ActorCriticSymbolicRNN/pjit_relu_/Maximum", "StatefulPartitionedCall/jax2tf_apply_/ActorCriticSymbolicRNN/GeneralActorCriticRNN_0/Dense_0/ExpandDims/dim"]}, {"name": "StatefulPartitionedCall/jax2tf_apply_/ActorCriticSymbolicRNN/GeneralActorCriticRNN_0/Dense_1/ExpandDims", "op": "ExpandDims", "input": ["StatefulPartitionedCall/jax2tf_apply_/ActorCriticSymbolicRNN/pjit_relu_/Maximum", "StatefulPartitionedCall/jax2tf_apply_/ActorCriticSymbolicRNN/GeneralActorCriticRNN_0/Dense_1/ExpandDims/dim"], "attr": {"Tdim": {"type": "DT_INT32"}, "T": {"type": "DT_FLOAT"}}, "inputs": ["StatefulPartitionedCall/jax2tf_apply_/ActorCriticSymbolicRNN/pjit_relu_/Maximum", "StatefulPartitionedCall/jax2tf_apply_/ActorCriticSymbolicRNN/GeneralActorCriticRNN_0/Dense_1/ExpandDims/dim"]}, {"name": "StatefulPartitionedCall/jax2tf_apply_/ActorCriticSymbolicRNN/GeneralActorCriticRNN_0/Dense_0/MatMul", "op": "MatMul", "input": ["StatefulPartitionedCall/jax2tf_apply_/ActorCriticSymbolicRNN/GeneralActorCriticRNN_0/Dense_0/ExpandDims", "StatefulPartitionedCall/jax2tf_arg_3/ReadVariableOp"], "device": "/device:CPU:0", "attr": {"transpose_a": {"b": false}, "grad_a": {"b": false}, "T": {"type": "DT_FLOAT"}, "grad_b": {"b": false}, "transpose_b": {"b": false}}, "inputs": ["StatefulPartitionedCall/jax2tf_apply_/ActorCriticSymbolicRNN/GeneralActorCriticRNN_0/Dense_0/ExpandDims", "StatefulPartitionedCall/jax2tf_arg_3/ReadVariableOp"]}, {"name": "StatefulPartitionedCall/jax2tf_apply_/ActorCriticSymbolicRNN/GeneralActorCriticRNN_0/Dense_1/MatMul", "op": "MatMul", "input": ["StatefulPartitionedCall/jax2tf_apply_/ActorCriticSymbolicRNN/GeneralActorCriticRNN_0/Dense_1/ExpandDims", "StatefulPartitionedCall/jax2tf_arg_5/ReadVariableOp"], "device": "/device:CPU:0", "attr": {"transpose_a": {"b": false}, "grad_a": {"b": false}, "T": {"type": "DT_FLOAT"}, "grad_b": {"b": false}, "transpose_b": {"b": false}}, "inputs": ["StatefulPartitionedCall/jax2tf_apply_/ActorCriticSymbolicRNN/GeneralActorCriticRNN_0/Dense_1/ExpandDims", "StatefulPartitionedCall/jax2tf_arg_5/ReadVariableOp"]}, {"name": "StatefulPartitionedCall/jax2tf_apply_/ActorCriticSymbolicRNN/GeneralActorCriticRNN_0/Dense_0/Squeeze", "op": "Squeeze", "input": ["StatefulPartitionedCall/jax2tf_apply_/ActorCriticSymbolicRNN/GeneralActorCriticRNN_0/Dense_0/MatMul"], "attr": {"T": {"type": "DT_FLOAT"}, "squeeze_dims": {"list": {"i": ["0"]}}}, "inputs": ["StatefulPartitionedCall/jax2tf_apply_/ActorCriticSymbolicRNN/GeneralActorCriticRNN_0/Dense_0/MatMul"]}, {"name": "StatefulPartitionedCall/jax2tf_apply_/ActorCriticSymbolicRNN/GeneralActorCriticRNN_0/Dense_1/Squeeze", "op": "Squeeze", "input": ["StatefulPartitionedCall/jax2tf_apply_/ActorCriticSymbolicRNN/GeneralActorCriticRNN_0/Dense_1/MatMul"], "attr": {"T": {"type": "DT_FLOAT"}, "squeeze_dims": {"list": {"i": ["0"]}}}, "inputs": ["StatefulPartitionedCall/jax2tf_apply_/ActorCriticSymbolicRNN/GeneralActorCriticRNN_0/Dense_1/MatMul"]}, {"name": "StatefulPartitionedCall/jax2tf_apply_/ActorCriticSymbolicRNN/GeneralActorCriticRNN_0/Dense_0/pjit_fn_/AddV2", "op": "AddV2", "input": ["StatefulPartitionedCall/jax2tf_apply_/ActorCriticSymbolicRNN/GeneralActorCriticRNN_0/Dense_0/Squeeze", "StatefulPartitionedCall/jax2tf_arg_2/ReadVariableOp"], "attr": {"T": {"type": "DT_FLOAT"}}, "inputs": ["StatefulPartitionedCall/jax2tf_apply_/ActorCriticSymbolicRNN/GeneralActorCriticRNN_0/Dense_0/Squeeze", "StatefulPartitionedCall/jax2tf_arg_2/ReadVariableOp"]}, {"name": "StatefulPartitionedCall/jax2tf_apply_/ActorCriticSymbolicRNN/GeneralActorCriticRNN_0/Dense_1/pjit_fn_/AddV2", "op": "AddV2", "input": ["StatefulPartitionedCall/jax2tf_apply_/ActorCriticSymbolicRNN/GeneralActorCriticRNN_0/Dense_1/Squeeze", "StatefulPartitionedCall/jax2tf_arg_4/ReadVariableOp"], "attr": {"T": {"type": "DT_FLOAT"}}, "inputs": ["StatefulPartitionedCall/jax2tf_apply_/ActorCriticSymbolicRNN/GeneralActorCriticRNN_0/Dense_1/Squeeze", "StatefulPartitionedCall/jax2tf_arg_4/ReadVariableOp"]}, {"name": "StatefulPartitionedCall/jax2tf_apply_/ActorCriticSymbolicRNN/GeneralActorCriticRNN_0/pjit_tanh_/Tanh", "op": "Tanh", "input": ["StatefulPartitionedCall/jax2tf_apply_/ActorCriticSymbolicRNN/GeneralActorCriticRNN_0/Dense_0/pjit_fn_/AddV2"], "attr": {"T": {"type": "DT_FLOAT"}}, "inputs": ["StatefulPartitionedCall/jax2tf_apply_/ActorCriticSymbolicRNN/GeneralActorCriticRNN_0/Dense_0/pjit_fn_/AddV2"]}, {"name": "StatefulPartitionedCall/jax2tf_apply_/ActorCriticSymbolicRNN/GeneralActorCriticRNN_0/pjit_tanh_/Tanh_1", "op": "Tanh", "input": ["StatefulPartitionedCall/jax2tf_apply_/ActorCriticSymbolicRNN/GeneralActorCriticRNN_0/Dense_1/pjit_fn_/AddV2"], "attr": {"T": {"type": "DT_FLOAT"}}, "inputs": ["StatefulPartitionedCall/jax2tf_apply_/ActorCriticSymbolicRNN/GeneralActorCriticRNN_0/Dense_1/pjit_fn_/AddV2"]}, {"name": "StatefulPartitionedCall/jax2tf_apply_/ActorCriticSymbolicRNN/GeneralActorCriticRNN_0/Dense_2/ExpandDims", "op": "ExpandDims", "input": ["StatefulPartitionedCall/jax2tf_apply_/ActorCriticSymbolicRNN/GeneralActorCriticRNN_0/pjit_tanh_/Tanh", "StatefulPartitionedCall/jax2tf_apply_/ActorCriticSymbolicRNN/GeneralActorCriticRNN_0/Dense_2/ExpandDims/dim"], "attr": {"Tdim": {"type": "DT_INT32"}, "T": {"type": "DT_FLOAT"}}, "inputs": ["StatefulPartitionedCall/jax2tf_apply_/ActorCriticSymbolicRNN/GeneralActorCriticRNN_0/pjit_tanh_/Tanh", "StatefulPartitionedCall/jax2tf_apply_/ActorCriticSymbolicRNN/GeneralActorCriticRNN_0/Dense_2/ExpandDims/dim"]}, {"name": "StatefulPartitionedCall/jax2tf_apply_/ActorCriticSymbolicRNN/GeneralActorCriticRNN_0/Dense_3/ExpandDims", "op": "ExpandDims", "input": ["StatefulPartitionedCall/jax2tf_apply_/ActorCriticSymbolicRNN/GeneralActorCriticRNN_0/pjit_tanh_/Tanh_1", "StatefulPartitionedCall/jax2tf_apply_/ActorCriticSymbolicRNN/GeneralActorCriticRNN_0/Dense_3/ExpandDims/dim"], "attr": {"Tdim": {"type": "DT_INT32"}, "T": {"type": "DT_FLOAT"}}, "inputs": ["StatefulPartitionedCall/jax2tf_apply_/ActorCriticSymbolicRNN/GeneralActorCriticRNN_0/pjit_tanh_/Tanh_1", "StatefulPartitionedCall/jax2tf_apply_/ActorCriticSymbolicRNN/GeneralActorCriticRNN_0/Dense_3/ExpandDims/dim"]}, {"name": "StatefulPartitionedCall/jax2tf_apply_/ActorCriticSymbolicRNN/GeneralActorCriticRNN_0/Dense_2/MatMul", "op": "MatMul", "input": ["StatefulPartitionedCall/jax2tf_apply_/ActorCriticSymbolicRNN/GeneralActorCriticRNN_0/Dense_2/ExpandDims", "StatefulPartitionedCall/jax2tf_arg_11/ReadVariableOp"], "device": "/device:CPU:0", "attr": {"transpose_a": {"b": false}, "grad_a": {"b": false}, "T": {"type": "DT_FLOAT"}, "grad_b": {"b": false}, "transpose_b": {"b": false}}, "inputs": ["StatefulPartitionedCall/jax2tf_apply_/ActorCriticSymbolicRNN/GeneralActorCriticRNN_0/Dense_2/ExpandDims", "StatefulPartitionedCall/jax2tf_arg_11/ReadVariableOp"]}, {"name": "StatefulPartitionedCall/jax2tf_apply_/ActorCriticSymbolicRNN/GeneralActorCriticRNN_0/Dense_3/MatMul", "op": "MatMul", "input": ["StatefulPartitionedCall/jax2tf_apply_/ActorCriticSymbolicRNN/GeneralActorCriticRNN_0/Dense_3/ExpandDims", "StatefulPartitionedCall/jax2tf_arg_13/ReadVariableOp"], "device": "/device:CPU:0", "attr": {"grad_a": {"b": false}, "transpose_a": {"b": false}, "T": {"type": "DT_FLOAT"}, "grad_b": {"b": false}, "transpose_b": {"b": false}}, "inputs": ["StatefulPartitionedCall/jax2tf_apply_/ActorCriticSymbolicRNN/GeneralActorCriticRNN_0/Dense_3/ExpandDims", "StatefulPartitionedCall/jax2tf_arg_13/ReadVariableOp"]}, {"name": "StatefulPartitionedCall/jax2tf_apply_/ActorCriticSymbolicRNN/GeneralActorCriticRNN_0/Dense_2/Squeeze", "op": "Squeeze", "input": ["StatefulPartitionedCall/jax2tf_apply_/ActorCriticSymbolicRNN/GeneralActorCriticRNN_0/Dense_2/MatMul"], "attr": {"T": {"type": "DT_FLOAT"}, "squeeze_dims": {"list": {"i": ["0"]}}}, "inputs": ["StatefulPartitionedCall/jax2tf_apply_/ActorCriticSymbolicRNN/GeneralActorCriticRNN_0/Dense_2/MatMul"]}, {"name": "StatefulPartitionedCall/jax2tf_apply_/ActorCriticSymbolicRNN/GeneralActorCriticRNN_0/Dense_3/Squeeze", "op": "Squeeze", "input": ["StatefulPartitionedCall/jax2tf_apply_/ActorCriticSymbolicRNN/GeneralActorCriticRNN_0/Dense_3/MatMul"], "attr": {"T": {"type": "DT_FLOAT"}, "squeeze_dims": {"list": {"i": ["0"]}}}, "inputs": ["StatefulPartitionedCall/jax2tf_apply_/ActorCriticSymbolicRNN/GeneralActorCriticRNN_0/Dense_3/MatMul"]}, {"name": "StatefulPartitionedCall/jax2tf_apply_/ActorCriticSymbolicRNN/GeneralActorCriticRNN_0/Dense_2/pjit_fn_/AddV2", "op": "AddV2", "input": ["StatefulPartitionedCall/jax2tf_apply_/ActorCriticSymbolicRNN/GeneralActorCriticRNN_0/Dense_2/Squeeze", "StatefulPartitionedCall/jax2tf_arg_10/ReadVariableOp"], "attr": {"T": {"type": "DT_FLOAT"}}, "inputs": ["StatefulPartitionedCall/jax2tf_apply_/ActorCriticSymbolicRNN/GeneralActorCriticRNN_0/Dense_2/Squeeze", "StatefulPartitionedCall/jax2tf_arg_10/ReadVariableOp"]}, {"name": "StatefulPartitionedCall/jax2tf_apply_/ActorCriticSymbolicRNN/GeneralActorCriticRNN_0/Dense_3/pjit_fn_/AddV2", "op": "AddV2", "input": ["StatefulPartitionedCall/jax2tf_apply_/ActorCriticSymbolicRNN/GeneralActorCriticRNN_0/Dense_3/Squeeze", "StatefulPartitionedCall/jax2tf_arg_12/ReadVariableOp"], "attr": {"T": {"type": "DT_FLOAT"}}, "inputs": ["StatefulPartitionedCall/jax2tf_apply_/ActorCriticSymbolicRNN/GeneralActorCriticRNN_0/Dense_3/Squeeze", "StatefulPartitionedCall/jax2tf_arg_12/ReadVariableOp"]}, {"name": "StatefulPartitionedCall/jax2tf_apply_/ActorCriticSymbolicRNN/GeneralActorCriticRNN_0/pjit_tanh_/Tanh_2", "op": "Tanh", "input": ["StatefulPartitionedCall/jax2tf_apply_/ActorCriticSymbolicRNN/GeneralActorCriticRNN_0/Dense_2/pjit_fn_/AddV2"], "attr": {"T": {"type": "DT_FLOAT"}}, "inputs": ["StatefulPartitionedCall/jax2tf_apply_/ActorCriticSymbolicRNN/GeneralActorCriticRNN_0/Dense_2/pjit_fn_/AddV2"]}, {"name": "StatefulPartitionedCall/jax2tf_apply_/ActorCriticSymbolicRNN/GeneralActorCriticRNN_0/pjit_tanh_/Tanh_3", "op": "Tanh", "input": ["StatefulPartitionedCall/jax2tf_apply_/ActorCriticSymbolicRNN/GeneralActorCriticRNN_0/Dense_3/pjit_fn_/AddV2"], "attr": {"T": {"type": "DT_FLOAT"}}, "inputs": ["StatefulPartitionedCall/jax2tf_apply_/ActorCriticSymbolicRNN/GeneralActorCriticRNN_0/Dense_3/pjit_fn_/AddV2"]}, {"name": "StatefulPartitionedCall/jax2tf_apply_/ActorCriticSymbolicRNN/GeneralActorCriticRNN_0/Dense_4/ExpandDims", "op": "ExpandDims", "input": ["StatefulPartitionedCall/jax2tf_apply_/ActorCriticSymbolicRNN/GeneralActorCriticRNN_0/pjit_tanh_/Tanh_2", "StatefulPartitionedCall/jax2tf_apply_/ActorCriticSymbolicRNN/GeneralActorCriticRNN_0/Dense_4/ExpandDims/dim"], "attr": {"Tdim": {"type": "DT_INT32"}, "T": {"type": "DT_FLOAT"}}, "inputs": ["StatefulPartitionedCall/jax2tf_apply_/ActorCriticSymbolicRNN/GeneralActorCriticRNN_0/pjit_tanh_/Tanh_2", "StatefulPartitionedCall/jax2tf_apply_/ActorCriticSymbolicRNN/GeneralActorCriticRNN_0/Dense_4/ExpandDims/dim"]}, {"name": "StatefulPartitionedCall/jax2tf_apply_/ActorCriticSymbolicRNN/GeneralActorCriticRNN_0/Dense_5/ExpandDims", "op": "ExpandDims", "input": ["StatefulPartitionedCall/jax2tf_apply_/ActorCriticSymbolicRNN/GeneralActorCriticRNN_0/pjit_tanh_/Tanh_3", "StatefulPartitionedCall/jax2tf_apply_/ActorCriticSymbolicRNN/GeneralActorCriticRNN_0/Dense_5/ExpandDims/dim"], "attr": {"Tdim": {"type": "DT_INT32"}, "T": {"type": "DT_FLOAT"}}, "inputs": ["StatefulPartitionedCall/jax2tf_apply_/ActorCriticSymbolicRNN/GeneralActorCriticRNN_0/pjit_tanh_/Tanh_3", "StatefulPartitionedCall/jax2tf_apply_/ActorCriticSymbolicRNN/GeneralActorCriticRNN_0/Dense_5/ExpandDims/dim"]}, {"name": "StatefulPartitionedCall/jax2tf_apply_/ActorCriticSymbolicRNN/GeneralActorCriticRNN_0/Dense_4/MatMul", "op": "MatMul", "input": ["StatefulPartitionedCall/jax2tf_apply_/ActorCriticSymbolicRNN/GeneralActorCriticRNN_0/Dense_4/ExpandDims", "StatefulPartitionedCall/jax2tf_arg_15/ReadVariableOp"], "device": "/device:CPU:0", "attr": {"grad_a": {"b": false}, "transpose_a": {"b": false}, "T": {"type": "DT_FLOAT"}, "grad_b": {"b": false}, "transpose_b": {"b": false}}, "inputs": ["StatefulPartitionedCall/jax2tf_apply_/ActorCriticSymbolicRNN/GeneralActorCriticRNN_0/Dense_4/ExpandDims", "StatefulPartitionedCall/jax2tf_arg_15/ReadVariableOp"]}, {"name": "StatefulPartitionedCall/jax2tf_apply_/ActorCriticSymbolicRNN/GeneralActorCriticRNN_0/Dense_5/MatMul", "op": "MatMul", "input": ["StatefulPartitionedCall/jax2tf_apply_/ActorCriticSymbolicRNN/GeneralActorCriticRNN_0/Dense_5/ExpandDims", "StatefulPartitionedCall/jax2tf_arg_17/ReadVariableOp"], "device": "/device:CPU:0", "attr": {"transpose_a": {"b": false}, "grad_a": {"b": false}, "T": {"type": "DT_FLOAT"}, "grad_b": {"b": false}, "transpose_b": {"b": false}}, "inputs": ["StatefulPartitionedCall/jax2tf_apply_/ActorCriticSymbolicRNN/GeneralActorCriticRNN_0/Dense_5/ExpandDims", "StatefulPartitionedCall/jax2tf_arg_17/ReadVariableOp"]}, {"name": "StatefulPartitionedCall/jax2tf_apply_/ActorCriticSymbolicRNN/GeneralActorCriticRNN_0/Dense_4/Squeeze", "op": "Squeeze", "input": ["StatefulPartitionedCall/jax2tf_apply_/ActorCriticSymbolicRNN/GeneralActorCriticRNN_0/Dense_4/MatMul"], "attr": {"T": {"type": "DT_FLOAT"}, "squeeze_dims": {"list": {"i": ["0"]}}}, "inputs": ["StatefulPartitionedCall/jax2tf_apply_/ActorCriticSymbolicRNN/GeneralActorCriticRNN_0/Dense_4/MatMul"]}, {"name": "StatefulPartitionedCall/jax2tf_apply_/ActorCriticSymbolicRNN/GeneralActorCriticRNN_0/Dense_5/Squeeze", "op": "Squeeze", "input": ["StatefulPartitionedCall/jax2tf_apply_/ActorCriticSymbolicRNN/GeneralActorCriticRNN_0/Dense_5/MatMul"], "attr": {"T": {"type": "DT_FLOAT"}, "squeeze_dims": {"list": {"i": ["0"]}}}, "inputs": ["StatefulPartitionedCall/jax2tf_apply_/ActorCriticSymbolicRNN/GeneralActorCriticRNN_0/Dense_5/MatMul"]}, {"name": "StatefulPartitionedCall/jax2tf_apply_/ActorCriticSymbolicRNN/GeneralActorCriticRNN_0/Dense_4/pjit_fn_/AddV2", "op": "AddV2", "input": ["StatefulPartitionedCall/jax2tf_apply_/ActorCriticSymbolicRNN/GeneralActorCriticRNN_0/Dense_4/Squeeze", "StatefulPartitionedCall/jax2tf_arg_14/ReadVariableOp"], "attr": {"T": {"type": "DT_FLOAT"}}, "inputs": ["StatefulPartitionedCall/jax2tf_apply_/ActorCriticSymbolicRNN/GeneralActorCriticRNN_0/Dense_4/Squeeze", "StatefulPartitionedCall/jax2tf_arg_14/ReadVariableOp"]}, {"name": "StatefulPartitionedCall/jax2tf_apply_/ActorCriticSymbolicRNN/GeneralActorCriticRNN_0/Dense_5/pjit_fn_/AddV2", "op": "AddV2", "input": ["StatefulPartitionedCall/jax2tf_apply_/ActorCriticSymbolicRNN/GeneralActorCriticRNN_0/Dense_5/Squeeze", "StatefulPartitionedCall/jax2tf_arg_16/ReadVariableOp"], "attr": {"T": {"type": "DT_FLOAT"}}, "inputs": ["StatefulPartitionedCall/jax2tf_apply_/ActorCriticSymbolicRNN/GeneralActorCriticRNN_0/Dense_5/Squeeze", "StatefulPartitionedCall/jax2tf_arg_16/ReadVariableOp"]}, {"name": "StatefulPartitionedCall/jax2tf_apply_/ActorCriticSymbolicRNN/GeneralActorCriticRNN_0/pjit_tanh_/Tanh_4", "op": "Tanh", "input": ["StatefulPartitionedCall/jax2tf_apply_/ActorCriticSymbolicRNN/GeneralActorCriticRNN_0/Dense_4/pjit_fn_/AddV2"], "attr": {"T": {"type": "DT_FLOAT"}}, "inputs": ["StatefulPartitionedCall/jax2tf_apply_/ActorCriticSymbolicRNN/GeneralActorCriticRNN_0/Dense_4/pjit_fn_/AddV2"]}, {"name": "StatefulPartitionedCall/jax2tf_apply_/ActorCriticSymbolicRNN/GeneralActorCriticRNN_0/pjit_tanh_/Tanh_5", "op": "Tanh", "input": ["StatefulPartitionedCall/jax2tf_apply_/ActorCriticSymbolicRNN/GeneralActorCriticRNN_0/Dense_5/pjit_fn_/AddV2"], "attr": {"T": {"type": "DT_FLOAT"}}, "inputs": ["StatefulPartitionedCall/jax2tf_apply_/ActorCriticSymbolicRNN/GeneralActorCriticRNN_0/Dense_5/pjit_fn_/AddV2"]}, {"name": "StatefulPartitionedCall/jax2tf_apply_/ActorCriticSymbolicRNN/GeneralActorCriticRNN_0/Dense_6/ExpandDims", "op": "ExpandDims", "input": ["StatefulPartitionedCall/jax2tf_apply_/ActorCriticSymbolicRNN/GeneralActorCriticRNN_0/pjit_tanh_/Tanh_4", "StatefulPartitionedCall/jax2tf_apply_/ActorCriticSymbolicRNN/GeneralActorCriticRNN_0/Dense_6/ExpandDims/dim"], "attr": {"Tdim": {"type": "DT_INT32"}, "T": {"type": "DT_FLOAT"}}, "inputs": ["StatefulPartitionedCall/jax2tf_apply_/ActorCriticSymbolicRNN/GeneralActorCriticRNN_0/pjit_tanh_/Tanh_4", "StatefulPartitionedCall/jax2tf_apply_/ActorCriticSymbolicRNN/GeneralActorCriticRNN_0/Dense_6/ExpandDims/dim"]}, {"name": "StatefulPartitionedCall/jax2tf_apply_/ActorCriticSymbolicRNN/GeneralActorCriticRNN_0/Dense_7/ExpandDims", "op": "ExpandDims", "input": ["StatefulPartitionedCall/jax2tf_apply_/ActorCriticSymbolicRNN/GeneralActorCriticRNN_0/pjit_tanh_/Tanh_5", "StatefulPartitionedCall/jax2tf_apply_/ActorCriticSymbolicRNN/GeneralActorCriticRNN_0/Dense_7/ExpandDims/dim"], "attr": {"Tdim": {"type": "DT_INT32"}, "T": {"type": "DT_FLOAT"}}, "inputs": ["StatefulPartitionedCall/jax2tf_apply_/ActorCriticSymbolicRNN/GeneralActorCriticRNN_0/pjit_tanh_/Tanh_5", "StatefulPartitionedCall/jax2tf_apply_/ActorCriticSymbolicRNN/GeneralActorCriticRNN_0/Dense_7/ExpandDims/dim"]}, {"name": "StatefulPartitionedCall/jax2tf_apply_/ActorCriticSymbolicRNN/GeneralActorCriticRNN_0/Dense_6/MatMul", "op": "MatMul", "input": ["StatefulPartitionedCall/jax2tf_apply_/ActorCriticSymbolicRNN/GeneralActorCriticRNN_0/Dense_6/ExpandDims", "StatefulPartitionedCall/jax2tf_arg_19/ReadVariableOp"], "device": "/device:CPU:0", "attr": {"transpose_a": {"b": false}, "grad_a": {"b": false}, "T": {"type": "DT_FLOAT"}, "grad_b": {"b": false}, "transpose_b": {"b": false}}, "inputs": ["StatefulPartitionedCall/jax2tf_apply_/ActorCriticSymbolicRNN/GeneralActorCriticRNN_0/Dense_6/ExpandDims", "StatefulPartitionedCall/jax2tf_arg_19/ReadVariableOp"]}, {"name": "StatefulPartitionedCall/jax2tf_apply_/ActorCriticSymbolicRNN/GeneralActorCriticRNN_0/Dense_7/MatMul", "op": "MatMul", "input": ["StatefulPartitionedCall/jax2tf_apply_/ActorCriticSymbolicRNN/GeneralActorCriticRNN_0/Dense_7/ExpandDims", "StatefulPartitionedCall/jax2tf_arg_21/ReadVariableOp"], "device": "/device:CPU:0", "attr": {"grad_a": {"b": false}, "transpose_a": {"b": false}, "T": {"type": "DT_FLOAT"}, "grad_b": {"b": false}, "transpose_b": {"b": false}}, "inputs": ["StatefulPartitionedCall/jax2tf_apply_/ActorCriticSymbolicRNN/GeneralActorCriticRNN_0/Dense_7/ExpandDims", "StatefulPartitionedCall/jax2tf_arg_21/ReadVariableOp"]}, {"name": "StatefulPartitionedCall/jax2tf_apply_/ActorCriticSymbolicRNN/GeneralActorCriticRNN_0/Dense_6/Squeeze", "op": "Squeeze", "input": ["StatefulPartitionedCall/jax2tf_apply_/ActorCriticSymbolicRNN/GeneralActorCriticRNN_0/Dense_6/MatMul"], "attr": {"T": {"type": "DT_FLOAT"}, "squeeze_dims": {"list": {"i": ["0"]}}}, "inputs": ["StatefulPartitionedCall/jax2tf_apply_/ActorCriticSymbolicRNN/GeneralActorCriticRNN_0/Dense_6/MatMul"]}, {"name": "StatefulPartitionedCall/jax2tf_apply_/ActorCriticSymbolicRNN/GeneralActorCriticRNN_0/Dense_7/Squeeze", "op": "Squeeze", "input": ["StatefulPartitionedCall/jax2tf_apply_/ActorCriticSymbolicRNN/GeneralActorCriticRNN_0/Dense_7/MatMul"], "attr": {"T": {"type": "DT_FLOAT"}, "squeeze_dims": {"list": {"i": ["0"]}}}, "inputs": ["StatefulPartitionedCall/jax2tf_apply_/ActorCriticSymbolicRNN/GeneralActorCriticRNN_0/Dense_7/MatMul"]}, {"name": "StatefulPartitionedCall/jax2tf_apply_/ActorCriticSymbolicRNN/GeneralActorCriticRNN_0/Dense_6/pjit_fn_/AddV2", "op": "AddV2", "input": ["StatefulPartitionedCall/jax2tf_apply_/ActorCriticSymbolicRNN/GeneralActorCriticRNN_0/Dense_6/Squeeze", "StatefulPartitionedCall/jax2tf_arg_18/ReadVariableOp"], "attr": {"T": {"type": "DT_FLOAT"}}, "inputs": ["StatefulPartitionedCall/jax2tf_apply_/ActorCriticSymbolicRNN/GeneralActorCriticRNN_0/Dense_6/Squeeze", "StatefulPartitionedCall/jax2tf_arg_18/ReadVariableOp"]}, {"name": "StatefulPartitionedCall/jax2tf_apply_/ActorCriticSymbolicRNN/GeneralActorCriticRNN_0/Dense_7/pjit_fn_/AddV2", "op": "AddV2", "input": ["StatefulPartitionedCall/jax2tf_apply_/ActorCriticSymbolicRNN/GeneralActorCriticRNN_0/Dense_7/Squeeze", "StatefulPartitionedCall/jax2tf_arg_20/ReadVariableOp"], "attr": {"T": {"type": "DT_FLOAT"}}, "inputs": ["StatefulPartitionedCall/jax2tf_apply_/ActorCriticSymbolicRNN/GeneralActorCriticRNN_0/Dense_7/Squeeze", "StatefulPartitionedCall/jax2tf_arg_20/ReadVariableOp"]}, {"name": "StatefulPartitionedCall/jax2tf_apply_/ActorCriticSymbolicRNN/GeneralActorCriticRNN_0/pjit_tanh_/Tanh_6", "op": "Tanh", "input": ["StatefulPartitionedCall/jax2tf_apply_/ActorCriticSymbolicRNN/GeneralActorCriticRNN_0/Dense_6/pjit_fn_/AddV2"], "attr": {"T": {"type": "DT_FLOAT"}}, "inputs": ["StatefulPartitionedCall/jax2tf_apply_/ActorCriticSymbolicRNN/GeneralActorCriticRNN_0/Dense_6/pjit_fn_/AddV2"]}, {"name": "StatefulPartitionedCall/jax2tf_apply_/ActorCriticSymbolicRNN/GeneralActorCriticRNN_0/pjit_tanh_/Tanh_7", "op": "Tanh", "input": ["StatefulPartitionedCall/jax2tf_apply_/ActorCriticSymbolicRNN/GeneralActorCriticRNN_0/Dense_7/pjit_fn_/AddV2"], "attr": {"T": {"type": "DT_FLOAT"}}, "inputs": ["StatefulPartitionedCall/jax2tf_apply_/ActorCriticSymbolicRNN/GeneralActorCriticRNN_0/Dense_7/pjit_fn_/AddV2"]}, {"name": "StatefulPartitionedCall/jax2tf_apply_/ActorCriticSymbolicRNN/GeneralActorCriticRNN_0/Dense_8/ExpandDims", "op": "ExpandDims", "input": ["StatefulPartitionedCall/jax2tf_apply_/ActorCriticSymbolicRNN/GeneralActorCriticRNN_0/pjit_tanh_/Tanh_6", "StatefulPartitionedCall/jax2tf_apply_/ActorCriticSymbolicRNN/GeneralActorCriticRNN_0/Dense_8/ExpandDims/dim"], "attr": {"Tdim": {"type": "DT_INT32"}, "T": {"type": "DT_FLOAT"}}, "inputs": ["StatefulPartitionedCall/jax2tf_apply_/ActorCriticSymbolicRNN/GeneralActorCriticRNN_0/pjit_tanh_/Tanh_6", "StatefulPartitionedCall/jax2tf_apply_/ActorCriticSymbolicRNN/GeneralActorCriticRNN_0/Dense_8/ExpandDims/dim"]}, {"name": "StatefulPartitionedCall/jax2tf_apply_/ActorCriticSymbolicRNN/GeneralActorCriticRNN_0/Dense_9/ExpandDims", "op": "ExpandDims", "input": ["StatefulPartitionedCall/jax2tf_apply_/ActorCriticSymbolicRNN/GeneralActorCriticRNN_0/pjit_tanh_/Tanh_7", "StatefulPartitionedCall/jax2tf_apply_/ActorCriticSymbolicRNN/GeneralActorCriticRNN_0/Dense_9/ExpandDims/dim"], "attr": {"Tdim": {"type": "DT_INT32"}, "T": {"type": "DT_FLOAT"}}, "inputs": ["StatefulPartitionedCall/jax2tf_apply_/ActorCriticSymbolicRNN/GeneralActorCriticRNN_0/pjit_tanh_/Tanh_7", "StatefulPartitionedCall/jax2tf_apply_/ActorCriticSymbolicRNN/GeneralActorCriticRNN_0/Dense_9/ExpandDims/dim"]}, {"name": "StatefulPartitionedCall/jax2tf_apply_/ActorCriticSymbolicRNN/GeneralActorCriticRNN_0/Dense_8/MatMul", "op": "MatMul", "input": ["StatefulPartitionedCall/jax2tf_apply_/ActorCriticSymbolicRNN/GeneralActorCriticRNN_0/Dense_8/ExpandDims", "StatefulPartitionedCall/jax2tf_arg_23/ReadVariableOp"], "device": "/device:CPU:0", "attr": {"transpose_a": {"b": false}, "grad_a": {"b": false}, "T": {"type": "DT_FLOAT"}, "grad_b": {"b": false}, "transpose_b": {"b": false}}, "inputs": ["StatefulPartitionedCall/jax2tf_apply_/ActorCriticSymbolicRNN/GeneralActorCriticRNN_0/Dense_8/ExpandDims", "StatefulPartitionedCall/jax2tf_arg_23/ReadVariableOp"]}, {"name": "StatefulPartitionedCall/jax2tf_apply_/ActorCriticSymbolicRNN/GeneralActorCriticRNN_0/Dense_9/MatMul", "op": "MatMul", "input": ["StatefulPartitionedCall/jax2tf_apply_/ActorCriticSymbolicRNN/GeneralActorCriticRNN_0/Dense_9/ExpandDims", "StatefulPartitionedCall/jax2tf_arg_25/ReadVariableOp"], "device": "/device:CPU:0", "attr": {"grad_a": {"b": false}, "transpose_a": {"b": false}, "T": {"type": "DT_FLOAT"}, "grad_b": {"b": false}, "transpose_b": {"b": false}}, "inputs": ["StatefulPartitionedCall/jax2tf_apply_/ActorCriticSymbolicRNN/GeneralActorCriticRNN_0/Dense_9/ExpandDims", "StatefulPartitionedCall/jax2tf_arg_25/ReadVariableOp"]}, {"name": "StatefulPartitionedCall/jax2tf_apply_/ActorCriticSymbolicRNN/GeneralActorCriticRNN_0/Dense_8/Squeeze", "op": "Squeeze", "input": ["StatefulPartitionedCall/jax2tf_apply_/ActorCriticSymbolicRNN/GeneralActorCriticRNN_0/Dense_8/MatMul"], "attr": {"T": {"type": "DT_FLOAT"}, "squeeze_dims": {"list": {"i": ["0"]}}}, "inputs": ["StatefulPartitionedCall/jax2tf_apply_/ActorCriticSymbolicRNN/GeneralActorCriticRNN_0/Dense_8/MatMul"]}, {"name": "StatefulPartitionedCall/jax2tf_apply_/ActorCriticSymbolicRNN/GeneralActorCriticRNN_0/Dense_9/Squeeze", "op": "Squeeze", "input": ["StatefulPartitionedCall/jax2tf_apply_/ActorCriticSymbolicRNN/GeneralActorCriticRNN_0/Dense_9/MatMul"], "attr": {"T": {"type": "DT_FLOAT"}, "squeeze_dims": {"list": {"i": ["0"]}}}, "inputs": ["StatefulPartitionedCall/jax2tf_apply_/ActorCriticSymbolicRNN/GeneralActorCriticRNN_0/Dense_9/MatMul"]}, {"name": "StatefulPartitionedCall/jax2tf_apply_/ActorCriticSymbolicRNN/GeneralActorCriticRNN_0/Dense_8/pjit_fn_/AddV2", "op": "AddV2", "input": ["StatefulPartitionedCall/jax2tf_apply_/ActorCriticSymbolicRNN/GeneralActorCriticRNN_0/Dense_8/Squeeze", "StatefulPartitionedCall/jax2tf_arg_22/ReadVariableOp"], "attr": {"T": {"type": "DT_FLOAT"}}, "inputs": ["StatefulPartitionedCall/jax2tf_apply_/ActorCriticSymbolicRNN/GeneralActorCriticRNN_0/Dense_8/Squeeze", "StatefulPartitionedCall/jax2tf_arg_22/ReadVariableOp"]}, {"name": "StatefulPartitionedCall/jax2tf_apply_/ActorCriticSymbolicRNN/GeneralActorCriticRNN_0/Dense_9/pjit_fn_/AddV2", "op": "AddV2", "input": ["StatefulPartitionedCall/jax2tf_apply_/ActorCriticSymbolicRNN/GeneralActorCriticRNN_0/Dense_9/Squeeze", "StatefulPartitionedCall/jax2tf_arg_24/ReadVariableOp"], "attr": {"T": {"type": "DT_FLOAT"}}, "inputs": ["StatefulPartitionedCall/jax2tf_apply_/ActorCriticSymbolicRNN/GeneralActorCriticRNN_0/Dense_9/Squeeze", "StatefulPartitionedCall/jax2tf_arg_24/ReadVariableOp"]}, {"name": "StatefulPartitionedCall/jax2tf_apply_/ActorCriticSymbolicRNN/GeneralActorCriticRNN_0/pjit_tanh_/Tanh_8", "op": "Tanh", "input": ["StatefulPartitionedCall/jax2tf_apply_/ActorCriticSymbolicRNN/GeneralActorCriticRNN_0/Dense_8/pjit_fn_/AddV2"], "attr": {"T": {"type": "DT_FLOAT"}}, "inputs": ["StatefulPartitionedCall/jax2tf_apply_/ActorCriticSymbolicRNN/GeneralActorCriticRNN_0/Dense_8/pjit_fn_/AddV2"]}, {"name": "StatefulPartitionedCall/jax2tf_apply_/ActorCriticSymbolicRNN/GeneralActorCriticRNN_0/pjit_tanh_/Tanh_9", "op": "Tanh", "input": ["StatefulPartitionedCall/jax2tf_apply_/ActorCriticSymbolicRNN/GeneralActorCriticRNN_0/Dense_9/pjit_fn_/AddV2"], "attr": {"T": {"type": "DT_FLOAT"}}, "inputs": ["StatefulPartitionedCall/jax2tf_apply_/ActorCriticSymbolicRNN/GeneralActorCriticRNN_0/Dense_9/pjit_fn_/AddV2"]}, {"name": "StatefulPartitionedCall/jax2tf_apply_/ActorCriticSymbolicRNN/GeneralActorCriticRNN_0/Dense_10/ExpandDims", "op": "ExpandDims", "input": ["StatefulPartitionedCall/jax2tf_apply_/ActorCriticSymbolicRNN/GeneralActorCriticRNN_0/pjit_tanh_/Tanh_8", "StatefulPartitionedCall/jax2tf_apply_/ActorCriticSymbolicRNN/GeneralActorCriticRNN_0/Dense_10/ExpandDims/dim"], "attr": {"Tdim": {"type": "DT_INT32"}, "T": {"type": "DT_FLOAT"}}, "inputs": ["StatefulPartitionedCall/jax2tf_apply_/ActorCriticSymbolicRNN/GeneralActorCriticRNN_0/pjit_tanh_/Tanh_8", "StatefulPartitionedCall/jax2tf_apply_/ActorCriticSymbolicRNN/GeneralActorCriticRNN_0/Dense_10/ExpandDims/dim"]}, {"name": "StatefulPartitionedCall/jax2tf_apply_/ActorCriticSymbolicRNN/GeneralActorCriticRNN_0/Dense_11/ExpandDims", "op": "ExpandDims", "input": ["StatefulPartitionedCall/jax2tf_apply_/ActorCriticSymbolicRNN/GeneralActorCriticRNN_0/pjit_tanh_/Tanh_9", "StatefulPartitionedCall/jax2tf_apply_/ActorCriticSymbolicRNN/GeneralActorCriticRNN_0/Dense_11/ExpandDims/dim"], "attr": {"Tdim": {"type": "DT_INT32"}, "T": {"type": "DT_FLOAT"}}, "inputs": ["StatefulPartitionedCall/jax2tf_apply_/ActorCriticSymbolicRNN/GeneralActorCriticRNN_0/pjit_tanh_/Tanh_9", "StatefulPartitionedCall/jax2tf_apply_/ActorCriticSymbolicRNN/GeneralActorCriticRNN_0/Dense_11/ExpandDims/dim"]}, {"name": "StatefulPartitionedCall/jax2tf_apply_/ActorCriticSymbolicRNN/GeneralActorCriticRNN_0/Dense_10/MatMul", "op": "MatMul", "input": ["StatefulPartitionedCall/jax2tf_apply_/ActorCriticSymbolicRNN/GeneralActorCriticRNN_0/Dense_10/ExpandDims", "StatefulPartitionedCall/jax2tf_arg_7/ReadVariableOp"], "device": "/device:CPU:0", "attr": {"transpose_a": {"b": false}, "grad_a": {"b": false}, "T": {"type": "DT_FLOAT"}, "grad_b": {"b": false}, "transpose_b": {"b": false}}, "inputs": ["StatefulPartitionedCall/jax2tf_apply_/ActorCriticSymbolicRNN/GeneralActorCriticRNN_0/Dense_10/ExpandDims", "StatefulPartitionedCall/jax2tf_arg_7/ReadVariableOp"]}, {"name": "StatefulPartitionedCall/jax2tf_apply_/ActorCriticSymbolicRNN/GeneralActorCriticRNN_0/Dense_11/MatMul", "op": "MatMul", "input": ["StatefulPartitionedCall/jax2tf_apply_/ActorCriticSymbolicRNN/GeneralActorCriticRNN_0/Dense_11/ExpandDims", "StatefulPartitionedCall/jax2tf_arg_9/ReadVariableOp"], "device": "/device:CPU:0", "attr": {"transpose_a": {"b": false}, "grad_a": {"b": false}, "T": {"type": "DT_FLOAT"}, "grad_b": {"b": false}, "transpose_b": {"b": false}}, "inputs": ["StatefulPartitionedCall/jax2tf_apply_/ActorCriticSymbolicRNN/GeneralActorCriticRNN_0/Dense_11/ExpandDims", "StatefulPartitionedCall/jax2tf_arg_9/ReadVariableOp"]}, {"name": "StatefulPartitionedCall/jax2tf_apply_/ActorCriticSymbolicRNN/GeneralActorCriticRNN_0/Dense_10/Squeeze", "op": "Squeeze", "input": ["StatefulPartitionedCall/jax2tf_apply_/ActorCriticSymbolicRNN/GeneralActorCriticRNN_0/Dense_10/MatMul"], "attr": {"T": {"type": "DT_FLOAT"}, "squeeze_dims": {"list": {"i": ["0"]}}}, "inputs": ["StatefulPartitionedCall/jax2tf_apply_/ActorCriticSymbolicRNN/GeneralActorCriticRNN_0/Dense_10/MatMul"]}, {"name": "StatefulPartitionedCall/jax2tf_apply_/ActorCriticSymbolicRNN/GeneralActorCriticRNN_0/Dense_11/Squeeze", "op": "Squeeze", "input": ["StatefulPartitionedCall/jax2tf_apply_/ActorCriticSymbolicRNN/GeneralActorCriticRNN_0/Dense_11/MatMul"], "attr": {"T": {"type": "DT_FLOAT"}, "squeeze_dims": {"list": {"i": ["0"]}}}, "inputs": ["StatefulPartitionedCall/jax2tf_apply_/ActorCriticSymbolicRNN/GeneralActorCriticRNN_0/Dense_11/MatMul"]}, {"name": "StatefulPartitionedCall/jax2tf_apply_/ActorCriticSymbolicRNN/GeneralActorCriticRNN_0/Dense_10/pjit_fn_/AddV2", "op": "AddV2", "input": ["StatefulPartitionedCall/jax2tf_apply_/ActorCriticSymbolicRNN/GeneralActorCriticRNN_0/Dense_10/Squeeze", "StatefulPartitionedCall/jax2tf_arg_6/ReadVariableOp"], "attr": {"T": {"type": "DT_FLOAT"}}, "inputs": ["StatefulPartitionedCall/jax2tf_apply_/ActorCriticSymbolicRNN/GeneralActorCriticRNN_0/Dense_10/Squeeze", "StatefulPartitionedCall/jax2tf_arg_6/ReadVariableOp"]}, {"name": "StatefulPartitionedCall/jax2tf_apply_/ActorCriticSymbolicRNN/GeneralActorCriticRNN_0/Dense_11/pjit_fn_/AddV2", "op": "AddV2", "input": ["StatefulPartitionedCall/jax2tf_apply_/ActorCriticSymbolicRNN/GeneralActorCriticRNN_0/Dense_11/Squeeze", "StatefulPartitionedCall/jax2tf_arg_8/ReadVariableOp"], "attr": {"T": {"type": "DT_FLOAT"}}, "inputs": ["StatefulPartitionedCall/jax2tf_apply_/ActorCriticSymbolicRNN/GeneralActorCriticRNN_0/Dense_11/Squeeze", "StatefulPartitionedCall/jax2tf_arg_8/ReadVariableOp"]}, {"name": "Identity_1", "op": "Identity", "input": ["StatefulPartitionedCall/jax2tf_apply_/ActorCriticSymbolicRNN/GeneralActorCriticRNN_0/Dense_10/pjit_fn_/AddV2"], "attr": {"T": {"type": "DT_FLOAT"}}, "inputs": ["StatefulPartitionedCall/jax2tf_apply_/ActorCriticSymbolicRNN/GeneralActorCriticRNN_0/Dense_10/pjit_fn_/AddV2"]}, {"name": "StatefulPartitionedCall/jax2tf_apply_/ActorCriticSymbolicRNN/GeneralActorCriticRNN_0/pjit__squeeze_/Reshape", "op": "Reshape", "input": ["StatefulPartitionedCall/jax2tf_apply_/ActorCriticSymbolicRNN/GeneralActorCriticRNN_0/Dense_11/pjit_fn_/AddV2", "StatefulPartitionedCall/jax2tf_apply_/ActorCriticSymbolicRNN/GeneralActorCriticRNN_0/pjit__squeeze_/Reshape/shape_1"], "attr": {"T": {"type": "DT_FLOAT"}, "Tshape": {"type": "DT_INT32"}}, "inputs": ["StatefulPartitionedCall/jax2tf_apply_/ActorCriticSymbolicRNN/GeneralActorCriticRNN_0/Dense_11/pjit_fn_/AddV2", "StatefulPartitionedCall/jax2tf_apply_/ActorCriticSymbolicRNN/GeneralActorCriticRNN_0/pjit__squeeze_/Reshape/shape_1"]}, {"name": "Identity_2", "op": "Identity", "input": ["StatefulPartitionedCall/jax2tf_apply_/ActorCriticSymbolicRNN/GeneralActorCriticRNN_0/pjit__squeeze_/Reshape"], "attr": {"T": {"type": "DT_FLOAT"}}, "inputs": ["StatefulPartitionedCall/jax2tf_apply_/ActorCriticSymbolicRNN/GeneralActorCriticRNN_0/pjit__squeeze_/Reshape"]}], "library": {}, "versions": {"producer": 1882}}, "weightsManifest": [{"paths": ["group1-shard1of1.bin"], "weights": [{"name": "StatefulPartitionedCall/jax2tf_apply_/ActorCriticSymbolicRNN/GeneralActorCriticRNN_0/Dense_0/ExpandDims/dim", "shape": [], "dtype": "int32"}, {"name": "StatefulPartitionedCall/jax2tf_arg_3/ReadVariableOp", "shape": [128, 128], "dtype": "float32"}, {"name": "StatefulPartitionedCall/jax2tf_arg_2/ReadVariableOp", "shape": [128], "dtype": "float32"}, {"name": "StatefulPartitionedCall/jax2tf_apply_/ActorCriticSymbolicRNN/GeneralActorCriticRNN_0/Dense_2/ExpandDims/dim", "shape": [], "dtype": "int32"}, {"name": "StatefulPartitionedCall/jax2tf_arg_11/ReadVariableOp", "shape": [128, 128], "dtype": "float32"}, {"name": "StatefulPartitionedCall/jax2tf_arg_10/ReadVariableOp", "shape": [128], "dtype": "float32"}, {"name": "StatefulPartitionedCall/jax2tf_apply_/ActorCriticSymbolicRNN/GeneralActorCriticRNN_0/Dense_4/ExpandDims/dim", "shape": [], "dtype": "int32"}, {"name": "StatefulPartitionedCall/jax2tf_arg_15/ReadVariableOp", "shape": [128, 128], "dtype": "float32"}, {"name": "StatefulPartitionedCall/jax2tf_arg_14/ReadVariableOp", "shape": [128], "dtype": "float32"}, {"name": "StatefulPartitionedCall/jax2tf_apply_/ActorCriticSymbolicRNN/GeneralActorCriticRNN_0/Dense_6/ExpandDims/dim", "shape": [], "dtype": "int32"}, {"name": "StatefulPartitionedCall/jax2tf_arg_19/ReadVariableOp", "shape": [128, 128], "dtype": "float32"}, {"name": "StatefulPartitionedCall/jax2tf_arg_18/ReadVariableOp", "shape": [128], "dtype": "float32"}, {"name": "StatefulPartitionedCall/jax2tf_apply_/ActorCriticSymbolicRNN/GeneralActorCriticRNN_0/Dense_8/ExpandDims/dim", "shape": [], "dtype": "int32"}, {"name": "StatefulPartitionedCall/jax2tf_arg_23/ReadVariableOp", "shape": [128, 128], "dtype": "float32"}, {"name": "StatefulPartitionedCall/jax2tf_arg_22/ReadVariableOp", "shape": [128], "dtype": "float32"}, {"name": "StatefulPartitionedCall/jax2tf_apply_/ActorCriticSymbolicRNN/GeneralActorCriticRNN_0/Dense_10/ExpandDims/dim", "shape": [], "dtype": "int32"}, {"name": "StatefulPartitionedCall/jax2tf_arg_7/ReadVariableOp", "shape": [128, 16], "dtype": "float32"}, {"name": "StatefulPartitionedCall/jax2tf_arg_6/ReadVariableOp", "shape": [16], "dtype": "float32"}, {"name": "StatefulPartitionedCall/jax2tf_apply_/ActorCriticSymbolicRNN/Dense_0/ExpandDims/dim", "shape": [], "dtype": "int32"}, {"name": "StatefulPartitionedCall/jax2tf_arg_1/ReadVariableOp", "shape": [679, 128], "dtype": "float32"}, {"name": "StatefulPartitionedCall/jax2tf_arg_0/ReadVariableOp", "shape": [128], "dtype": "float32"}, {"name": "StatefulPartitionedCall/jax2tf_apply_/ActorCriticSymbolicRNN/Const", "shape": [], "dtype": "float32"}, {"name": "StatefulPartitionedCall/jax2tf_apply_/ActorCriticSymbolicRNN/GeneralActorCriticRNN_0/Dense_1/ExpandDims/dim", "shape": [], "dtype": "int32"}, {"name": "StatefulPartitionedCall/jax2tf_arg_5/ReadVariableOp", "shape": [128, 128], "dtype": "float32"}, {"name": "StatefulPartitionedCall/jax2tf_arg_4/ReadVariableOp", "shape": [128], "dtype": "float32"}, {"name": "StatefulPartitionedCall/jax2tf_apply_/ActorCriticSymbolicRNN/GeneralActorCriticRNN_0/Dense_3/ExpandDims/dim", "shape": [], "dtype": "int32"}, {"name": "StatefulPartitionedCall/jax2tf_arg_13/ReadVariableOp", "shape": [128, 128], "dtype": "float32"}, {"name": "StatefulPartitionedCall/jax2tf_arg_12/ReadVariableOp", "shape": [128], "dtype": "float32"}, {"name": "StatefulPartitionedCall/jax2tf_apply_/ActorCriticSymbolicRNN/GeneralActorCriticRNN_0/Dense_5/ExpandDims/dim", "shape": [], "dtype": "int32"}, {"name": "StatefulPartitionedCall/jax2tf_arg_17/ReadVariableOp", "shape": [128, 128], "dtype": "float32"}, {"name": "StatefulPartitionedCall/jax2tf_arg_16/ReadVariableOp", "shape": [128], "dtype": "float32"}, {"name": "StatefulPartitionedCall/jax2tf_apply_/ActorCriticSymbolicRNN/GeneralActorCriticRNN_0/Dense_7/ExpandDims/dim", "shape": [], "dtype": "int32"}, {"name": "StatefulPartitionedCall/jax2tf_arg_21/ReadVariableOp", "shape": [128, 128], "dtype": "float32"}, {"name": "StatefulPartitionedCall/jax2tf_arg_20/ReadVariableOp", "shape": [128], "dtype": "float32"}, {"name": "StatefulPartitionedCall/jax2tf_apply_/ActorCriticSymbolicRNN/GeneralActorCriticRNN_0/Dense_9/ExpandDims/dim", "shape": [], "dtype": "int32"}, {"name": "StatefulPartitionedCall/jax2tf_arg_25/ReadVariableOp", "shape": [128, 128], "dtype": "float32"}, {"name": "StatefulPartitionedCall/jax2tf_arg_24/ReadVariableOp", "shape": [128], "dtype": "float32"}, {"name": "StatefulPartitionedCall/jax2tf_apply_/ActorCriticSymbolicRNN/GeneralActorCriticRNN_0/Dense_11/ExpandDims/dim", "shape": [], "dtype": "int32"}, {"name": "StatefulPartitionedCall/jax2tf_arg_9/ReadVariableOp", "shape": [128, 1], "dtype": "float32"}, {"name": "StatefulPartitionedCall/jax2tf_arg_8/ReadVariableOp", "shape": [1], "dtype": "float32"}, {"name": "StatefulPartitionedCall/jax2tf_apply_/ActorCriticSymbolicRNN/GeneralActorCriticRNN_0/pjit__squeeze_/Reshape/shape_1", "shape": [0], "dtype": "int32"}]}]}